{"config": {"output_layers": [["activation_109", 0, 0]], "input_layers": [["input_1", 0, 0]], "name": "model_1", "layers": [{"inbound_nodes": [], "config": {"sparse": false, "dtype": "float32", "name": "input_1", "batch_input_shape": [null, 473, 473, 3]}, "name": "input_1", "class_name": "InputLayer"}, {"inbound_nodes": [[["input_1", 0, 0, {}]]], "config": {"activation": "linear", "use_bias": false, "dilation_rate": [1, 1], "bias_constraint": null, "kernel_initializer": {"config": {"mode": "fan_avg", "distribution": "uniform", "scale": 1.0, "seed": null}, "class_name": "VarianceScaling"}, "trainable": true, "data_format": "channels_last", "kernel_size": [3, 3], "kernel_constraint": null, "strides": [2, 2], "padding": "same", "filters": 64, "bias_regularizer": null, "activity_regularizer": null, "bias_initializer": {"config": {}, "class_name": "Zeros"}, "name": "conv1_1_3x3_s2", "kernel_regularizer": null}, "name": "conv1_1_3x3_s2", "class_name": "Conv2D"}, {"inbound_nodes": [[["conv1_1_3x3_s2", 0, 0, {}]]], "config": {"scale": true, "beta_regularizer": null, "epsilon": 1e-05, "beta_initializer": {"config": {}, "class_name": "Zeros"}, "trainable": true, "name": "conv1_1_3x3_s2_bn", "moving_variance_initializer": {"config": {}, "class_name": "Ones"}, "gamma_initializer": {"config": {}, "class_name": "Ones"}, "axis": -1, "gamma_constraint": null, "moving_mean_initializer": {"config": {}, "class_name": "Zeros"}, "gamma_regularizer": null, "momentum": 0.95, "beta_constraint": null, "center": true}, "name": "conv1_1_3x3_s2_bn", "class_name": "BatchNormalization"}, {"inbound_nodes": [[["conv1_1_3x3_s2_bn", 0, 0, {}]]], "config": {"activation": "relu", "name": "activation_1", "trainable": true}, "name": "activation_1", "class_name": "Activation"}, {"inbound_nodes": [[["activation_1", 0, 0, {}]]], "config": {"activation": "linear", "use_bias": false, "dilation_rate": [1, 1], "bias_constraint": null, "kernel_initializer": {"config": {"mode": "fan_avg", "distribution": "uniform", "scale": 1.0, "seed": null}, "class_name": "VarianceScaling"}, "trainable": true, "data_format": "channels_last", "kernel_size": [3, 3], "kernel_constraint": null, "strides": [1, 1], "padding": "same", "filters": 64, "bias_regularizer": null, "activity_regularizer": null, "bias_initializer": {"config": {}, "class_name": "Zeros"}, "name": "conv1_2_3x3", "kernel_regularizer": null}, "name": "conv1_2_3x3", "class_name": "Conv2D"}, {"inbound_nodes": [[["conv1_2_3x3", 0, 0, {}]]], "config": {"scale": true, "beta_regularizer": null, "epsilon": 1e-05, "beta_initializer": {"config": {}, "class_name": "Zeros"}, "trainable": true, "name": "conv1_2_3x3_bn", "moving_variance_initializer": {"config": {}, "class_name": "Ones"}, "gamma_initializer": {"config": {}, "class_name": "Ones"}, "axis": -1, "gamma_constraint": null, "moving_mean_initializer": {"config": {}, "class_name": "Zeros"}, "gamma_regularizer": null, "momentum": 0.95, "beta_constraint": null, "center": true}, "name": "conv1_2_3x3_bn", "class_name": "BatchNormalization"}, {"inbound_nodes": [[["conv1_2_3x3_bn", 0, 0, {}]]], "config": {"activation": "relu", "name": "activation_2", "trainable": true}, "name": "activation_2", "class_name": "Activation"}, {"inbound_nodes": [[["activation_2", 0, 0, {}]]], "config": {"activation": "linear", "use_bias": false, "dilation_rate": [1, 1], "bias_constraint": null, "kernel_initializer": {"config": {"mode": "fan_avg", "distribution": "uniform", "scale": 1.0, "seed": null}, "class_name": "VarianceScaling"}, "trainable": true, "data_format": "channels_last", "kernel_size": [3, 3], "kernel_constraint": null, "strides": [1, 1], "padding": "same", "filters": 128, "bias_regularizer": null, "activity_regularizer": null, "bias_initializer": {"config": {}, "class_name": "Zeros"}, "name": "conv1_3_3x3", "kernel_regularizer": null}, "name": "conv1_3_3x3", "class_name": "Conv2D"}, {"inbound_nodes": [[["conv1_3_3x3", 0, 0, {}]]], "config": {"scale": true, "beta_regularizer": null, "epsilon": 1e-05, "beta_initializer": {"config": {}, "class_name": "Zeros"}, "trainable": true, "name": "conv1_3_3x3_bn", "moving_variance_initializer": {"config": {}, "class_name": "Ones"}, "gamma_initializer": {"config": {}, "class_name": "Ones"}, "axis": -1, "gamma_constraint": null, "moving_mean_initializer": {"config": {}, "class_name": "Zeros"}, "gamma_regularizer": null, "momentum": 0.95, "beta_constraint": null, "center": true}, "name": "conv1_3_3x3_bn", "class_name": "BatchNormalization"}, {"inbound_nodes": [[["conv1_3_3x3_bn", 0, 0, {}]]], "config": {"activation": "relu", "name": "activation_3", "trainable": true}, "name": "activation_3", "class_name": "Activation"}, {"inbound_nodes": [[["activation_3", 0, 0, {}]]], "config": {"strides": [2, 2], "padding": "same", "trainable": true, "name": "max_pooling2d_1", "data_format": "channels_last", "pool_size": [3, 3]}, "name": "max_pooling2d_1", "class_name": "MaxPooling2D"}, {"inbound_nodes": [[["max_pooling2d_1", 0, 0, {}]]], "config": {"activation": "relu", "name": "activation_4", "trainable": true}, "name": "activation_4", "class_name": "Activation"}, {"inbound_nodes": [[["activation_4", 0, 0, {}]]], "config": {"activation": "linear", "use_bias": false, "dilation_rate": [1, 1], "bias_constraint": null, "kernel_initializer": {"config": {"mode": "fan_avg", "distribution": "uniform", "scale": 1.0, "seed": null}, "class_name": "VarianceScaling"}, "trainable": true, "data_format": "channels_last", "kernel_size": [1, 1], "kernel_constraint": null, "strides": [1, 1], "padding": "valid", "filters": 64, "bias_regularizer": null, "activity_regularizer": null, "bias_initializer": {"config": {}, "class_name": "Zeros"}, "name": "conv2_1_1x1_reduce", "kernel_regularizer": null}, "name": "conv2_1_1x1_reduce", "class_name": "Conv2D"}, {"inbound_nodes": [[["conv2_1_1x1_reduce", 0, 0, {}]]], "config": {"scale": true, "beta_regularizer": null, "epsilon": 1e-05, "beta_initializer": {"config": {}, "class_name": "Zeros"}, "trainable": true, "name": "conv2_1_1x1_reduce_bn", "moving_variance_initializer": {"config": {}, "class_name": "Ones"}, "gamma_initializer": {"config": {}, "class_name": "Ones"}, "axis": -1, "gamma_constraint": null, "moving_mean_initializer": {"config": {}, "class_name": "Zeros"}, "gamma_regularizer": null, "momentum": 0.95, "beta_constraint": null, "center": true}, "name": "conv2_1_1x1_reduce_bn", "class_name": "BatchNormalization"}, {"inbound_nodes": [[["conv2_1_1x1_reduce_bn", 0, 0, {}]]], "config": {"activation": "relu", "name": "activation_5", "trainable": true}, "name": "activation_5", "class_name": "Activation"}, {"inbound_nodes": [[["activation_5", 0, 0, {}]]], "config": {"trainable": true, "padding": [[1, 1], [1, 1]], "name": "zero_padding2d_1", "data_format": "channels_last"}, "name": "zero_padding2d_1", "class_name": "ZeroPadding2D"}, {"inbound_nodes": [[["zero_padding2d_1", 0, 0, {}]]], "config": {"activation": "linear", "use_bias": false, "dilation_rate": [1, 1], "bias_constraint": null, "kernel_initializer": {"config": {"mode": "fan_avg", "distribution": "uniform", "scale": 1.0, "seed": null}, "class_name": "VarianceScaling"}, "trainable": true, "data_format": "channels_last", "kernel_size": [3, 3], "kernel_constraint": null, "strides": [1, 1], "padding": "valid", "filters": 64, "bias_regularizer": null, "activity_regularizer": null, "bias_initializer": {"config": {}, "class_name": "Zeros"}, "name": "conv2_1_3x3", "kernel_regularizer": null}, "name": "conv2_1_3x3", "class_name": "Conv2D"}, {"inbound_nodes": [[["conv2_1_3x3", 0, 0, {}]]], "config": {"scale": true, "beta_regularizer": null, "epsilon": 1e-05, "beta_initializer": {"config": {}, "class_name": "Zeros"}, "trainable": true, "name": "conv2_1_3x3_bn", "moving_variance_initializer": {"config": {}, "class_name": "Ones"}, "gamma_initializer": {"config": {}, "class_name": "Ones"}, "axis": -1, "gamma_constraint": null, "moving_mean_initializer": {"config": {}, "class_name": "Zeros"}, "gamma_regularizer": null, "momentum": 0.95, "beta_constraint": null, "center": true}, "name": "conv2_1_3x3_bn", "class_name": "BatchNormalization"}, {"inbound_nodes": [[["conv2_1_3x3_bn", 0, 0, {}]]], "config": {"activation": "relu", "name": "activation_6", "trainable": true}, "name": "activation_6", "class_name": "Activation"}, {"inbound_nodes": [[["activation_6", 0, 0, {}]]], "config": {"activation": "linear", "use_bias": false, "dilation_rate": [1, 1], "bias_constraint": null, "kernel_initializer": {"config": {"mode": "fan_avg", "distribution": "uniform", "scale": 1.0, "seed": null}, "class_name": "VarianceScaling"}, "trainable": true, "data_format": "channels_last", "kernel_size": [1, 1], "kernel_constraint": null, "strides": [1, 1], "padding": "valid", "filters": 256, "bias_regularizer": null, "activity_regularizer": null, "bias_initializer": {"config": {}, "class_name": "Zeros"}, "name": "conv2_1_1x1_increase", "kernel_regularizer": null}, "name": "conv2_1_1x1_increase", "class_name": "Conv2D"}, {"inbound_nodes": [[["activation_4", 0, 0, {}]]], "config": {"activation": "linear", "use_bias": false, "dilation_rate": [1, 1], "bias_constraint": null, "kernel_initializer": {"config": {"mode": "fan_avg", "distribution": "uniform", "scale": 1.0, "seed": null}, "class_name": "VarianceScaling"}, "trainable": true, "data_format": "channels_last", "kernel_size": [1, 1], "kernel_constraint": null, "strides": [1, 1], "padding": "valid", "filters": 256, "bias_regularizer": null, "activity_regularizer": null, "bias_initializer": {"config": {}, "class_name": "Zeros"}, "name": "conv2_1_1x1_proj", "kernel_regularizer": null}, "name": "conv2_1_1x1_proj", "class_name": "Conv2D"}, {"inbound_nodes": [[["conv2_1_1x1_increase", 0, 0, {}]]], "config": {"scale": true, "beta_regularizer": null, "epsilon": 1e-05, "beta_initializer": {"config": {}, "class_name": "Zeros"}, "trainable": true, "name": "conv2_1_1x1_increase_bn", "moving_variance_initializer": {"config": {}, "class_name": "Ones"}, "gamma_initializer": {"config": {}, "class_name": "Ones"}, "axis": -1, "gamma_constraint": null, "moving_mean_initializer": {"config": {}, "class_name": "Zeros"}, "gamma_regularizer": null, "momentum": 0.95, "beta_constraint": null, "center": true}, "name": "conv2_1_1x1_increase_bn", "class_name": "BatchNormalization"}, {"inbound_nodes": [[["conv2_1_1x1_proj", 0, 0, {}]]], "config": {"scale": true, "beta_regularizer": null, "epsilon": 1e-05, "beta_initializer": {"config": {}, "class_name": "Zeros"}, "trainable": true, "name": "conv2_1_1x1_proj_bn", "moving_variance_initializer": {"config": {}, "class_name": "Ones"}, "gamma_initializer": {"config": {}, "class_name": "Ones"}, "axis": -1, "gamma_constraint": null, "moving_mean_initializer": {"config": {}, "class_name": "Zeros"}, "gamma_regularizer": null, "momentum": 0.95, "beta_constraint": null, "center": true}, "name": "conv2_1_1x1_proj_bn", "class_name": "BatchNormalization"}, {"inbound_nodes": [[["conv2_1_1x1_increase_bn", 0, 0, {}], ["conv2_1_1x1_proj_bn", 0, 0, {}]]], "config": {"name": "add_1", "trainable": true}, "name": "add_1", "class_name": "Add"}, {"inbound_nodes": [[["add_1", 0, 0, {}]]], "config": {"activation": "relu", "name": "activation_7", "trainable": true}, "name": "activation_7", "class_name": "Activation"}, {"inbound_nodes": [[["activation_7", 0, 0, {}]]], "config": {"activation": "linear", "use_bias": false, "dilation_rate": [1, 1], "bias_constraint": null, "kernel_initializer": {"config": {"mode": "fan_avg", "distribution": "uniform", "scale": 1.0, "seed": null}, "class_name": "VarianceScaling"}, "trainable": true, "data_format": "channels_last", "kernel_size": [1, 1], "kernel_constraint": null, "strides": [1, 1], "padding": "valid", "filters": 64, "bias_regularizer": null, "activity_regularizer": null, "bias_initializer": {"config": {}, "class_name": "Zeros"}, "name": "conv2_2_1x1_reduce", "kernel_regularizer": null}, "name": "conv2_2_1x1_reduce", "class_name": "Conv2D"}, {"inbound_nodes": [[["conv2_2_1x1_reduce", 0, 0, {}]]], "config": {"scale": true, "beta_regularizer": null, "epsilon": 1e-05, "beta_initializer": {"config": {}, "class_name": "Zeros"}, "trainable": true, "name": "conv2_2_1x1_reduce_bn", "moving_variance_initializer": {"config": {}, "class_name": "Ones"}, "gamma_initializer": {"config": {}, "class_name": "Ones"}, "axis": -1, "gamma_constraint": null, "moving_mean_initializer": {"config": {}, "class_name": "Zeros"}, "gamma_regularizer": null, "momentum": 0.95, "beta_constraint": null, "center": true}, "name": "conv2_2_1x1_reduce_bn", "class_name": "BatchNormalization"}, {"inbound_nodes": [[["conv2_2_1x1_reduce_bn", 0, 0, {}]]], "config": {"activation": "relu", "name": "activation_8", "trainable": true}, "name": "activation_8", "class_name": "Activation"}, {"inbound_nodes": [[["activation_8", 0, 0, {}]]], "config": {"trainable": true, "padding": [[1, 1], [1, 1]], "name": "zero_padding2d_2", "data_format": "channels_last"}, "name": "zero_padding2d_2", "class_name": "ZeroPadding2D"}, {"inbound_nodes": [[["zero_padding2d_2", 0, 0, {}]]], "config": {"activation": "linear", "use_bias": false, "dilation_rate": [1, 1], "bias_constraint": null, "kernel_initializer": {"config": {"mode": "fan_avg", "distribution": "uniform", "scale": 1.0, "seed": null}, "class_name": "VarianceScaling"}, "trainable": true, "data_format": "channels_last", "kernel_size": [3, 3], "kernel_constraint": null, "strides": [1, 1], "padding": "valid", "filters": 64, "bias_regularizer": null, "activity_regularizer": null, "bias_initializer": {"config": {}, "class_name": "Zeros"}, "name": "conv2_2_3x3", "kernel_regularizer": null}, "name": "conv2_2_3x3", "class_name": "Conv2D"}, {"inbound_nodes": [[["conv2_2_3x3", 0, 0, {}]]], "config": {"scale": true, "beta_regularizer": null, "epsilon": 1e-05, "beta_initializer": {"config": {}, "class_name": "Zeros"}, "trainable": true, "name": "conv2_2_3x3_bn", "moving_variance_initializer": {"config": {}, "class_name": "Ones"}, "gamma_initializer": {"config": {}, "class_name": "Ones"}, "axis": -1, "gamma_constraint": null, "moving_mean_initializer": {"config": {}, "class_name": "Zeros"}, "gamma_regularizer": null, "momentum": 0.95, "beta_constraint": null, "center": true}, "name": "conv2_2_3x3_bn", "class_name": "BatchNormalization"}, {"inbound_nodes": [[["conv2_2_3x3_bn", 0, 0, {}]]], "config": {"activation": "relu", "name": "activation_9", "trainable": true}, "name": "activation_9", "class_name": "Activation"}, {"inbound_nodes": [[["activation_9", 0, 0, {}]]], "config": {"activation": "linear", "use_bias": false, "dilation_rate": [1, 1], "bias_constraint": null, "kernel_initializer": {"config": {"mode": "fan_avg", "distribution": "uniform", "scale": 1.0, "seed": null}, "class_name": "VarianceScaling"}, "trainable": true, "data_format": "channels_last", "kernel_size": [1, 1], "kernel_constraint": null, "strides": [1, 1], "padding": "valid", "filters": 256, "bias_regularizer": null, "activity_regularizer": null, "bias_initializer": {"config": {}, "class_name": "Zeros"}, "name": "conv2_2_1x1_increase", "kernel_regularizer": null}, "name": "conv2_2_1x1_increase", "class_name": "Conv2D"}, {"inbound_nodes": [[["conv2_2_1x1_increase", 0, 0, {}]]], "config": {"scale": true, "beta_regularizer": null, "epsilon": 1e-05, "beta_initializer": {"config": {}, "class_name": "Zeros"}, "trainable": true, "name": "conv2_2_1x1_increase_bn", "moving_variance_initializer": {"config": {}, "class_name": "Ones"}, "gamma_initializer": {"config": {}, "class_name": "Ones"}, "axis": -1, "gamma_constraint": null, "moving_mean_initializer": {"config": {}, "class_name": "Zeros"}, "gamma_regularizer": null, "momentum": 0.95, "beta_constraint": null, "center": true}, "name": "conv2_2_1x1_increase_bn", "class_name": "BatchNormalization"}, {"inbound_nodes": [[["conv2_2_1x1_increase_bn", 0, 0, {}], ["activation_7", 0, 0, {}]]], "config": {"name": "add_2", "trainable": true}, "name": "add_2", "class_name": "Add"}, {"inbound_nodes": [[["add_2", 0, 0, {}]]], "config": {"activation": "relu", "name": "activation_10", "trainable": true}, "name": "activation_10", "class_name": "Activation"}, {"inbound_nodes": [[["activation_10", 0, 0, {}]]], "config": {"activation": "linear", "use_bias": false, "dilation_rate": [1, 1], "bias_constraint": null, "kernel_initializer": {"config": {"mode": "fan_avg", "distribution": "uniform", "scale": 1.0, "seed": null}, "class_name": "VarianceScaling"}, "trainable": true, "data_format": "channels_last", "kernel_size": [1, 1], "kernel_constraint": null, "strides": [1, 1], "padding": "valid", "filters": 64, "bias_regularizer": null, "activity_regularizer": null, "bias_initializer": {"config": {}, "class_name": "Zeros"}, "name": "conv2_3_1x1_reduce", "kernel_regularizer": null}, "name": "conv2_3_1x1_reduce", "class_name": "Conv2D"}, {"inbound_nodes": [[["conv2_3_1x1_reduce", 0, 0, {}]]], "config": {"scale": true, "beta_regularizer": null, "epsilon": 1e-05, "beta_initializer": {"config": {}, "class_name": "Zeros"}, "trainable": true, "name": "conv2_3_1x1_reduce_bn", "moving_variance_initializer": {"config": {}, "class_name": "Ones"}, "gamma_initializer": {"config": {}, "class_name": "Ones"}, "axis": -1, "gamma_constraint": null, "moving_mean_initializer": {"config": {}, "class_name": "Zeros"}, "gamma_regularizer": null, "momentum": 0.95, "beta_constraint": null, "center": true}, "name": "conv2_3_1x1_reduce_bn", "class_name": "BatchNormalization"}, {"inbound_nodes": [[["conv2_3_1x1_reduce_bn", 0, 0, {}]]], "config": {"activation": "relu", "name": "activation_11", "trainable": true}, "name": "activation_11", "class_name": "Activation"}, {"inbound_nodes": [[["activation_11", 0, 0, {}]]], "config": {"trainable": true, "padding": [[1, 1], [1, 1]], "name": "zero_padding2d_3", "data_format": "channels_last"}, "name": "zero_padding2d_3", "class_name": "ZeroPadding2D"}, {"inbound_nodes": [[["zero_padding2d_3", 0, 0, {}]]], "config": {"activation": "linear", "use_bias": false, "dilation_rate": [1, 1], "bias_constraint": null, "kernel_initializer": {"config": {"mode": "fan_avg", "distribution": "uniform", "scale": 1.0, "seed": null}, "class_name": "VarianceScaling"}, "trainable": true, "data_format": "channels_last", "kernel_size": [3, 3], "kernel_constraint": null, "strides": [1, 1], "padding": "valid", "filters": 64, "bias_regularizer": null, "activity_regularizer": null, "bias_initializer": {"config": {}, "class_name": "Zeros"}, "name": "conv2_3_3x3", "kernel_regularizer": null}, "name": "conv2_3_3x3", "class_name": "Conv2D"}, {"inbound_nodes": [[["conv2_3_3x3", 0, 0, {}]]], "config": {"scale": true, "beta_regularizer": null, "epsilon": 1e-05, "beta_initializer": {"config": {}, "class_name": "Zeros"}, "trainable": true, "name": "conv2_3_3x3_bn", "moving_variance_initializer": {"config": {}, "class_name": "Ones"}, "gamma_initializer": {"config": {}, "class_name": "Ones"}, "axis": -1, "gamma_constraint": null, "moving_mean_initializer": {"config": {}, "class_name": "Zeros"}, "gamma_regularizer": null, "momentum": 0.95, "beta_constraint": null, "center": true}, "name": "conv2_3_3x3_bn", "class_name": "BatchNormalization"}, {"inbound_nodes": [[["conv2_3_3x3_bn", 0, 0, {}]]], "config": {"activation": "relu", "name": "activation_12", "trainable": true}, "name": "activation_12", "class_name": "Activation"}, {"inbound_nodes": [[["activation_12", 0, 0, {}]]], "config": {"activation": "linear", "use_bias": false, "dilation_rate": [1, 1], "bias_constraint": null, "kernel_initializer": {"config": {"mode": "fan_avg", "distribution": "uniform", "scale": 1.0, "seed": null}, "class_name": "VarianceScaling"}, "trainable": true, "data_format": "channels_last", "kernel_size": [1, 1], "kernel_constraint": null, "strides": [1, 1], "padding": "valid", "filters": 256, "bias_regularizer": null, "activity_regularizer": null, "bias_initializer": {"config": {}, "class_name": "Zeros"}, "name": "conv2_3_1x1_increase", "kernel_regularizer": null}, "name": "conv2_3_1x1_increase", "class_name": "Conv2D"}, {"inbound_nodes": [[["conv2_3_1x1_increase", 0, 0, {}]]], "config": {"scale": true, "beta_regularizer": null, "epsilon": 1e-05, "beta_initializer": {"config": {}, "class_name": "Zeros"}, "trainable": true, "name": "conv2_3_1x1_increase_bn", "moving_variance_initializer": {"config": {}, "class_name": "Ones"}, "gamma_initializer": {"config": {}, "class_name": "Ones"}, "axis": -1, "gamma_constraint": null, "moving_mean_initializer": {"config": {}, "class_name": "Zeros"}, "gamma_regularizer": null, "momentum": 0.95, "beta_constraint": null, "center": true}, "name": "conv2_3_1x1_increase_bn", "class_name": "BatchNormalization"}, {"inbound_nodes": [[["conv2_3_1x1_increase_bn", 0, 0, {}], ["activation_10", 0, 0, {}]]], "config": {"name": "add_3", "trainable": true}, "name": "add_3", "class_name": "Add"}, {"inbound_nodes": [[["add_3", 0, 0, {}]]], "config": {"activation": "relu", "name": "activation_13", "trainable": true}, "name": "activation_13", "class_name": "Activation"}, {"inbound_nodes": [[["activation_13", 0, 0, {}]]], "config": {"activation": "linear", "use_bias": false, "dilation_rate": [1, 1], "bias_constraint": null, "kernel_initializer": {"config": {"mode": "fan_avg", "distribution": "uniform", "scale": 1.0, "seed": null}, "class_name": "VarianceScaling"}, "trainable": true, "data_format": "channels_last", "kernel_size": [1, 1], "kernel_constraint": null, "strides": [2, 2], "padding": "valid", "filters": 128, "bias_regularizer": null, "activity_regularizer": null, "bias_initializer": {"config": {}, "class_name": "Zeros"}, "name": "conv3_1_1x1_reduce", "kernel_regularizer": null}, "name": "conv3_1_1x1_reduce", "class_name": "Conv2D"}, {"inbound_nodes": [[["conv3_1_1x1_reduce", 0, 0, {}]]], "config": {"scale": true, "beta_regularizer": null, "epsilon": 1e-05, "beta_initializer": {"config": {}, "class_name": "Zeros"}, "trainable": true, "name": "conv3_1_1x1_reduce_bn", "moving_variance_initializer": {"config": {}, "class_name": "Ones"}, "gamma_initializer": {"config": {}, "class_name": "Ones"}, "axis": -1, "gamma_constraint": null, "moving_mean_initializer": {"config": {}, "class_name": "Zeros"}, "gamma_regularizer": null, "momentum": 0.95, "beta_constraint": null, "center": true}, "name": "conv3_1_1x1_reduce_bn", "class_name": "BatchNormalization"}, {"inbound_nodes": [[["conv3_1_1x1_reduce_bn", 0, 0, {}]]], "config": {"activation": "relu", "name": "activation_14", "trainable": true}, "name": "activation_14", "class_name": "Activation"}, {"inbound_nodes": [[["activation_14", 0, 0, {}]]], "config": {"trainable": true, "padding": [[1, 1], [1, 1]], "name": "zero_padding2d_4", "data_format": "channels_last"}, "name": "zero_padding2d_4", "class_name": "ZeroPadding2D"}, {"inbound_nodes": [[["zero_padding2d_4", 0, 0, {}]]], "config": {"activation": "linear", "use_bias": false, "dilation_rate": [1, 1], "bias_constraint": null, "kernel_initializer": {"config": {"mode": "fan_avg", "distribution": "uniform", "scale": 1.0, "seed": null}, "class_name": "VarianceScaling"}, "trainable": true, "data_format": "channels_last", "kernel_size": [3, 3], "kernel_constraint": null, "strides": [1, 1], "padding": "valid", "filters": 128, "bias_regularizer": null, "activity_regularizer": null, "bias_initializer": {"config": {}, "class_name": "Zeros"}, "name": "conv3_1_3x3", "kernel_regularizer": null}, "name": "conv3_1_3x3", "class_name": "Conv2D"}, {"inbound_nodes": [[["conv3_1_3x3", 0, 0, {}]]], "config": {"scale": true, "beta_regularizer": null, "epsilon": 1e-05, "beta_initializer": {"config": {}, "class_name": "Zeros"}, "trainable": true, "name": "conv3_1_3x3_bn", "moving_variance_initializer": {"config": {}, "class_name": "Ones"}, "gamma_initializer": {"config": {}, "class_name": "Ones"}, "axis": -1, "gamma_constraint": null, "moving_mean_initializer": {"config": {}, "class_name": "Zeros"}, "gamma_regularizer": null, "momentum": 0.95, "beta_constraint": null, "center": true}, "name": "conv3_1_3x3_bn", "class_name": "BatchNormalization"}, {"inbound_nodes": [[["conv3_1_3x3_bn", 0, 0, {}]]], "config": {"activation": "relu", "name": "activation_15", "trainable": true}, "name": "activation_15", "class_name": "Activation"}, {"inbound_nodes": [[["activation_15", 0, 0, {}]]], "config": {"activation": "linear", "use_bias": false, "dilation_rate": [1, 1], "bias_constraint": null, "kernel_initializer": {"config": {"mode": "fan_avg", "distribution": "uniform", "scale": 1.0, "seed": null}, "class_name": "VarianceScaling"}, "trainable": true, "data_format": "channels_last", "kernel_size": [1, 1], "kernel_constraint": null, "strides": [1, 1], "padding": "valid", "filters": 512, "bias_regularizer": null, "activity_regularizer": null, "bias_initializer": {"config": {}, "class_name": "Zeros"}, "name": "conv3_1_1x1_increase", "kernel_regularizer": null}, "name": "conv3_1_1x1_increase", "class_name": "Conv2D"}, {"inbound_nodes": [[["activation_13", 0, 0, {}]]], "config": {"activation": "linear", "use_bias": false, "dilation_rate": [1, 1], "bias_constraint": null, "kernel_initializer": {"config": {"mode": "fan_avg", "distribution": "uniform", "scale": 1.0, "seed": null}, "class_name": "VarianceScaling"}, "trainable": true, "data_format": "channels_last", "kernel_size": [1, 1], "kernel_constraint": null, "strides": [2, 2], "padding": "valid", "filters": 512, "bias_regularizer": null, "activity_regularizer": null, "bias_initializer": {"config": {}, "class_name": "Zeros"}, "name": "conv3_1_1x1_proj", "kernel_regularizer": null}, "name": "conv3_1_1x1_proj", "class_name": "Conv2D"}, {"inbound_nodes": [[["conv3_1_1x1_increase", 0, 0, {}]]], "config": {"scale": true, "beta_regularizer": null, "epsilon": 1e-05, "beta_initializer": {"config": {}, "class_name": "Zeros"}, "trainable": true, "name": "conv3_1_1x1_increase_bn", "moving_variance_initializer": {"config": {}, "class_name": "Ones"}, "gamma_initializer": {"config": {}, "class_name": "Ones"}, "axis": -1, "gamma_constraint": null, "moving_mean_initializer": {"config": {}, "class_name": "Zeros"}, "gamma_regularizer": null, "momentum": 0.95, "beta_constraint": null, "center": true}, "name": "conv3_1_1x1_increase_bn", "class_name": "BatchNormalization"}, {"inbound_nodes": [[["conv3_1_1x1_proj", 0, 0, {}]]], "config": {"scale": true, "beta_regularizer": null, "epsilon": 1e-05, "beta_initializer": {"config": {}, "class_name": "Zeros"}, "trainable": true, "name": "conv3_1_1x1_proj_bn", "moving_variance_initializer": {"config": {}, "class_name": "Ones"}, "gamma_initializer": {"config": {}, "class_name": "Ones"}, "axis": -1, "gamma_constraint": null, "moving_mean_initializer": {"config": {}, "class_name": "Zeros"}, "gamma_regularizer": null, "momentum": 0.95, "beta_constraint": null, "center": true}, "name": "conv3_1_1x1_proj_bn", "class_name": "BatchNormalization"}, {"inbound_nodes": [[["conv3_1_1x1_increase_bn", 0, 0, {}], ["conv3_1_1x1_proj_bn", 0, 0, {}]]], "config": {"name": "add_4", "trainable": true}, "name": "add_4", "class_name": "Add"}, {"inbound_nodes": [[["add_4", 0, 0, {}]]], "config": {"activation": "relu", "name": "activation_16", "trainable": true}, "name": "activation_16", "class_name": "Activation"}, {"inbound_nodes": [[["activation_16", 0, 0, {}]]], "config": {"activation": "linear", "use_bias": false, "dilation_rate": [1, 1], "bias_constraint": null, "kernel_initializer": {"config": {"mode": "fan_avg", "distribution": "uniform", "scale": 1.0, "seed": null}, "class_name": "VarianceScaling"}, "trainable": true, "data_format": "channels_last", "kernel_size": [1, 1], "kernel_constraint": null, "strides": [1, 1], "padding": "valid", "filters": 128, "bias_regularizer": null, "activity_regularizer": null, "bias_initializer": {"config": {}, "class_name": "Zeros"}, "name": "conv3_2_1x1_reduce", "kernel_regularizer": null}, "name": "conv3_2_1x1_reduce", "class_name": "Conv2D"}, {"inbound_nodes": [[["conv3_2_1x1_reduce", 0, 0, {}]]], "config": {"scale": true, "beta_regularizer": null, "epsilon": 1e-05, "beta_initializer": {"config": {}, "class_name": "Zeros"}, "trainable": true, "name": "conv3_2_1x1_reduce_bn", "moving_variance_initializer": {"config": {}, "class_name": "Ones"}, "gamma_initializer": {"config": {}, "class_name": "Ones"}, "axis": -1, "gamma_constraint": null, "moving_mean_initializer": {"config": {}, "class_name": "Zeros"}, "gamma_regularizer": null, "momentum": 0.95, "beta_constraint": null, "center": true}, "name": "conv3_2_1x1_reduce_bn", "class_name": "BatchNormalization"}, {"inbound_nodes": [[["conv3_2_1x1_reduce_bn", 0, 0, {}]]], "config": {"activation": "relu", "name": "activation_17", "trainable": true}, "name": "activation_17", "class_name": "Activation"}, {"inbound_nodes": [[["activation_17", 0, 0, {}]]], "config": {"trainable": true, "padding": [[1, 1], [1, 1]], "name": "zero_padding2d_5", "data_format": "channels_last"}, "name": "zero_padding2d_5", "class_name": "ZeroPadding2D"}, {"inbound_nodes": [[["zero_padding2d_5", 0, 0, {}]]], "config": {"activation": "linear", "use_bias": false, "dilation_rate": [1, 1], "bias_constraint": null, "kernel_initializer": {"config": {"mode": "fan_avg", "distribution": "uniform", "scale": 1.0, "seed": null}, "class_name": "VarianceScaling"}, "trainable": true, "data_format": "channels_last", "kernel_size": [3, 3], "kernel_constraint": null, "strides": [1, 1], "padding": "valid", "filters": 128, "bias_regularizer": null, "activity_regularizer": null, "bias_initializer": {"config": {}, "class_name": "Zeros"}, "name": "conv3_2_3x3", "kernel_regularizer": null}, "name": "conv3_2_3x3", "class_name": "Conv2D"}, {"inbound_nodes": [[["conv3_2_3x3", 0, 0, {}]]], "config": {"scale": true, "beta_regularizer": null, "epsilon": 1e-05, "beta_initializer": {"config": {}, "class_name": "Zeros"}, "trainable": true, "name": "conv3_2_3x3_bn", "moving_variance_initializer": {"config": {}, "class_name": "Ones"}, "gamma_initializer": {"config": {}, "class_name": "Ones"}, "axis": -1, "gamma_constraint": null, "moving_mean_initializer": {"config": {}, "class_name": "Zeros"}, "gamma_regularizer": null, "momentum": 0.95, "beta_constraint": null, "center": true}, "name": "conv3_2_3x3_bn", "class_name": "BatchNormalization"}, {"inbound_nodes": [[["conv3_2_3x3_bn", 0, 0, {}]]], "config": {"activation": "relu", "name": "activation_18", "trainable": true}, "name": "activation_18", "class_name": "Activation"}, {"inbound_nodes": [[["activation_18", 0, 0, {}]]], "config": {"activation": "linear", "use_bias": false, "dilation_rate": [1, 1], "bias_constraint": null, "kernel_initializer": {"config": {"mode": "fan_avg", "distribution": "uniform", "scale": 1.0, "seed": null}, "class_name": "VarianceScaling"}, "trainable": true, "data_format": "channels_last", "kernel_size": [1, 1], "kernel_constraint": null, "strides": [1, 1], "padding": "valid", "filters": 512, "bias_regularizer": null, "activity_regularizer": null, "bias_initializer": {"config": {}, "class_name": "Zeros"}, "name": "conv3_2_1x1_increase", "kernel_regularizer": null}, "name": "conv3_2_1x1_increase", "class_name": "Conv2D"}, {"inbound_nodes": [[["conv3_2_1x1_increase", 0, 0, {}]]], "config": {"scale": true, "beta_regularizer": null, "epsilon": 1e-05, "beta_initializer": {"config": {}, "class_name": "Zeros"}, "trainable": true, "name": "conv3_2_1x1_increase_bn", "moving_variance_initializer": {"config": {}, "class_name": "Ones"}, "gamma_initializer": {"config": {}, "class_name": "Ones"}, "axis": -1, "gamma_constraint": null, "moving_mean_initializer": {"config": {}, "class_name": "Zeros"}, "gamma_regularizer": null, "momentum": 0.95, "beta_constraint": null, "center": true}, "name": "conv3_2_1x1_increase_bn", "class_name": "BatchNormalization"}, {"inbound_nodes": [[["conv3_2_1x1_increase_bn", 0, 0, {}], ["activation_16", 0, 0, {}]]], "config": {"name": "add_5", "trainable": true}, "name": "add_5", "class_name": "Add"}, {"inbound_nodes": [[["add_5", 0, 0, {}]]], "config": {"activation": "relu", "name": "activation_19", "trainable": true}, "name": "activation_19", "class_name": "Activation"}, {"inbound_nodes": [[["activation_19", 0, 0, {}]]], "config": {"activation": "linear", "use_bias": false, "dilation_rate": [1, 1], "bias_constraint": null, "kernel_initializer": {"config": {"mode": "fan_avg", "distribution": "uniform", "scale": 1.0, "seed": null}, "class_name": "VarianceScaling"}, "trainable": true, "data_format": "channels_last", "kernel_size": [1, 1], "kernel_constraint": null, "strides": [1, 1], "padding": "valid", "filters": 128, "bias_regularizer": null, "activity_regularizer": null, "bias_initializer": {"config": {}, "class_name": "Zeros"}, "name": "conv3_3_1x1_reduce", "kernel_regularizer": null}, "name": "conv3_3_1x1_reduce", "class_name": "Conv2D"}, {"inbound_nodes": [[["conv3_3_1x1_reduce", 0, 0, {}]]], "config": {"scale": true, "beta_regularizer": null, "epsilon": 1e-05, "beta_initializer": {"config": {}, "class_name": "Zeros"}, "trainable": true, "name": "conv3_3_1x1_reduce_bn", "moving_variance_initializer": {"config": {}, "class_name": "Ones"}, "gamma_initializer": {"config": {}, "class_name": "Ones"}, "axis": -1, "gamma_constraint": null, "moving_mean_initializer": {"config": {}, "class_name": "Zeros"}, "gamma_regularizer": null, "momentum": 0.95, "beta_constraint": null, "center": true}, "name": "conv3_3_1x1_reduce_bn", "class_name": "BatchNormalization"}, {"inbound_nodes": [[["conv3_3_1x1_reduce_bn", 0, 0, {}]]], "config": {"activation": "relu", "name": "activation_20", "trainable": true}, "name": "activation_20", "class_name": "Activation"}, {"inbound_nodes": [[["activation_20", 0, 0, {}]]], "config": {"trainable": true, "padding": [[1, 1], [1, 1]], "name": "zero_padding2d_6", "data_format": "channels_last"}, "name": "zero_padding2d_6", "class_name": "ZeroPadding2D"}, {"inbound_nodes": [[["zero_padding2d_6", 0, 0, {}]]], "config": {"activation": "linear", "use_bias": false, "dilation_rate": [1, 1], "bias_constraint": null, "kernel_initializer": {"config": {"mode": "fan_avg", "distribution": "uniform", "scale": 1.0, "seed": null}, "class_name": "VarianceScaling"}, "trainable": true, "data_format": "channels_last", "kernel_size": [3, 3], "kernel_constraint": null, "strides": [1, 1], "padding": "valid", "filters": 128, "bias_regularizer": null, "activity_regularizer": null, "bias_initializer": {"config": {}, "class_name": "Zeros"}, "name": "conv3_3_3x3", "kernel_regularizer": null}, "name": "conv3_3_3x3", "class_name": "Conv2D"}, {"inbound_nodes": [[["conv3_3_3x3", 0, 0, {}]]], "config": {"scale": true, "beta_regularizer": null, "epsilon": 1e-05, "beta_initializer": {"config": {}, "class_name": "Zeros"}, "trainable": true, "name": "conv3_3_3x3_bn", "moving_variance_initializer": {"config": {}, "class_name": "Ones"}, "gamma_initializer": {"config": {}, "class_name": "Ones"}, "axis": -1, "gamma_constraint": null, "moving_mean_initializer": {"config": {}, "class_name": "Zeros"}, "gamma_regularizer": null, "momentum": 0.95, "beta_constraint": null, "center": true}, "name": "conv3_3_3x3_bn", "class_name": "BatchNormalization"}, {"inbound_nodes": [[["conv3_3_3x3_bn", 0, 0, {}]]], "config": {"activation": "relu", "name": "activation_21", "trainable": true}, "name": "activation_21", "class_name": "Activation"}, {"inbound_nodes": [[["activation_21", 0, 0, {}]]], "config": {"activation": "linear", "use_bias": false, "dilation_rate": [1, 1], "bias_constraint": null, "kernel_initializer": {"config": {"mode": "fan_avg", "distribution": "uniform", "scale": 1.0, "seed": null}, "class_name": "VarianceScaling"}, "trainable": true, "data_format": "channels_last", "kernel_size": [1, 1], "kernel_constraint": null, "strides": [1, 1], "padding": "valid", "filters": 512, "bias_regularizer": null, "activity_regularizer": null, "bias_initializer": {"config": {}, "class_name": "Zeros"}, "name": "conv3_3_1x1_increase", "kernel_regularizer": null}, "name": "conv3_3_1x1_increase", "class_name": "Conv2D"}, {"inbound_nodes": [[["conv3_3_1x1_increase", 0, 0, {}]]], "config": {"scale": true, "beta_regularizer": null, "epsilon": 1e-05, "beta_initializer": {"config": {}, "class_name": "Zeros"}, "trainable": true, "name": "conv3_3_1x1_increase_bn", "moving_variance_initializer": {"config": {}, "class_name": "Ones"}, "gamma_initializer": {"config": {}, "class_name": "Ones"}, "axis": -1, "gamma_constraint": null, "moving_mean_initializer": {"config": {}, "class_name": "Zeros"}, "gamma_regularizer": null, "momentum": 0.95, "beta_constraint": null, "center": true}, "name": "conv3_3_1x1_increase_bn", "class_name": "BatchNormalization"}, {"inbound_nodes": [[["conv3_3_1x1_increase_bn", 0, 0, {}], ["activation_19", 0, 0, {}]]], "config": {"name": "add_6", "trainable": true}, "name": "add_6", "class_name": "Add"}, {"inbound_nodes": [[["add_6", 0, 0, {}]]], "config": {"activation": "relu", "name": "activation_22", "trainable": true}, "name": "activation_22", "class_name": "Activation"}, {"inbound_nodes": [[["activation_22", 0, 0, {}]]], "config": {"activation": "linear", "use_bias": false, "dilation_rate": [1, 1], "bias_constraint": null, "kernel_initializer": {"config": {"mode": "fan_avg", "distribution": "uniform", "scale": 1.0, "seed": null}, "class_name": "VarianceScaling"}, "trainable": true, "data_format": "channels_last", "kernel_size": [1, 1], "kernel_constraint": null, "strides": [1, 1], "padding": "valid", "filters": 128, "bias_regularizer": null, "activity_regularizer": null, "bias_initializer": {"config": {}, "class_name": "Zeros"}, "name": "conv3_4_1x1_reduce", "kernel_regularizer": null}, "name": "conv3_4_1x1_reduce", "class_name": "Conv2D"}, {"inbound_nodes": [[["conv3_4_1x1_reduce", 0, 0, {}]]], "config": {"scale": true, "beta_regularizer": null, "epsilon": 1e-05, "beta_initializer": {"config": {}, "class_name": "Zeros"}, "trainable": true, "name": "conv3_4_1x1_reduce_bn", "moving_variance_initializer": {"config": {}, "class_name": "Ones"}, "gamma_initializer": {"config": {}, "class_name": "Ones"}, "axis": -1, "gamma_constraint": null, "moving_mean_initializer": {"config": {}, "class_name": "Zeros"}, "gamma_regularizer": null, "momentum": 0.95, "beta_constraint": null, "center": true}, "name": "conv3_4_1x1_reduce_bn", "class_name": "BatchNormalization"}, {"inbound_nodes": [[["conv3_4_1x1_reduce_bn", 0, 0, {}]]], "config": {"activation": "relu", "name": "activation_23", "trainable": true}, "name": "activation_23", "class_name": "Activation"}, {"inbound_nodes": [[["activation_23", 0, 0, {}]]], "config": {"trainable": true, "padding": [[1, 1], [1, 1]], "name": "zero_padding2d_7", "data_format": "channels_last"}, "name": "zero_padding2d_7", "class_name": "ZeroPadding2D"}, {"inbound_nodes": [[["zero_padding2d_7", 0, 0, {}]]], "config": {"activation": "linear", "use_bias": false, "dilation_rate": [1, 1], "bias_constraint": null, "kernel_initializer": {"config": {"mode": "fan_avg", "distribution": "uniform", "scale": 1.0, "seed": null}, "class_name": "VarianceScaling"}, "trainable": true, "data_format": "channels_last", "kernel_size": [3, 3], "kernel_constraint": null, "strides": [1, 1], "padding": "valid", "filters": 128, "bias_regularizer": null, "activity_regularizer": null, "bias_initializer": {"config": {}, "class_name": "Zeros"}, "name": "conv3_4_3x3", "kernel_regularizer": null}, "name": "conv3_4_3x3", "class_name": "Conv2D"}, {"inbound_nodes": [[["conv3_4_3x3", 0, 0, {}]]], "config": {"scale": true, "beta_regularizer": null, "epsilon": 1e-05, "beta_initializer": {"config": {}, "class_name": "Zeros"}, "trainable": true, "name": "conv3_4_3x3_bn", "moving_variance_initializer": {"config": {}, "class_name": "Ones"}, "gamma_initializer": {"config": {}, "class_name": "Ones"}, "axis": -1, "gamma_constraint": null, "moving_mean_initializer": {"config": {}, "class_name": "Zeros"}, "gamma_regularizer": null, "momentum": 0.95, "beta_constraint": null, "center": true}, "name": "conv3_4_3x3_bn", "class_name": "BatchNormalization"}, {"inbound_nodes": [[["conv3_4_3x3_bn", 0, 0, {}]]], "config": {"activation": "relu", "name": "activation_24", "trainable": true}, "name": "activation_24", "class_name": "Activation"}, {"inbound_nodes": [[["activation_24", 0, 0, {}]]], "config": {"activation": "linear", "use_bias": false, "dilation_rate": [1, 1], "bias_constraint": null, "kernel_initializer": {"config": {"mode": "fan_avg", "distribution": "uniform", "scale": 1.0, "seed": null}, "class_name": "VarianceScaling"}, "trainable": true, "data_format": "channels_last", "kernel_size": [1, 1], "kernel_constraint": null, "strides": [1, 1], "padding": "valid", "filters": 512, "bias_regularizer": null, "activity_regularizer": null, "bias_initializer": {"config": {}, "class_name": "Zeros"}, "name": "conv3_4_1x1_increase", "kernel_regularizer": null}, "name": "conv3_4_1x1_increase", "class_name": "Conv2D"}, {"inbound_nodes": [[["conv3_4_1x1_increase", 0, 0, {}]]], "config": {"scale": true, "beta_regularizer": null, "epsilon": 1e-05, "beta_initializer": {"config": {}, "class_name": "Zeros"}, "trainable": true, "name": "conv3_4_1x1_increase_bn", "moving_variance_initializer": {"config": {}, "class_name": "Ones"}, "gamma_initializer": {"config": {}, "class_name": "Ones"}, "axis": -1, "gamma_constraint": null, "moving_mean_initializer": {"config": {}, "class_name": "Zeros"}, "gamma_regularizer": null, "momentum": 0.95, "beta_constraint": null, "center": true}, "name": "conv3_4_1x1_increase_bn", "class_name": "BatchNormalization"}, {"inbound_nodes": [[["conv3_4_1x1_increase_bn", 0, 0, {}], ["activation_22", 0, 0, {}]]], "config": {"name": "add_7", "trainable": true}, "name": "add_7", "class_name": "Add"}, {"inbound_nodes": [[["add_7", 0, 0, {}]]], "config": {"activation": "relu", "name": "activation_25", "trainable": true}, "name": "activation_25", "class_name": "Activation"}, {"inbound_nodes": [[["activation_25", 0, 0, {}]]], "config": {"activation": "linear", "use_bias": false, "dilation_rate": [1, 1], "bias_constraint": null, "kernel_initializer": {"config": {"mode": "fan_avg", "distribution": "uniform", "scale": 1.0, "seed": null}, "class_name": "VarianceScaling"}, "trainable": true, "data_format": "channels_last", "kernel_size": [1, 1], "kernel_constraint": null, "strides": [1, 1], "padding": "valid", "filters": 256, "bias_regularizer": null, "activity_regularizer": null, "bias_initializer": {"config": {}, "class_name": "Zeros"}, "name": "conv4_1_1x1_reduce", "kernel_regularizer": null}, "name": "conv4_1_1x1_reduce", "class_name": "Conv2D"}, {"inbound_nodes": [[["conv4_1_1x1_reduce", 0, 0, {}]]], "config": {"scale": true, "beta_regularizer": null, "epsilon": 1e-05, "beta_initializer": {"config": {}, "class_name": "Zeros"}, "trainable": true, "name": "conv4_1_1x1_reduce_bn", "moving_variance_initializer": {"config": {}, "class_name": "Ones"}, "gamma_initializer": {"config": {}, "class_name": "Ones"}, "axis": -1, "gamma_constraint": null, "moving_mean_initializer": {"config": {}, "class_name": "Zeros"}, "gamma_regularizer": null, "momentum": 0.95, "beta_constraint": null, "center": true}, "name": "conv4_1_1x1_reduce_bn", "class_name": "BatchNormalization"}, {"inbound_nodes": [[["conv4_1_1x1_reduce_bn", 0, 0, {}]]], "config": {"activation": "relu", "name": "activation_26", "trainable": true}, "name": "activation_26", "class_name": "Activation"}, {"inbound_nodes": [[["activation_26", 0, 0, {}]]], "config": {"trainable": true, "padding": [[2, 2], [2, 2]], "name": "zero_padding2d_8", "data_format": "channels_last"}, "name": "zero_padding2d_8", "class_name": "ZeroPadding2D"}, {"inbound_nodes": [[["zero_padding2d_8", 0, 0, {}]]], "config": {"activation": "linear", "use_bias": false, "dilation_rate": [2, 2], "bias_constraint": null, "kernel_initializer": {"config": {"mode": "fan_avg", "distribution": "uniform", "scale": 1.0, "seed": null}, "class_name": "VarianceScaling"}, "trainable": true, "data_format": "channels_last", "kernel_size": [3, 3], "kernel_constraint": null, "strides": [1, 1], "padding": "valid", "filters": 256, "bias_regularizer": null, "activity_regularizer": null, "bias_initializer": {"config": {}, "class_name": "Zeros"}, "name": "conv4_1_3x3", "kernel_regularizer": null}, "name": "conv4_1_3x3", "class_name": "Conv2D"}, {"inbound_nodes": [[["conv4_1_3x3", 0, 0, {}]]], "config": {"scale": true, "beta_regularizer": null, "epsilon": 1e-05, "beta_initializer": {"config": {}, "class_name": "Zeros"}, "trainable": true, "name": "conv4_1_3x3_bn", "moving_variance_initializer": {"config": {}, "class_name": "Ones"}, "gamma_initializer": {"config": {}, "class_name": "Ones"}, "axis": -1, "gamma_constraint": null, "moving_mean_initializer": {"config": {}, "class_name": "Zeros"}, "gamma_regularizer": null, "momentum": 0.95, "beta_constraint": null, "center": true}, "name": "conv4_1_3x3_bn", "class_name": "BatchNormalization"}, {"inbound_nodes": [[["conv4_1_3x3_bn", 0, 0, {}]]], "config": {"activation": "relu", "name": "activation_27", "trainable": true}, "name": "activation_27", "class_name": "Activation"}, {"inbound_nodes": [[["activation_27", 0, 0, {}]]], "config": {"activation": "linear", "use_bias": false, "dilation_rate": [1, 1], "bias_constraint": null, "kernel_initializer": {"config": {"mode": "fan_avg", "distribution": "uniform", "scale": 1.0, "seed": null}, "class_name": "VarianceScaling"}, "trainable": true, "data_format": "channels_last", "kernel_size": [1, 1], "kernel_constraint": null, "strides": [1, 1], "padding": "valid", "filters": 1024, "bias_regularizer": null, "activity_regularizer": null, "bias_initializer": {"config": {}, "class_name": "Zeros"}, "name": "conv4_1_1x1_increase", "kernel_regularizer": null}, "name": "conv4_1_1x1_increase", "class_name": "Conv2D"}, {"inbound_nodes": [[["activation_25", 0, 0, {}]]], "config": {"activation": "linear", "use_bias": false, "dilation_rate": [1, 1], "bias_constraint": null, "kernel_initializer": {"config": {"mode": "fan_avg", "distribution": "uniform", "scale": 1.0, "seed": null}, "class_name": "VarianceScaling"}, "trainable": true, "data_format": "channels_last", "kernel_size": [1, 1], "kernel_constraint": null, "strides": [1, 1], "padding": "valid", "filters": 1024, "bias_regularizer": null, "activity_regularizer": null, "bias_initializer": {"config": {}, "class_name": "Zeros"}, "name": "conv4_1_1x1_proj", "kernel_regularizer": null}, "name": "conv4_1_1x1_proj", "class_name": "Conv2D"}, {"inbound_nodes": [[["conv4_1_1x1_increase", 0, 0, {}]]], "config": {"scale": true, "beta_regularizer": null, "epsilon": 1e-05, "beta_initializer": {"config": {}, "class_name": "Zeros"}, "trainable": true, "name": "conv4_1_1x1_increase_bn", "moving_variance_initializer": {"config": {}, "class_name": "Ones"}, "gamma_initializer": {"config": {}, "class_name": "Ones"}, "axis": -1, "gamma_constraint": null, "moving_mean_initializer": {"config": {}, "class_name": "Zeros"}, "gamma_regularizer": null, "momentum": 0.95, "beta_constraint": null, "center": true}, "name": "conv4_1_1x1_increase_bn", "class_name": "BatchNormalization"}, {"inbound_nodes": [[["conv4_1_1x1_proj", 0, 0, {}]]], "config": {"scale": true, "beta_regularizer": null, "epsilon": 1e-05, "beta_initializer": {"config": {}, "class_name": "Zeros"}, "trainable": true, "name": "conv4_1_1x1_proj_bn", "moving_variance_initializer": {"config": {}, "class_name": "Ones"}, "gamma_initializer": {"config": {}, "class_name": "Ones"}, "axis": -1, "gamma_constraint": null, "moving_mean_initializer": {"config": {}, "class_name": "Zeros"}, "gamma_regularizer": null, "momentum": 0.95, "beta_constraint": null, "center": true}, "name": "conv4_1_1x1_proj_bn", "class_name": "BatchNormalization"}, {"inbound_nodes": [[["conv4_1_1x1_increase_bn", 0, 0, {}], ["conv4_1_1x1_proj_bn", 0, 0, {}]]], "config": {"name": "add_8", "trainable": true}, "name": "add_8", "class_name": "Add"}, {"inbound_nodes": [[["add_8", 0, 0, {}]]], "config": {"activation": "relu", "name": "activation_28", "trainable": true}, "name": "activation_28", "class_name": "Activation"}, {"inbound_nodes": [[["activation_28", 0, 0, {}]]], "config": {"activation": "linear", "use_bias": false, "dilation_rate": [1, 1], "bias_constraint": null, "kernel_initializer": {"config": {"mode": "fan_avg", "distribution": "uniform", "scale": 1.0, "seed": null}, "class_name": "VarianceScaling"}, "trainable": true, "data_format": "channels_last", "kernel_size": [1, 1], "kernel_constraint": null, "strides": [1, 1], "padding": "valid", "filters": 256, "bias_regularizer": null, "activity_regularizer": null, "bias_initializer": {"config": {}, "class_name": "Zeros"}, "name": "conv4_2_1x1_reduce", "kernel_regularizer": null}, "name": "conv4_2_1x1_reduce", "class_name": "Conv2D"}, {"inbound_nodes": [[["conv4_2_1x1_reduce", 0, 0, {}]]], "config": {"scale": true, "beta_regularizer": null, "epsilon": 1e-05, "beta_initializer": {"config": {}, "class_name": "Zeros"}, "trainable": true, "name": "conv4_2_1x1_reduce_bn", "moving_variance_initializer": {"config": {}, "class_name": "Ones"}, "gamma_initializer": {"config": {}, "class_name": "Ones"}, "axis": -1, "gamma_constraint": null, "moving_mean_initializer": {"config": {}, "class_name": "Zeros"}, "gamma_regularizer": null, "momentum": 0.95, "beta_constraint": null, "center": true}, "name": "conv4_2_1x1_reduce_bn", "class_name": "BatchNormalization"}, {"inbound_nodes": [[["conv4_2_1x1_reduce_bn", 0, 0, {}]]], "config": {"activation": "relu", "name": "activation_29", "trainable": true}, "name": "activation_29", "class_name": "Activation"}, {"inbound_nodes": [[["activation_29", 0, 0, {}]]], "config": {"trainable": true, "padding": [[2, 2], [2, 2]], "name": "zero_padding2d_9", "data_format": "channels_last"}, "name": "zero_padding2d_9", "class_name": "ZeroPadding2D"}, {"inbound_nodes": [[["zero_padding2d_9", 0, 0, {}]]], "config": {"activation": "linear", "use_bias": false, "dilation_rate": [2, 2], "bias_constraint": null, "kernel_initializer": {"config": {"mode": "fan_avg", "distribution": "uniform", "scale": 1.0, "seed": null}, "class_name": "VarianceScaling"}, "trainable": true, "data_format": "channels_last", "kernel_size": [3, 3], "kernel_constraint": null, "strides": [1, 1], "padding": "valid", "filters": 256, "bias_regularizer": null, "activity_regularizer": null, "bias_initializer": {"config": {}, "class_name": "Zeros"}, "name": "conv4_2_3x3", "kernel_regularizer": null}, "name": "conv4_2_3x3", "class_name": "Conv2D"}, {"inbound_nodes": [[["conv4_2_3x3", 0, 0, {}]]], "config": {"scale": true, "beta_regularizer": null, "epsilon": 1e-05, "beta_initializer": {"config": {}, "class_name": "Zeros"}, "trainable": true, "name": "conv4_2_3x3_bn", "moving_variance_initializer": {"config": {}, "class_name": "Ones"}, "gamma_initializer": {"config": {}, "class_name": "Ones"}, "axis": -1, "gamma_constraint": null, "moving_mean_initializer": {"config": {}, "class_name": "Zeros"}, "gamma_regularizer": null, "momentum": 0.95, "beta_constraint": null, "center": true}, "name": "conv4_2_3x3_bn", "class_name": "BatchNormalization"}, {"inbound_nodes": [[["conv4_2_3x3_bn", 0, 0, {}]]], "config": {"activation": "relu", "name": "activation_30", "trainable": true}, "name": "activation_30", "class_name": "Activation"}, {"inbound_nodes": [[["activation_30", 0, 0, {}]]], "config": {"activation": "linear", "use_bias": false, "dilation_rate": [1, 1], "bias_constraint": null, "kernel_initializer": {"config": {"mode": "fan_avg", "distribution": "uniform", "scale": 1.0, "seed": null}, "class_name": "VarianceScaling"}, "trainable": true, "data_format": "channels_last", "kernel_size": [1, 1], "kernel_constraint": null, "strides": [1, 1], "padding": "valid", "filters": 1024, "bias_regularizer": null, "activity_regularizer": null, "bias_initializer": {"config": {}, "class_name": "Zeros"}, "name": "conv4_2_1x1_increase", "kernel_regularizer": null}, "name": "conv4_2_1x1_increase", "class_name": "Conv2D"}, {"inbound_nodes": [[["conv4_2_1x1_increase", 0, 0, {}]]], "config": {"scale": true, "beta_regularizer": null, "epsilon": 1e-05, "beta_initializer": {"config": {}, "class_name": "Zeros"}, "trainable": true, "name": "conv4_2_1x1_increase_bn", "moving_variance_initializer": {"config": {}, "class_name": "Ones"}, "gamma_initializer": {"config": {}, "class_name": "Ones"}, "axis": -1, "gamma_constraint": null, "moving_mean_initializer": {"config": {}, "class_name": "Zeros"}, "gamma_regularizer": null, "momentum": 0.95, "beta_constraint": null, "center": true}, "name": "conv4_2_1x1_increase_bn", "class_name": "BatchNormalization"}, {"inbound_nodes": [[["conv4_2_1x1_increase_bn", 0, 0, {}], ["activation_28", 0, 0, {}]]], "config": {"name": "add_9", "trainable": true}, "name": "add_9", "class_name": "Add"}, {"inbound_nodes": [[["add_9", 0, 0, {}]]], "config": {"activation": "relu", "name": "activation_31", "trainable": true}, "name": "activation_31", "class_name": "Activation"}, {"inbound_nodes": [[["activation_31", 0, 0, {}]]], "config": {"activation": "linear", "use_bias": false, "dilation_rate": [1, 1], "bias_constraint": null, "kernel_initializer": {"config": {"mode": "fan_avg", "distribution": "uniform", "scale": 1.0, "seed": null}, "class_name": "VarianceScaling"}, "trainable": true, "data_format": "channels_last", "kernel_size": [1, 1], "kernel_constraint": null, "strides": [1, 1], "padding": "valid", "filters": 256, "bias_regularizer": null, "activity_regularizer": null, "bias_initializer": {"config": {}, "class_name": "Zeros"}, "name": "conv4_3_1x1_reduce", "kernel_regularizer": null}, "name": "conv4_3_1x1_reduce", "class_name": "Conv2D"}, {"inbound_nodes": [[["conv4_3_1x1_reduce", 0, 0, {}]]], "config": {"scale": true, "beta_regularizer": null, "epsilon": 1e-05, "beta_initializer": {"config": {}, "class_name": "Zeros"}, "trainable": true, "name": "conv4_3_1x1_reduce_bn", "moving_variance_initializer": {"config": {}, "class_name": "Ones"}, "gamma_initializer": {"config": {}, "class_name": "Ones"}, "axis": -1, "gamma_constraint": null, "moving_mean_initializer": {"config": {}, "class_name": "Zeros"}, "gamma_regularizer": null, "momentum": 0.95, "beta_constraint": null, "center": true}, "name": "conv4_3_1x1_reduce_bn", "class_name": "BatchNormalization"}, {"inbound_nodes": [[["conv4_3_1x1_reduce_bn", 0, 0, {}]]], "config": {"activation": "relu", "name": "activation_32", "trainable": true}, "name": "activation_32", "class_name": "Activation"}, {"inbound_nodes": [[["activation_32", 0, 0, {}]]], "config": {"trainable": true, "padding": [[2, 2], [2, 2]], "name": "zero_padding2d_10", "data_format": "channels_last"}, "name": "zero_padding2d_10", "class_name": "ZeroPadding2D"}, {"inbound_nodes": [[["zero_padding2d_10", 0, 0, {}]]], "config": {"activation": "linear", "use_bias": false, "dilation_rate": [2, 2], "bias_constraint": null, "kernel_initializer": {"config": {"mode": "fan_avg", "distribution": "uniform", "scale": 1.0, "seed": null}, "class_name": "VarianceScaling"}, "trainable": true, "data_format": "channels_last", "kernel_size": [3, 3], "kernel_constraint": null, "strides": [1, 1], "padding": "valid", "filters": 256, "bias_regularizer": null, "activity_regularizer": null, "bias_initializer": {"config": {}, "class_name": "Zeros"}, "name": "conv4_3_3x3", "kernel_regularizer": null}, "name": "conv4_3_3x3", "class_name": "Conv2D"}, {"inbound_nodes": [[["conv4_3_3x3", 0, 0, {}]]], "config": {"scale": true, "beta_regularizer": null, "epsilon": 1e-05, "beta_initializer": {"config": {}, "class_name": "Zeros"}, "trainable": true, "name": "conv4_3_3x3_bn", "moving_variance_initializer": {"config": {}, "class_name": "Ones"}, "gamma_initializer": {"config": {}, "class_name": "Ones"}, "axis": -1, "gamma_constraint": null, "moving_mean_initializer": {"config": {}, "class_name": "Zeros"}, "gamma_regularizer": null, "momentum": 0.95, "beta_constraint": null, "center": true}, "name": "conv4_3_3x3_bn", "class_name": "BatchNormalization"}, {"inbound_nodes": [[["conv4_3_3x3_bn", 0, 0, {}]]], "config": {"activation": "relu", "name": "activation_33", "trainable": true}, "name": "activation_33", "class_name": "Activation"}, {"inbound_nodes": [[["activation_33", 0, 0, {}]]], "config": {"activation": "linear", "use_bias": false, "dilation_rate": [1, 1], "bias_constraint": null, "kernel_initializer": {"config": {"mode": "fan_avg", "distribution": "uniform", "scale": 1.0, "seed": null}, "class_name": "VarianceScaling"}, "trainable": true, "data_format": "channels_last", "kernel_size": [1, 1], "kernel_constraint": null, "strides": [1, 1], "padding": "valid", "filters": 1024, "bias_regularizer": null, "activity_regularizer": null, "bias_initializer": {"config": {}, "class_name": "Zeros"}, "name": "conv4_3_1x1_increase", "kernel_regularizer": null}, "name": "conv4_3_1x1_increase", "class_name": "Conv2D"}, {"inbound_nodes": [[["conv4_3_1x1_increase", 0, 0, {}]]], "config": {"scale": true, "beta_regularizer": null, "epsilon": 1e-05, "beta_initializer": {"config": {}, "class_name": "Zeros"}, "trainable": true, "name": "conv4_3_1x1_increase_bn", "moving_variance_initializer": {"config": {}, "class_name": "Ones"}, "gamma_initializer": {"config": {}, "class_name": "Ones"}, "axis": -1, "gamma_constraint": null, "moving_mean_initializer": {"config": {}, "class_name": "Zeros"}, "gamma_regularizer": null, "momentum": 0.95, "beta_constraint": null, "center": true}, "name": "conv4_3_1x1_increase_bn", "class_name": "BatchNormalization"}, {"inbound_nodes": [[["conv4_3_1x1_increase_bn", 0, 0, {}], ["activation_31", 0, 0, {}]]], "config": {"name": "add_10", "trainable": true}, "name": "add_10", "class_name": "Add"}, {"inbound_nodes": [[["add_10", 0, 0, {}]]], "config": {"activation": "relu", "name": "activation_34", "trainable": true}, "name": "activation_34", "class_name": "Activation"}, {"inbound_nodes": [[["activation_34", 0, 0, {}]]], "config": {"activation": "linear", "use_bias": false, "dilation_rate": [1, 1], "bias_constraint": null, "kernel_initializer": {"config": {"mode": "fan_avg", "distribution": "uniform", "scale": 1.0, "seed": null}, "class_name": "VarianceScaling"}, "trainable": true, "data_format": "channels_last", "kernel_size": [1, 1], "kernel_constraint": null, "strides": [1, 1], "padding": "valid", "filters": 256, "bias_regularizer": null, "activity_regularizer": null, "bias_initializer": {"config": {}, "class_name": "Zeros"}, "name": "conv4_4_1x1_reduce", "kernel_regularizer": null}, "name": "conv4_4_1x1_reduce", "class_name": "Conv2D"}, {"inbound_nodes": [[["conv4_4_1x1_reduce", 0, 0, {}]]], "config": {"scale": true, "beta_regularizer": null, "epsilon": 1e-05, "beta_initializer": {"config": {}, "class_name": "Zeros"}, "trainable": true, "name": "conv4_4_1x1_reduce_bn", "moving_variance_initializer": {"config": {}, "class_name": "Ones"}, "gamma_initializer": {"config": {}, "class_name": "Ones"}, "axis": -1, "gamma_constraint": null, "moving_mean_initializer": {"config": {}, "class_name": "Zeros"}, "gamma_regularizer": null, "momentum": 0.95, "beta_constraint": null, "center": true}, "name": "conv4_4_1x1_reduce_bn", "class_name": "BatchNormalization"}, {"inbound_nodes": [[["conv4_4_1x1_reduce_bn", 0, 0, {}]]], "config": {"activation": "relu", "name": "activation_35", "trainable": true}, "name": "activation_35", "class_name": "Activation"}, {"inbound_nodes": [[["activation_35", 0, 0, {}]]], "config": {"trainable": true, "padding": [[2, 2], [2, 2]], "name": "zero_padding2d_11", "data_format": "channels_last"}, "name": "zero_padding2d_11", "class_name": "ZeroPadding2D"}, {"inbound_nodes": [[["zero_padding2d_11", 0, 0, {}]]], "config": {"activation": "linear", "use_bias": false, "dilation_rate": [2, 2], "bias_constraint": null, "kernel_initializer": {"config": {"mode": "fan_avg", "distribution": "uniform", "scale": 1.0, "seed": null}, "class_name": "VarianceScaling"}, "trainable": true, "data_format": "channels_last", "kernel_size": [3, 3], "kernel_constraint": null, "strides": [1, 1], "padding": "valid", "filters": 256, "bias_regularizer": null, "activity_regularizer": null, "bias_initializer": {"config": {}, "class_name": "Zeros"}, "name": "conv4_4_3x3", "kernel_regularizer": null}, "name": "conv4_4_3x3", "class_name": "Conv2D"}, {"inbound_nodes": [[["conv4_4_3x3", 0, 0, {}]]], "config": {"scale": true, "beta_regularizer": null, "epsilon": 1e-05, "beta_initializer": {"config": {}, "class_name": "Zeros"}, "trainable": true, "name": "conv4_4_3x3_bn", "moving_variance_initializer": {"config": {}, "class_name": "Ones"}, "gamma_initializer": {"config": {}, "class_name": "Ones"}, "axis": -1, "gamma_constraint": null, "moving_mean_initializer": {"config": {}, "class_name": "Zeros"}, "gamma_regularizer": null, "momentum": 0.95, "beta_constraint": null, "center": true}, "name": "conv4_4_3x3_bn", "class_name": "BatchNormalization"}, {"inbound_nodes": [[["conv4_4_3x3_bn", 0, 0, {}]]], "config": {"activation": "relu", "name": "activation_36", "trainable": true}, "name": "activation_36", "class_name": "Activation"}, {"inbound_nodes": [[["activation_36", 0, 0, {}]]], "config": {"activation": "linear", "use_bias": false, "dilation_rate": [1, 1], "bias_constraint": null, "kernel_initializer": {"config": {"mode": "fan_avg", "distribution": "uniform", "scale": 1.0, "seed": null}, "class_name": "VarianceScaling"}, "trainable": true, "data_format": "channels_last", "kernel_size": [1, 1], "kernel_constraint": null, "strides": [1, 1], "padding": "valid", "filters": 1024, "bias_regularizer": null, "activity_regularizer": null, "bias_initializer": {"config": {}, "class_name": "Zeros"}, "name": "conv4_4_1x1_increase", "kernel_regularizer": null}, "name": "conv4_4_1x1_increase", "class_name": "Conv2D"}, {"inbound_nodes": [[["conv4_4_1x1_increase", 0, 0, {}]]], "config": {"scale": true, "beta_regularizer": null, "epsilon": 1e-05, "beta_initializer": {"config": {}, "class_name": "Zeros"}, "trainable": true, "name": "conv4_4_1x1_increase_bn", "moving_variance_initializer": {"config": {}, "class_name": "Ones"}, "gamma_initializer": {"config": {}, "class_name": "Ones"}, "axis": -1, "gamma_constraint": null, "moving_mean_initializer": {"config": {}, "class_name": "Zeros"}, "gamma_regularizer": null, "momentum": 0.95, "beta_constraint": null, "center": true}, "name": "conv4_4_1x1_increase_bn", "class_name": "BatchNormalization"}, {"inbound_nodes": [[["conv4_4_1x1_increase_bn", 0, 0, {}], ["activation_34", 0, 0, {}]]], "config": {"name": "add_11", "trainable": true}, "name": "add_11", "class_name": "Add"}, {"inbound_nodes": [[["add_11", 0, 0, {}]]], "config": {"activation": "relu", "name": "activation_37", "trainable": true}, "name": "activation_37", "class_name": "Activation"}, {"inbound_nodes": [[["activation_37", 0, 0, {}]]], "config": {"activation": "linear", "use_bias": false, "dilation_rate": [1, 1], "bias_constraint": null, "kernel_initializer": {"config": {"mode": "fan_avg", "distribution": "uniform", "scale": 1.0, "seed": null}, "class_name": "VarianceScaling"}, "trainable": true, "data_format": "channels_last", "kernel_size": [1, 1], "kernel_constraint": null, "strides": [1, 1], "padding": "valid", "filters": 256, "bias_regularizer": null, "activity_regularizer": null, "bias_initializer": {"config": {}, "class_name": "Zeros"}, "name": "conv4_5_1x1_reduce", "kernel_regularizer": null}, "name": "conv4_5_1x1_reduce", "class_name": "Conv2D"}, {"inbound_nodes": [[["conv4_5_1x1_reduce", 0, 0, {}]]], "config": {"scale": true, "beta_regularizer": null, "epsilon": 1e-05, "beta_initializer": {"config": {}, "class_name": "Zeros"}, "trainable": true, "name": "conv4_5_1x1_reduce_bn", "moving_variance_initializer": {"config": {}, "class_name": "Ones"}, "gamma_initializer": {"config": {}, "class_name": "Ones"}, "axis": -1, "gamma_constraint": null, "moving_mean_initializer": {"config": {}, "class_name": "Zeros"}, "gamma_regularizer": null, "momentum": 0.95, "beta_constraint": null, "center": true}, "name": "conv4_5_1x1_reduce_bn", "class_name": "BatchNormalization"}, {"inbound_nodes": [[["conv4_5_1x1_reduce_bn", 0, 0, {}]]], "config": {"activation": "relu", "name": "activation_38", "trainable": true}, "name": "activation_38", "class_name": "Activation"}, {"inbound_nodes": [[["activation_38", 0, 0, {}]]], "config": {"trainable": true, "padding": [[2, 2], [2, 2]], "name": "zero_padding2d_12", "data_format": "channels_last"}, "name": "zero_padding2d_12", "class_name": "ZeroPadding2D"}, {"inbound_nodes": [[["zero_padding2d_12", 0, 0, {}]]], "config": {"activation": "linear", "use_bias": false, "dilation_rate": [2, 2], "bias_constraint": null, "kernel_initializer": {"config": {"mode": "fan_avg", "distribution": "uniform", "scale": 1.0, "seed": null}, "class_name": "VarianceScaling"}, "trainable": true, "data_format": "channels_last", "kernel_size": [3, 3], "kernel_constraint": null, "strides": [1, 1], "padding": "valid", "filters": 256, "bias_regularizer": null, "activity_regularizer": null, "bias_initializer": {"config": {}, "class_name": "Zeros"}, "name": "conv4_5_3x3", "kernel_regularizer": null}, "name": "conv4_5_3x3", "class_name": "Conv2D"}, {"inbound_nodes": [[["conv4_5_3x3", 0, 0, {}]]], "config": {"scale": true, "beta_regularizer": null, "epsilon": 1e-05, "beta_initializer": {"config": {}, "class_name": "Zeros"}, "trainable": true, "name": "conv4_5_3x3_bn", "moving_variance_initializer": {"config": {}, "class_name": "Ones"}, "gamma_initializer": {"config": {}, "class_name": "Ones"}, "axis": -1, "gamma_constraint": null, "moving_mean_initializer": {"config": {}, "class_name": "Zeros"}, "gamma_regularizer": null, "momentum": 0.95, "beta_constraint": null, "center": true}, "name": "conv4_5_3x3_bn", "class_name": "BatchNormalization"}, {"inbound_nodes": [[["conv4_5_3x3_bn", 0, 0, {}]]], "config": {"activation": "relu", "name": "activation_39", "trainable": true}, "name": "activation_39", "class_name": "Activation"}, {"inbound_nodes": [[["activation_39", 0, 0, {}]]], "config": {"activation": "linear", "use_bias": false, "dilation_rate": [1, 1], "bias_constraint": null, "kernel_initializer": {"config": {"mode": "fan_avg", "distribution": "uniform", "scale": 1.0, "seed": null}, "class_name": "VarianceScaling"}, "trainable": true, "data_format": "channels_last", "kernel_size": [1, 1], "kernel_constraint": null, "strides": [1, 1], "padding": "valid", "filters": 1024, "bias_regularizer": null, "activity_regularizer": null, "bias_initializer": {"config": {}, "class_name": "Zeros"}, "name": "conv4_5_1x1_increase", "kernel_regularizer": null}, "name": "conv4_5_1x1_increase", "class_name": "Conv2D"}, {"inbound_nodes": [[["conv4_5_1x1_increase", 0, 0, {}]]], "config": {"scale": true, "beta_regularizer": null, "epsilon": 1e-05, "beta_initializer": {"config": {}, "class_name": "Zeros"}, "trainable": true, "name": "conv4_5_1x1_increase_bn", "moving_variance_initializer": {"config": {}, "class_name": "Ones"}, "gamma_initializer": {"config": {}, "class_name": "Ones"}, "axis": -1, "gamma_constraint": null, "moving_mean_initializer": {"config": {}, "class_name": "Zeros"}, "gamma_regularizer": null, "momentum": 0.95, "beta_constraint": null, "center": true}, "name": "conv4_5_1x1_increase_bn", "class_name": "BatchNormalization"}, {"inbound_nodes": [[["conv4_5_1x1_increase_bn", 0, 0, {}], ["activation_37", 0, 0, {}]]], "config": {"name": "add_12", "trainable": true}, "name": "add_12", "class_name": "Add"}, {"inbound_nodes": [[["add_12", 0, 0, {}]]], "config": {"activation": "relu", "name": "activation_40", "trainable": true}, "name": "activation_40", "class_name": "Activation"}, {"inbound_nodes": [[["activation_40", 0, 0, {}]]], "config": {"activation": "linear", "use_bias": false, "dilation_rate": [1, 1], "bias_constraint": null, "kernel_initializer": {"config": {"mode": "fan_avg", "distribution": "uniform", "scale": 1.0, "seed": null}, "class_name": "VarianceScaling"}, "trainable": true, "data_format": "channels_last", "kernel_size": [1, 1], "kernel_constraint": null, "strides": [1, 1], "padding": "valid", "filters": 256, "bias_regularizer": null, "activity_regularizer": null, "bias_initializer": {"config": {}, "class_name": "Zeros"}, "name": "conv4_6_1x1_reduce", "kernel_regularizer": null}, "name": "conv4_6_1x1_reduce", "class_name": "Conv2D"}, {"inbound_nodes": [[["conv4_6_1x1_reduce", 0, 0, {}]]], "config": {"scale": true, "beta_regularizer": null, "epsilon": 1e-05, "beta_initializer": {"config": {}, "class_name": "Zeros"}, "trainable": true, "name": "conv4_6_1x1_reduce_bn", "moving_variance_initializer": {"config": {}, "class_name": "Ones"}, "gamma_initializer": {"config": {}, "class_name": "Ones"}, "axis": -1, "gamma_constraint": null, "moving_mean_initializer": {"config": {}, "class_name": "Zeros"}, "gamma_regularizer": null, "momentum": 0.95, "beta_constraint": null, "center": true}, "name": "conv4_6_1x1_reduce_bn", "class_name": "BatchNormalization"}, {"inbound_nodes": [[["conv4_6_1x1_reduce_bn", 0, 0, {}]]], "config": {"activation": "relu", "name": "activation_41", "trainable": true}, "name": "activation_41", "class_name": "Activation"}, {"inbound_nodes": [[["activation_41", 0, 0, {}]]], "config": {"trainable": true, "padding": [[2, 2], [2, 2]], "name": "zero_padding2d_13", "data_format": "channels_last"}, "name": "zero_padding2d_13", "class_name": "ZeroPadding2D"}, {"inbound_nodes": [[["zero_padding2d_13", 0, 0, {}]]], "config": {"activation": "linear", "use_bias": false, "dilation_rate": [2, 2], "bias_constraint": null, "kernel_initializer": {"config": {"mode": "fan_avg", "distribution": "uniform", "scale": 1.0, "seed": null}, "class_name": "VarianceScaling"}, "trainable": true, "data_format": "channels_last", "kernel_size": [3, 3], "kernel_constraint": null, "strides": [1, 1], "padding": "valid", "filters": 256, "bias_regularizer": null, "activity_regularizer": null, "bias_initializer": {"config": {}, "class_name": "Zeros"}, "name": "conv4_6_3x3", "kernel_regularizer": null}, "name": "conv4_6_3x3", "class_name": "Conv2D"}, {"inbound_nodes": [[["conv4_6_3x3", 0, 0, {}]]], "config": {"scale": true, "beta_regularizer": null, "epsilon": 1e-05, "beta_initializer": {"config": {}, "class_name": "Zeros"}, "trainable": true, "name": "conv4_6_3x3_bn", "moving_variance_initializer": {"config": {}, "class_name": "Ones"}, "gamma_initializer": {"config": {}, "class_name": "Ones"}, "axis": -1, "gamma_constraint": null, "moving_mean_initializer": {"config": {}, "class_name": "Zeros"}, "gamma_regularizer": null, "momentum": 0.95, "beta_constraint": null, "center": true}, "name": "conv4_6_3x3_bn", "class_name": "BatchNormalization"}, {"inbound_nodes": [[["conv4_6_3x3_bn", 0, 0, {}]]], "config": {"activation": "relu", "name": "activation_42", "trainable": true}, "name": "activation_42", "class_name": "Activation"}, {"inbound_nodes": [[["activation_42", 0, 0, {}]]], "config": {"activation": "linear", "use_bias": false, "dilation_rate": [1, 1], "bias_constraint": null, "kernel_initializer": {"config": {"mode": "fan_avg", "distribution": "uniform", "scale": 1.0, "seed": null}, "class_name": "VarianceScaling"}, "trainable": true, "data_format": "channels_last", "kernel_size": [1, 1], "kernel_constraint": null, "strides": [1, 1], "padding": "valid", "filters": 1024, "bias_regularizer": null, "activity_regularizer": null, "bias_initializer": {"config": {}, "class_name": "Zeros"}, "name": "conv4_6_1x1_increase", "kernel_regularizer": null}, "name": "conv4_6_1x1_increase", "class_name": "Conv2D"}, {"inbound_nodes": [[["conv4_6_1x1_increase", 0, 0, {}]]], "config": {"scale": true, "beta_regularizer": null, "epsilon": 1e-05, "beta_initializer": {"config": {}, "class_name": "Zeros"}, "trainable": true, "name": "conv4_6_1x1_increase_bn", "moving_variance_initializer": {"config": {}, "class_name": "Ones"}, "gamma_initializer": {"config": {}, "class_name": "Ones"}, "axis": -1, "gamma_constraint": null, "moving_mean_initializer": {"config": {}, "class_name": "Zeros"}, "gamma_regularizer": null, "momentum": 0.95, "beta_constraint": null, "center": true}, "name": "conv4_6_1x1_increase_bn", "class_name": "BatchNormalization"}, {"inbound_nodes": [[["conv4_6_1x1_increase_bn", 0, 0, {}], ["activation_40", 0, 0, {}]]], "config": {"name": "add_13", "trainable": true}, "name": "add_13", "class_name": "Add"}, {"inbound_nodes": [[["add_13", 0, 0, {}]]], "config": {"activation": "relu", "name": "activation_43", "trainable": true}, "name": "activation_43", "class_name": "Activation"}, {"inbound_nodes": [[["activation_43", 0, 0, {}]]], "config": {"activation": "linear", "use_bias": false, "dilation_rate": [1, 1], "bias_constraint": null, "kernel_initializer": {"config": {"mode": "fan_avg", "distribution": "uniform", "scale": 1.0, "seed": null}, "class_name": "VarianceScaling"}, "trainable": true, "data_format": "channels_last", "kernel_size": [1, 1], "kernel_constraint": null, "strides": [1, 1], "padding": "valid", "filters": 256, "bias_regularizer": null, "activity_regularizer": null, "bias_initializer": {"config": {}, "class_name": "Zeros"}, "name": "conv4_7_1x1_reduce", "kernel_regularizer": null}, "name": "conv4_7_1x1_reduce", "class_name": "Conv2D"}, {"inbound_nodes": [[["conv4_7_1x1_reduce", 0, 0, {}]]], "config": {"scale": true, "beta_regularizer": null, "epsilon": 1e-05, "beta_initializer": {"config": {}, "class_name": "Zeros"}, "trainable": true, "name": "conv4_7_1x1_reduce_bn", "moving_variance_initializer": {"config": {}, "class_name": "Ones"}, "gamma_initializer": {"config": {}, "class_name": "Ones"}, "axis": -1, "gamma_constraint": null, "moving_mean_initializer": {"config": {}, "class_name": "Zeros"}, "gamma_regularizer": null, "momentum": 0.95, "beta_constraint": null, "center": true}, "name": "conv4_7_1x1_reduce_bn", "class_name": "BatchNormalization"}, {"inbound_nodes": [[["conv4_7_1x1_reduce_bn", 0, 0, {}]]], "config": {"activation": "relu", "name": "activation_44", "trainable": true}, "name": "activation_44", "class_name": "Activation"}, {"inbound_nodes": [[["activation_44", 0, 0, {}]]], "config": {"trainable": true, "padding": [[2, 2], [2, 2]], "name": "zero_padding2d_14", "data_format": "channels_last"}, "name": "zero_padding2d_14", "class_name": "ZeroPadding2D"}, {"inbound_nodes": [[["zero_padding2d_14", 0, 0, {}]]], "config": {"activation": "linear", "use_bias": false, "dilation_rate": [2, 2], "bias_constraint": null, "kernel_initializer": {"config": {"mode": "fan_avg", "distribution": "uniform", "scale": 1.0, "seed": null}, "class_name": "VarianceScaling"}, "trainable": true, "data_format": "channels_last", "kernel_size": [3, 3], "kernel_constraint": null, "strides": [1, 1], "padding": "valid", "filters": 256, "bias_regularizer": null, "activity_regularizer": null, "bias_initializer": {"config": {}, "class_name": "Zeros"}, "name": "conv4_7_3x3", "kernel_regularizer": null}, "name": "conv4_7_3x3", "class_name": "Conv2D"}, {"inbound_nodes": [[["conv4_7_3x3", 0, 0, {}]]], "config": {"scale": true, "beta_regularizer": null, "epsilon": 1e-05, "beta_initializer": {"config": {}, "class_name": "Zeros"}, "trainable": true, "name": "conv4_7_3x3_bn", "moving_variance_initializer": {"config": {}, "class_name": "Ones"}, "gamma_initializer": {"config": {}, "class_name": "Ones"}, "axis": -1, "gamma_constraint": null, "moving_mean_initializer": {"config": {}, "class_name": "Zeros"}, "gamma_regularizer": null, "momentum": 0.95, "beta_constraint": null, "center": true}, "name": "conv4_7_3x3_bn", "class_name": "BatchNormalization"}, {"inbound_nodes": [[["conv4_7_3x3_bn", 0, 0, {}]]], "config": {"activation": "relu", "name": "activation_45", "trainable": true}, "name": "activation_45", "class_name": "Activation"}, {"inbound_nodes": [[["activation_45", 0, 0, {}]]], "config": {"activation": "linear", "use_bias": false, "dilation_rate": [1, 1], "bias_constraint": null, "kernel_initializer": {"config": {"mode": "fan_avg", "distribution": "uniform", "scale": 1.0, "seed": null}, "class_name": "VarianceScaling"}, "trainable": true, "data_format": "channels_last", "kernel_size": [1, 1], "kernel_constraint": null, "strides": [1, 1], "padding": "valid", "filters": 1024, "bias_regularizer": null, "activity_regularizer": null, "bias_initializer": {"config": {}, "class_name": "Zeros"}, "name": "conv4_7_1x1_increase", "kernel_regularizer": null}, "name": "conv4_7_1x1_increase", "class_name": "Conv2D"}, {"inbound_nodes": [[["conv4_7_1x1_increase", 0, 0, {}]]], "config": {"scale": true, "beta_regularizer": null, "epsilon": 1e-05, "beta_initializer": {"config": {}, "class_name": "Zeros"}, "trainable": true, "name": "conv4_7_1x1_increase_bn", "moving_variance_initializer": {"config": {}, "class_name": "Ones"}, "gamma_initializer": {"config": {}, "class_name": "Ones"}, "axis": -1, "gamma_constraint": null, "moving_mean_initializer": {"config": {}, "class_name": "Zeros"}, "gamma_regularizer": null, "momentum": 0.95, "beta_constraint": null, "center": true}, "name": "conv4_7_1x1_increase_bn", "class_name": "BatchNormalization"}, {"inbound_nodes": [[["conv4_7_1x1_increase_bn", 0, 0, {}], ["activation_43", 0, 0, {}]]], "config": {"name": "add_14", "trainable": true}, "name": "add_14", "class_name": "Add"}, {"inbound_nodes": [[["add_14", 0, 0, {}]]], "config": {"activation": "relu", "name": "activation_46", "trainable": true}, "name": "activation_46", "class_name": "Activation"}, {"inbound_nodes": [[["activation_46", 0, 0, {}]]], "config": {"activation": "linear", "use_bias": false, "dilation_rate": [1, 1], "bias_constraint": null, "kernel_initializer": {"config": {"mode": "fan_avg", "distribution": "uniform", "scale": 1.0, "seed": null}, "class_name": "VarianceScaling"}, "trainable": true, "data_format": "channels_last", "kernel_size": [1, 1], "kernel_constraint": null, "strides": [1, 1], "padding": "valid", "filters": 256, "bias_regularizer": null, "activity_regularizer": null, "bias_initializer": {"config": {}, "class_name": "Zeros"}, "name": "conv4_8_1x1_reduce", "kernel_regularizer": null}, "name": "conv4_8_1x1_reduce", "class_name": "Conv2D"}, {"inbound_nodes": [[["conv4_8_1x1_reduce", 0, 0, {}]]], "config": {"scale": true, "beta_regularizer": null, "epsilon": 1e-05, "beta_initializer": {"config": {}, "class_name": "Zeros"}, "trainable": true, "name": "conv4_8_1x1_reduce_bn", "moving_variance_initializer": {"config": {}, "class_name": "Ones"}, "gamma_initializer": {"config": {}, "class_name": "Ones"}, "axis": -1, "gamma_constraint": null, "moving_mean_initializer": {"config": {}, "class_name": "Zeros"}, "gamma_regularizer": null, "momentum": 0.95, "beta_constraint": null, "center": true}, "name": "conv4_8_1x1_reduce_bn", "class_name": "BatchNormalization"}, {"inbound_nodes": [[["conv4_8_1x1_reduce_bn", 0, 0, {}]]], "config": {"activation": "relu", "name": "activation_47", "trainable": true}, "name": "activation_47", "class_name": "Activation"}, {"inbound_nodes": [[["activation_47", 0, 0, {}]]], "config": {"trainable": true, "padding": [[2, 2], [2, 2]], "name": "zero_padding2d_15", "data_format": "channels_last"}, "name": "zero_padding2d_15", "class_name": "ZeroPadding2D"}, {"inbound_nodes": [[["zero_padding2d_15", 0, 0, {}]]], "config": {"activation": "linear", "use_bias": false, "dilation_rate": [2, 2], "bias_constraint": null, "kernel_initializer": {"config": {"mode": "fan_avg", "distribution": "uniform", "scale": 1.0, "seed": null}, "class_name": "VarianceScaling"}, "trainable": true, "data_format": "channels_last", "kernel_size": [3, 3], "kernel_constraint": null, "strides": [1, 1], "padding": "valid", "filters": 256, "bias_regularizer": null, "activity_regularizer": null, "bias_initializer": {"config": {}, "class_name": "Zeros"}, "name": "conv4_8_3x3", "kernel_regularizer": null}, "name": "conv4_8_3x3", "class_name": "Conv2D"}, {"inbound_nodes": [[["conv4_8_3x3", 0, 0, {}]]], "config": {"scale": true, "beta_regularizer": null, "epsilon": 1e-05, "beta_initializer": {"config": {}, "class_name": "Zeros"}, "trainable": true, "name": "conv4_8_3x3_bn", "moving_variance_initializer": {"config": {}, "class_name": "Ones"}, "gamma_initializer": {"config": {}, "class_name": "Ones"}, "axis": -1, "gamma_constraint": null, "moving_mean_initializer": {"config": {}, "class_name": "Zeros"}, "gamma_regularizer": null, "momentum": 0.95, "beta_constraint": null, "center": true}, "name": "conv4_8_3x3_bn", "class_name": "BatchNormalization"}, {"inbound_nodes": [[["conv4_8_3x3_bn", 0, 0, {}]]], "config": {"activation": "relu", "name": "activation_48", "trainable": true}, "name": "activation_48", "class_name": "Activation"}, {"inbound_nodes": [[["activation_48", 0, 0, {}]]], "config": {"activation": "linear", "use_bias": false, "dilation_rate": [1, 1], "bias_constraint": null, "kernel_initializer": {"config": {"mode": "fan_avg", "distribution": "uniform", "scale": 1.0, "seed": null}, "class_name": "VarianceScaling"}, "trainable": true, "data_format": "channels_last", "kernel_size": [1, 1], "kernel_constraint": null, "strides": [1, 1], "padding": "valid", "filters": 1024, "bias_regularizer": null, "activity_regularizer": null, "bias_initializer": {"config": {}, "class_name": "Zeros"}, "name": "conv4_8_1x1_increase", "kernel_regularizer": null}, "name": "conv4_8_1x1_increase", "class_name": "Conv2D"}, {"inbound_nodes": [[["conv4_8_1x1_increase", 0, 0, {}]]], "config": {"scale": true, "beta_regularizer": null, "epsilon": 1e-05, "beta_initializer": {"config": {}, "class_name": "Zeros"}, "trainable": true, "name": "conv4_8_1x1_increase_bn", "moving_variance_initializer": {"config": {}, "class_name": "Ones"}, "gamma_initializer": {"config": {}, "class_name": "Ones"}, "axis": -1, "gamma_constraint": null, "moving_mean_initializer": {"config": {}, "class_name": "Zeros"}, "gamma_regularizer": null, "momentum": 0.95, "beta_constraint": null, "center": true}, "name": "conv4_8_1x1_increase_bn", "class_name": "BatchNormalization"}, {"inbound_nodes": [[["conv4_8_1x1_increase_bn", 0, 0, {}], ["activation_46", 0, 0, {}]]], "config": {"name": "add_15", "trainable": true}, "name": "add_15", "class_name": "Add"}, {"inbound_nodes": [[["add_15", 0, 0, {}]]], "config": {"activation": "relu", "name": "activation_49", "trainable": true}, "name": "activation_49", "class_name": "Activation"}, {"inbound_nodes": [[["activation_49", 0, 0, {}]]], "config": {"activation": "linear", "use_bias": false, "dilation_rate": [1, 1], "bias_constraint": null, "kernel_initializer": {"config": {"mode": "fan_avg", "distribution": "uniform", "scale": 1.0, "seed": null}, "class_name": "VarianceScaling"}, "trainable": true, "data_format": "channels_last", "kernel_size": [1, 1], "kernel_constraint": null, "strides": [1, 1], "padding": "valid", "filters": 256, "bias_regularizer": null, "activity_regularizer": null, "bias_initializer": {"config": {}, "class_name": "Zeros"}, "name": "conv4_9_1x1_reduce", "kernel_regularizer": null}, "name": "conv4_9_1x1_reduce", "class_name": "Conv2D"}, {"inbound_nodes": [[["conv4_9_1x1_reduce", 0, 0, {}]]], "config": {"scale": true, "beta_regularizer": null, "epsilon": 1e-05, "beta_initializer": {"config": {}, "class_name": "Zeros"}, "trainable": true, "name": "conv4_9_1x1_reduce_bn", "moving_variance_initializer": {"config": {}, "class_name": "Ones"}, "gamma_initializer": {"config": {}, "class_name": "Ones"}, "axis": -1, "gamma_constraint": null, "moving_mean_initializer": {"config": {}, "class_name": "Zeros"}, "gamma_regularizer": null, "momentum": 0.95, "beta_constraint": null, "center": true}, "name": "conv4_9_1x1_reduce_bn", "class_name": "BatchNormalization"}, {"inbound_nodes": [[["conv4_9_1x1_reduce_bn", 0, 0, {}]]], "config": {"activation": "relu", "name": "activation_50", "trainable": true}, "name": "activation_50", "class_name": "Activation"}, {"inbound_nodes": [[["activation_50", 0, 0, {}]]], "config": {"trainable": true, "padding": [[2, 2], [2, 2]], "name": "zero_padding2d_16", "data_format": "channels_last"}, "name": "zero_padding2d_16", "class_name": "ZeroPadding2D"}, {"inbound_nodes": [[["zero_padding2d_16", 0, 0, {}]]], "config": {"activation": "linear", "use_bias": false, "dilation_rate": [2, 2], "bias_constraint": null, "kernel_initializer": {"config": {"mode": "fan_avg", "distribution": "uniform", "scale": 1.0, "seed": null}, "class_name": "VarianceScaling"}, "trainable": true, "data_format": "channels_last", "kernel_size": [3, 3], "kernel_constraint": null, "strides": [1, 1], "padding": "valid", "filters": 256, "bias_regularizer": null, "activity_regularizer": null, "bias_initializer": {"config": {}, "class_name": "Zeros"}, "name": "conv4_9_3x3", "kernel_regularizer": null}, "name": "conv4_9_3x3", "class_name": "Conv2D"}, {"inbound_nodes": [[["conv4_9_3x3", 0, 0, {}]]], "config": {"scale": true, "beta_regularizer": null, "epsilon": 1e-05, "beta_initializer": {"config": {}, "class_name": "Zeros"}, "trainable": true, "name": "conv4_9_3x3_bn", "moving_variance_initializer": {"config": {}, "class_name": "Ones"}, "gamma_initializer": {"config": {}, "class_name": "Ones"}, "axis": -1, "gamma_constraint": null, "moving_mean_initializer": {"config": {}, "class_name": "Zeros"}, "gamma_regularizer": null, "momentum": 0.95, "beta_constraint": null, "center": true}, "name": "conv4_9_3x3_bn", "class_name": "BatchNormalization"}, {"inbound_nodes": [[["conv4_9_3x3_bn", 0, 0, {}]]], "config": {"activation": "relu", "name": "activation_51", "trainable": true}, "name": "activation_51", "class_name": "Activation"}, {"inbound_nodes": [[["activation_51", 0, 0, {}]]], "config": {"activation": "linear", "use_bias": false, "dilation_rate": [1, 1], "bias_constraint": null, "kernel_initializer": {"config": {"mode": "fan_avg", "distribution": "uniform", "scale": 1.0, "seed": null}, "class_name": "VarianceScaling"}, "trainable": true, "data_format": "channels_last", "kernel_size": [1, 1], "kernel_constraint": null, "strides": [1, 1], "padding": "valid", "filters": 1024, "bias_regularizer": null, "activity_regularizer": null, "bias_initializer": {"config": {}, "class_name": "Zeros"}, "name": "conv4_9_1x1_increase", "kernel_regularizer": null}, "name": "conv4_9_1x1_increase", "class_name": "Conv2D"}, {"inbound_nodes": [[["conv4_9_1x1_increase", 0, 0, {}]]], "config": {"scale": true, "beta_regularizer": null, "epsilon": 1e-05, "beta_initializer": {"config": {}, "class_name": "Zeros"}, "trainable": true, "name": "conv4_9_1x1_increase_bn", "moving_variance_initializer": {"config": {}, "class_name": "Ones"}, "gamma_initializer": {"config": {}, "class_name": "Ones"}, "axis": -1, "gamma_constraint": null, "moving_mean_initializer": {"config": {}, "class_name": "Zeros"}, "gamma_regularizer": null, "momentum": 0.95, "beta_constraint": null, "center": true}, "name": "conv4_9_1x1_increase_bn", "class_name": "BatchNormalization"}, {"inbound_nodes": [[["conv4_9_1x1_increase_bn", 0, 0, {}], ["activation_49", 0, 0, {}]]], "config": {"name": "add_16", "trainable": true}, "name": "add_16", "class_name": "Add"}, {"inbound_nodes": [[["add_16", 0, 0, {}]]], "config": {"activation": "relu", "name": "activation_52", "trainable": true}, "name": "activation_52", "class_name": "Activation"}, {"inbound_nodes": [[["activation_52", 0, 0, {}]]], "config": {"activation": "linear", "use_bias": false, "dilation_rate": [1, 1], "bias_constraint": null, "kernel_initializer": {"config": {"mode": "fan_avg", "distribution": "uniform", "scale": 1.0, "seed": null}, "class_name": "VarianceScaling"}, "trainable": true, "data_format": "channels_last", "kernel_size": [1, 1], "kernel_constraint": null, "strides": [1, 1], "padding": "valid", "filters": 256, "bias_regularizer": null, "activity_regularizer": null, "bias_initializer": {"config": {}, "class_name": "Zeros"}, "name": "conv4_10_1x1_reduce", "kernel_regularizer": null}, "name": "conv4_10_1x1_reduce", "class_name": "Conv2D"}, {"inbound_nodes": [[["conv4_10_1x1_reduce", 0, 0, {}]]], "config": {"scale": true, "beta_regularizer": null, "epsilon": 1e-05, "beta_initializer": {"config": {}, "class_name": "Zeros"}, "trainable": true, "name": "conv4_10_1x1_reduce_bn", "moving_variance_initializer": {"config": {}, "class_name": "Ones"}, "gamma_initializer": {"config": {}, "class_name": "Ones"}, "axis": -1, "gamma_constraint": null, "moving_mean_initializer": {"config": {}, "class_name": "Zeros"}, "gamma_regularizer": null, "momentum": 0.95, "beta_constraint": null, "center": true}, "name": "conv4_10_1x1_reduce_bn", "class_name": "BatchNormalization"}, {"inbound_nodes": [[["conv4_10_1x1_reduce_bn", 0, 0, {}]]], "config": {"activation": "relu", "name": "activation_53", "trainable": true}, "name": "activation_53", "class_name": "Activation"}, {"inbound_nodes": [[["activation_53", 0, 0, {}]]], "config": {"trainable": true, "padding": [[2, 2], [2, 2]], "name": "zero_padding2d_17", "data_format": "channels_last"}, "name": "zero_padding2d_17", "class_name": "ZeroPadding2D"}, {"inbound_nodes": [[["zero_padding2d_17", 0, 0, {}]]], "config": {"activation": "linear", "use_bias": false, "dilation_rate": [2, 2], "bias_constraint": null, "kernel_initializer": {"config": {"mode": "fan_avg", "distribution": "uniform", "scale": 1.0, "seed": null}, "class_name": "VarianceScaling"}, "trainable": true, "data_format": "channels_last", "kernel_size": [3, 3], "kernel_constraint": null, "strides": [1, 1], "padding": "valid", "filters": 256, "bias_regularizer": null, "activity_regularizer": null, "bias_initializer": {"config": {}, "class_name": "Zeros"}, "name": "conv4_10_3x3", "kernel_regularizer": null}, "name": "conv4_10_3x3", "class_name": "Conv2D"}, {"inbound_nodes": [[["conv4_10_3x3", 0, 0, {}]]], "config": {"scale": true, "beta_regularizer": null, "epsilon": 1e-05, "beta_initializer": {"config": {}, "class_name": "Zeros"}, "trainable": true, "name": "conv4_10_3x3_bn", "moving_variance_initializer": {"config": {}, "class_name": "Ones"}, "gamma_initializer": {"config": {}, "class_name": "Ones"}, "axis": -1, "gamma_constraint": null, "moving_mean_initializer": {"config": {}, "class_name": "Zeros"}, "gamma_regularizer": null, "momentum": 0.95, "beta_constraint": null, "center": true}, "name": "conv4_10_3x3_bn", "class_name": "BatchNormalization"}, {"inbound_nodes": [[["conv4_10_3x3_bn", 0, 0, {}]]], "config": {"activation": "relu", "name": "activation_54", "trainable": true}, "name": "activation_54", "class_name": "Activation"}, {"inbound_nodes": [[["activation_54", 0, 0, {}]]], "config": {"activation": "linear", "use_bias": false, "dilation_rate": [1, 1], "bias_constraint": null, "kernel_initializer": {"config": {"mode": "fan_avg", "distribution": "uniform", "scale": 1.0, "seed": null}, "class_name": "VarianceScaling"}, "trainable": true, "data_format": "channels_last", "kernel_size": [1, 1], "kernel_constraint": null, "strides": [1, 1], "padding": "valid", "filters": 1024, "bias_regularizer": null, "activity_regularizer": null, "bias_initializer": {"config": {}, "class_name": "Zeros"}, "name": "conv4_10_1x1_increase", "kernel_regularizer": null}, "name": "conv4_10_1x1_increase", "class_name": "Conv2D"}, {"inbound_nodes": [[["conv4_10_1x1_increase", 0, 0, {}]]], "config": {"scale": true, "beta_regularizer": null, "epsilon": 1e-05, "beta_initializer": {"config": {}, "class_name": "Zeros"}, "trainable": true, "name": "conv4_10_1x1_increase_bn", "moving_variance_initializer": {"config": {}, "class_name": "Ones"}, "gamma_initializer": {"config": {}, "class_name": "Ones"}, "axis": -1, "gamma_constraint": null, "moving_mean_initializer": {"config": {}, "class_name": "Zeros"}, "gamma_regularizer": null, "momentum": 0.95, "beta_constraint": null, "center": true}, "name": "conv4_10_1x1_increase_bn", "class_name": "BatchNormalization"}, {"inbound_nodes": [[["conv4_10_1x1_increase_bn", 0, 0, {}], ["activation_52", 0, 0, {}]]], "config": {"name": "add_17", "trainable": true}, "name": "add_17", "class_name": "Add"}, {"inbound_nodes": [[["add_17", 0, 0, {}]]], "config": {"activation": "relu", "name": "activation_55", "trainable": true}, "name": "activation_55", "class_name": "Activation"}, {"inbound_nodes": [[["activation_55", 0, 0, {}]]], "config": {"activation": "linear", "use_bias": false, "dilation_rate": [1, 1], "bias_constraint": null, "kernel_initializer": {"config": {"mode": "fan_avg", "distribution": "uniform", "scale": 1.0, "seed": null}, "class_name": "VarianceScaling"}, "trainable": true, "data_format": "channels_last", "kernel_size": [1, 1], "kernel_constraint": null, "strides": [1, 1], "padding": "valid", "filters": 256, "bias_regularizer": null, "activity_regularizer": null, "bias_initializer": {"config": {}, "class_name": "Zeros"}, "name": "conv4_11_1x1_reduce", "kernel_regularizer": null}, "name": "conv4_11_1x1_reduce", "class_name": "Conv2D"}, {"inbound_nodes": [[["conv4_11_1x1_reduce", 0, 0, {}]]], "config": {"scale": true, "beta_regularizer": null, "epsilon": 1e-05, "beta_initializer": {"config": {}, "class_name": "Zeros"}, "trainable": true, "name": "conv4_11_1x1_reduce_bn", "moving_variance_initializer": {"config": {}, "class_name": "Ones"}, "gamma_initializer": {"config": {}, "class_name": "Ones"}, "axis": -1, "gamma_constraint": null, "moving_mean_initializer": {"config": {}, "class_name": "Zeros"}, "gamma_regularizer": null, "momentum": 0.95, "beta_constraint": null, "center": true}, "name": "conv4_11_1x1_reduce_bn", "class_name": "BatchNormalization"}, {"inbound_nodes": [[["conv4_11_1x1_reduce_bn", 0, 0, {}]]], "config": {"activation": "relu", "name": "activation_56", "trainable": true}, "name": "activation_56", "class_name": "Activation"}, {"inbound_nodes": [[["activation_56", 0, 0, {}]]], "config": {"trainable": true, "padding": [[2, 2], [2, 2]], "name": "zero_padding2d_18", "data_format": "channels_last"}, "name": "zero_padding2d_18", "class_name": "ZeroPadding2D"}, {"inbound_nodes": [[["zero_padding2d_18", 0, 0, {}]]], "config": {"activation": "linear", "use_bias": false, "dilation_rate": [2, 2], "bias_constraint": null, "kernel_initializer": {"config": {"mode": "fan_avg", "distribution": "uniform", "scale": 1.0, "seed": null}, "class_name": "VarianceScaling"}, "trainable": true, "data_format": "channels_last", "kernel_size": [3, 3], "kernel_constraint": null, "strides": [1, 1], "padding": "valid", "filters": 256, "bias_regularizer": null, "activity_regularizer": null, "bias_initializer": {"config": {}, "class_name": "Zeros"}, "name": "conv4_11_3x3", "kernel_regularizer": null}, "name": "conv4_11_3x3", "class_name": "Conv2D"}, {"inbound_nodes": [[["conv4_11_3x3", 0, 0, {}]]], "config": {"scale": true, "beta_regularizer": null, "epsilon": 1e-05, "beta_initializer": {"config": {}, "class_name": "Zeros"}, "trainable": true, "name": "conv4_11_3x3_bn", "moving_variance_initializer": {"config": {}, "class_name": "Ones"}, "gamma_initializer": {"config": {}, "class_name": "Ones"}, "axis": -1, "gamma_constraint": null, "moving_mean_initializer": {"config": {}, "class_name": "Zeros"}, "gamma_regularizer": null, "momentum": 0.95, "beta_constraint": null, "center": true}, "name": "conv4_11_3x3_bn", "class_name": "BatchNormalization"}, {"inbound_nodes": [[["conv4_11_3x3_bn", 0, 0, {}]]], "config": {"activation": "relu", "name": "activation_57", "trainable": true}, "name": "activation_57", "class_name": "Activation"}, {"inbound_nodes": [[["activation_57", 0, 0, {}]]], "config": {"activation": "linear", "use_bias": false, "dilation_rate": [1, 1], "bias_constraint": null, "kernel_initializer": {"config": {"mode": "fan_avg", "distribution": "uniform", "scale": 1.0, "seed": null}, "class_name": "VarianceScaling"}, "trainable": true, "data_format": "channels_last", "kernel_size": [1, 1], "kernel_constraint": null, "strides": [1, 1], "padding": "valid", "filters": 1024, "bias_regularizer": null, "activity_regularizer": null, "bias_initializer": {"config": {}, "class_name": "Zeros"}, "name": "conv4_11_1x1_increase", "kernel_regularizer": null}, "name": "conv4_11_1x1_increase", "class_name": "Conv2D"}, {"inbound_nodes": [[["conv4_11_1x1_increase", 0, 0, {}]]], "config": {"scale": true, "beta_regularizer": null, "epsilon": 1e-05, "beta_initializer": {"config": {}, "class_name": "Zeros"}, "trainable": true, "name": "conv4_11_1x1_increase_bn", "moving_variance_initializer": {"config": {}, "class_name": "Ones"}, "gamma_initializer": {"config": {}, "class_name": "Ones"}, "axis": -1, "gamma_constraint": null, "moving_mean_initializer": {"config": {}, "class_name": "Zeros"}, "gamma_regularizer": null, "momentum": 0.95, "beta_constraint": null, "center": true}, "name": "conv4_11_1x1_increase_bn", "class_name": "BatchNormalization"}, {"inbound_nodes": [[["conv4_11_1x1_increase_bn", 0, 0, {}], ["activation_55", 0, 0, {}]]], "config": {"name": "add_18", "trainable": true}, "name": "add_18", "class_name": "Add"}, {"inbound_nodes": [[["add_18", 0, 0, {}]]], "config": {"activation": "relu", "name": "activation_58", "trainable": true}, "name": "activation_58", "class_name": "Activation"}, {"inbound_nodes": [[["activation_58", 0, 0, {}]]], "config": {"activation": "linear", "use_bias": false, "dilation_rate": [1, 1], "bias_constraint": null, "kernel_initializer": {"config": {"mode": "fan_avg", "distribution": "uniform", "scale": 1.0, "seed": null}, "class_name": "VarianceScaling"}, "trainable": true, "data_format": "channels_last", "kernel_size": [1, 1], "kernel_constraint": null, "strides": [1, 1], "padding": "valid", "filters": 256, "bias_regularizer": null, "activity_regularizer": null, "bias_initializer": {"config": {}, "class_name": "Zeros"}, "name": "conv4_12_1x1_reduce", "kernel_regularizer": null}, "name": "conv4_12_1x1_reduce", "class_name": "Conv2D"}, {"inbound_nodes": [[["conv4_12_1x1_reduce", 0, 0, {}]]], "config": {"scale": true, "beta_regularizer": null, "epsilon": 1e-05, "beta_initializer": {"config": {}, "class_name": "Zeros"}, "trainable": true, "name": "conv4_12_1x1_reduce_bn", "moving_variance_initializer": {"config": {}, "class_name": "Ones"}, "gamma_initializer": {"config": {}, "class_name": "Ones"}, "axis": -1, "gamma_constraint": null, "moving_mean_initializer": {"config": {}, "class_name": "Zeros"}, "gamma_regularizer": null, "momentum": 0.95, "beta_constraint": null, "center": true}, "name": "conv4_12_1x1_reduce_bn", "class_name": "BatchNormalization"}, {"inbound_nodes": [[["conv4_12_1x1_reduce_bn", 0, 0, {}]]], "config": {"activation": "relu", "name": "activation_59", "trainable": true}, "name": "activation_59", "class_name": "Activation"}, {"inbound_nodes": [[["activation_59", 0, 0, {}]]], "config": {"trainable": true, "padding": [[2, 2], [2, 2]], "name": "zero_padding2d_19", "data_format": "channels_last"}, "name": "zero_padding2d_19", "class_name": "ZeroPadding2D"}, {"inbound_nodes": [[["zero_padding2d_19", 0, 0, {}]]], "config": {"activation": "linear", "use_bias": false, "dilation_rate": [2, 2], "bias_constraint": null, "kernel_initializer": {"config": {"mode": "fan_avg", "distribution": "uniform", "scale": 1.0, "seed": null}, "class_name": "VarianceScaling"}, "trainable": true, "data_format": "channels_last", "kernel_size": [3, 3], "kernel_constraint": null, "strides": [1, 1], "padding": "valid", "filters": 256, "bias_regularizer": null, "activity_regularizer": null, "bias_initializer": {"config": {}, "class_name": "Zeros"}, "name": "conv4_12_3x3", "kernel_regularizer": null}, "name": "conv4_12_3x3", "class_name": "Conv2D"}, {"inbound_nodes": [[["conv4_12_3x3", 0, 0, {}]]], "config": {"scale": true, "beta_regularizer": null, "epsilon": 1e-05, "beta_initializer": {"config": {}, "class_name": "Zeros"}, "trainable": true, "name": "conv4_12_3x3_bn", "moving_variance_initializer": {"config": {}, "class_name": "Ones"}, "gamma_initializer": {"config": {}, "class_name": "Ones"}, "axis": -1, "gamma_constraint": null, "moving_mean_initializer": {"config": {}, "class_name": "Zeros"}, "gamma_regularizer": null, "momentum": 0.95, "beta_constraint": null, "center": true}, "name": "conv4_12_3x3_bn", "class_name": "BatchNormalization"}, {"inbound_nodes": [[["conv4_12_3x3_bn", 0, 0, {}]]], "config": {"activation": "relu", "name": "activation_60", "trainable": true}, "name": "activation_60", "class_name": "Activation"}, {"inbound_nodes": [[["activation_60", 0, 0, {}]]], "config": {"activation": "linear", "use_bias": false, "dilation_rate": [1, 1], "bias_constraint": null, "kernel_initializer": {"config": {"mode": "fan_avg", "distribution": "uniform", "scale": 1.0, "seed": null}, "class_name": "VarianceScaling"}, "trainable": true, "data_format": "channels_last", "kernel_size": [1, 1], "kernel_constraint": null, "strides": [1, 1], "padding": "valid", "filters": 1024, "bias_regularizer": null, "activity_regularizer": null, "bias_initializer": {"config": {}, "class_name": "Zeros"}, "name": "conv4_12_1x1_increase", "kernel_regularizer": null}, "name": "conv4_12_1x1_increase", "class_name": "Conv2D"}, {"inbound_nodes": [[["conv4_12_1x1_increase", 0, 0, {}]]], "config": {"scale": true, "beta_regularizer": null, "epsilon": 1e-05, "beta_initializer": {"config": {}, "class_name": "Zeros"}, "trainable": true, "name": "conv4_12_1x1_increase_bn", "moving_variance_initializer": {"config": {}, "class_name": "Ones"}, "gamma_initializer": {"config": {}, "class_name": "Ones"}, "axis": -1, "gamma_constraint": null, "moving_mean_initializer": {"config": {}, "class_name": "Zeros"}, "gamma_regularizer": null, "momentum": 0.95, "beta_constraint": null, "center": true}, "name": "conv4_12_1x1_increase_bn", "class_name": "BatchNormalization"}, {"inbound_nodes": [[["conv4_12_1x1_increase_bn", 0, 0, {}], ["activation_58", 0, 0, {}]]], "config": {"name": "add_19", "trainable": true}, "name": "add_19", "class_name": "Add"}, {"inbound_nodes": [[["add_19", 0, 0, {}]]], "config": {"activation": "relu", "name": "activation_61", "trainable": true}, "name": "activation_61", "class_name": "Activation"}, {"inbound_nodes": [[["activation_61", 0, 0, {}]]], "config": {"activation": "linear", "use_bias": false, "dilation_rate": [1, 1], "bias_constraint": null, "kernel_initializer": {"config": {"mode": "fan_avg", "distribution": "uniform", "scale": 1.0, "seed": null}, "class_name": "VarianceScaling"}, "trainable": true, "data_format": "channels_last", "kernel_size": [1, 1], "kernel_constraint": null, "strides": [1, 1], "padding": "valid", "filters": 256, "bias_regularizer": null, "activity_regularizer": null, "bias_initializer": {"config": {}, "class_name": "Zeros"}, "name": "conv4_13_1x1_reduce", "kernel_regularizer": null}, "name": "conv4_13_1x1_reduce", "class_name": "Conv2D"}, {"inbound_nodes": [[["conv4_13_1x1_reduce", 0, 0, {}]]], "config": {"scale": true, "beta_regularizer": null, "epsilon": 1e-05, "beta_initializer": {"config": {}, "class_name": "Zeros"}, "trainable": true, "name": "conv4_13_1x1_reduce_bn", "moving_variance_initializer": {"config": {}, "class_name": "Ones"}, "gamma_initializer": {"config": {}, "class_name": "Ones"}, "axis": -1, "gamma_constraint": null, "moving_mean_initializer": {"config": {}, "class_name": "Zeros"}, "gamma_regularizer": null, "momentum": 0.95, "beta_constraint": null, "center": true}, "name": "conv4_13_1x1_reduce_bn", "class_name": "BatchNormalization"}, {"inbound_nodes": [[["conv4_13_1x1_reduce_bn", 0, 0, {}]]], "config": {"activation": "relu", "name": "activation_62", "trainable": true}, "name": "activation_62", "class_name": "Activation"}, {"inbound_nodes": [[["activation_62", 0, 0, {}]]], "config": {"trainable": true, "padding": [[2, 2], [2, 2]], "name": "zero_padding2d_20", "data_format": "channels_last"}, "name": "zero_padding2d_20", "class_name": "ZeroPadding2D"}, {"inbound_nodes": [[["zero_padding2d_20", 0, 0, {}]]], "config": {"activation": "linear", "use_bias": false, "dilation_rate": [2, 2], "bias_constraint": null, "kernel_initializer": {"config": {"mode": "fan_avg", "distribution": "uniform", "scale": 1.0, "seed": null}, "class_name": "VarianceScaling"}, "trainable": true, "data_format": "channels_last", "kernel_size": [3, 3], "kernel_constraint": null, "strides": [1, 1], "padding": "valid", "filters": 256, "bias_regularizer": null, "activity_regularizer": null, "bias_initializer": {"config": {}, "class_name": "Zeros"}, "name": "conv4_13_3x3", "kernel_regularizer": null}, "name": "conv4_13_3x3", "class_name": "Conv2D"}, {"inbound_nodes": [[["conv4_13_3x3", 0, 0, {}]]], "config": {"scale": true, "beta_regularizer": null, "epsilon": 1e-05, "beta_initializer": {"config": {}, "class_name": "Zeros"}, "trainable": true, "name": "conv4_13_3x3_bn", "moving_variance_initializer": {"config": {}, "class_name": "Ones"}, "gamma_initializer": {"config": {}, "class_name": "Ones"}, "axis": -1, "gamma_constraint": null, "moving_mean_initializer": {"config": {}, "class_name": "Zeros"}, "gamma_regularizer": null, "momentum": 0.95, "beta_constraint": null, "center": true}, "name": "conv4_13_3x3_bn", "class_name": "BatchNormalization"}, {"inbound_nodes": [[["conv4_13_3x3_bn", 0, 0, {}]]], "config": {"activation": "relu", "name": "activation_63", "trainable": true}, "name": "activation_63", "class_name": "Activation"}, {"inbound_nodes": [[["activation_63", 0, 0, {}]]], "config": {"activation": "linear", "use_bias": false, "dilation_rate": [1, 1], "bias_constraint": null, "kernel_initializer": {"config": {"mode": "fan_avg", "distribution": "uniform", "scale": 1.0, "seed": null}, "class_name": "VarianceScaling"}, "trainable": true, "data_format": "channels_last", "kernel_size": [1, 1], "kernel_constraint": null, "strides": [1, 1], "padding": "valid", "filters": 1024, "bias_regularizer": null, "activity_regularizer": null, "bias_initializer": {"config": {}, "class_name": "Zeros"}, "name": "conv4_13_1x1_increase", "kernel_regularizer": null}, "name": "conv4_13_1x1_increase", "class_name": "Conv2D"}, {"inbound_nodes": [[["conv4_13_1x1_increase", 0, 0, {}]]], "config": {"scale": true, "beta_regularizer": null, "epsilon": 1e-05, "beta_initializer": {"config": {}, "class_name": "Zeros"}, "trainable": true, "name": "conv4_13_1x1_increase_bn", "moving_variance_initializer": {"config": {}, "class_name": "Ones"}, "gamma_initializer": {"config": {}, "class_name": "Ones"}, "axis": -1, "gamma_constraint": null, "moving_mean_initializer": {"config": {}, "class_name": "Zeros"}, "gamma_regularizer": null, "momentum": 0.95, "beta_constraint": null, "center": true}, "name": "conv4_13_1x1_increase_bn", "class_name": "BatchNormalization"}, {"inbound_nodes": [[["conv4_13_1x1_increase_bn", 0, 0, {}], ["activation_61", 0, 0, {}]]], "config": {"name": "add_20", "trainable": true}, "name": "add_20", "class_name": "Add"}, {"inbound_nodes": [[["add_20", 0, 0, {}]]], "config": {"activation": "relu", "name": "activation_64", "trainable": true}, "name": "activation_64", "class_name": "Activation"}, {"inbound_nodes": [[["activation_64", 0, 0, {}]]], "config": {"activation": "linear", "use_bias": false, "dilation_rate": [1, 1], "bias_constraint": null, "kernel_initializer": {"config": {"mode": "fan_avg", "distribution": "uniform", "scale": 1.0, "seed": null}, "class_name": "VarianceScaling"}, "trainable": true, "data_format": "channels_last", "kernel_size": [1, 1], "kernel_constraint": null, "strides": [1, 1], "padding": "valid", "filters": 256, "bias_regularizer": null, "activity_regularizer": null, "bias_initializer": {"config": {}, "class_name": "Zeros"}, "name": "conv4_14_1x1_reduce", "kernel_regularizer": null}, "name": "conv4_14_1x1_reduce", "class_name": "Conv2D"}, {"inbound_nodes": [[["conv4_14_1x1_reduce", 0, 0, {}]]], "config": {"scale": true, "beta_regularizer": null, "epsilon": 1e-05, "beta_initializer": {"config": {}, "class_name": "Zeros"}, "trainable": true, "name": "conv4_14_1x1_reduce_bn", "moving_variance_initializer": {"config": {}, "class_name": "Ones"}, "gamma_initializer": {"config": {}, "class_name": "Ones"}, "axis": -1, "gamma_constraint": null, "moving_mean_initializer": {"config": {}, "class_name": "Zeros"}, "gamma_regularizer": null, "momentum": 0.95, "beta_constraint": null, "center": true}, "name": "conv4_14_1x1_reduce_bn", "class_name": "BatchNormalization"}, {"inbound_nodes": [[["conv4_14_1x1_reduce_bn", 0, 0, {}]]], "config": {"activation": "relu", "name": "activation_65", "trainable": true}, "name": "activation_65", "class_name": "Activation"}, {"inbound_nodes": [[["activation_65", 0, 0, {}]]], "config": {"trainable": true, "padding": [[2, 2], [2, 2]], "name": "zero_padding2d_21", "data_format": "channels_last"}, "name": "zero_padding2d_21", "class_name": "ZeroPadding2D"}, {"inbound_nodes": [[["zero_padding2d_21", 0, 0, {}]]], "config": {"activation": "linear", "use_bias": false, "dilation_rate": [2, 2], "bias_constraint": null, "kernel_initializer": {"config": {"mode": "fan_avg", "distribution": "uniform", "scale": 1.0, "seed": null}, "class_name": "VarianceScaling"}, "trainable": true, "data_format": "channels_last", "kernel_size": [3, 3], "kernel_constraint": null, "strides": [1, 1], "padding": "valid", "filters": 256, "bias_regularizer": null, "activity_regularizer": null, "bias_initializer": {"config": {}, "class_name": "Zeros"}, "name": "conv4_14_3x3", "kernel_regularizer": null}, "name": "conv4_14_3x3", "class_name": "Conv2D"}, {"inbound_nodes": [[["conv4_14_3x3", 0, 0, {}]]], "config": {"scale": true, "beta_regularizer": null, "epsilon": 1e-05, "beta_initializer": {"config": {}, "class_name": "Zeros"}, "trainable": true, "name": "conv4_14_3x3_bn", "moving_variance_initializer": {"config": {}, "class_name": "Ones"}, "gamma_initializer": {"config": {}, "class_name": "Ones"}, "axis": -1, "gamma_constraint": null, "moving_mean_initializer": {"config": {}, "class_name": "Zeros"}, "gamma_regularizer": null, "momentum": 0.95, "beta_constraint": null, "center": true}, "name": "conv4_14_3x3_bn", "class_name": "BatchNormalization"}, {"inbound_nodes": [[["conv4_14_3x3_bn", 0, 0, {}]]], "config": {"activation": "relu", "name": "activation_66", "trainable": true}, "name": "activation_66", "class_name": "Activation"}, {"inbound_nodes": [[["activation_66", 0, 0, {}]]], "config": {"activation": "linear", "use_bias": false, "dilation_rate": [1, 1], "bias_constraint": null, "kernel_initializer": {"config": {"mode": "fan_avg", "distribution": "uniform", "scale": 1.0, "seed": null}, "class_name": "VarianceScaling"}, "trainable": true, "data_format": "channels_last", "kernel_size": [1, 1], "kernel_constraint": null, "strides": [1, 1], "padding": "valid", "filters": 1024, "bias_regularizer": null, "activity_regularizer": null, "bias_initializer": {"config": {}, "class_name": "Zeros"}, "name": "conv4_14_1x1_increase", "kernel_regularizer": null}, "name": "conv4_14_1x1_increase", "class_name": "Conv2D"}, {"inbound_nodes": [[["conv4_14_1x1_increase", 0, 0, {}]]], "config": {"scale": true, "beta_regularizer": null, "epsilon": 1e-05, "beta_initializer": {"config": {}, "class_name": "Zeros"}, "trainable": true, "name": "conv4_14_1x1_increase_bn", "moving_variance_initializer": {"config": {}, "class_name": "Ones"}, "gamma_initializer": {"config": {}, "class_name": "Ones"}, "axis": -1, "gamma_constraint": null, "moving_mean_initializer": {"config": {}, "class_name": "Zeros"}, "gamma_regularizer": null, "momentum": 0.95, "beta_constraint": null, "center": true}, "name": "conv4_14_1x1_increase_bn", "class_name": "BatchNormalization"}, {"inbound_nodes": [[["conv4_14_1x1_increase_bn", 0, 0, {}], ["activation_64", 0, 0, {}]]], "config": {"name": "add_21", "trainable": true}, "name": "add_21", "class_name": "Add"}, {"inbound_nodes": [[["add_21", 0, 0, {}]]], "config": {"activation": "relu", "name": "activation_67", "trainable": true}, "name": "activation_67", "class_name": "Activation"}, {"inbound_nodes": [[["activation_67", 0, 0, {}]]], "config": {"activation": "linear", "use_bias": false, "dilation_rate": [1, 1], "bias_constraint": null, "kernel_initializer": {"config": {"mode": "fan_avg", "distribution": "uniform", "scale": 1.0, "seed": null}, "class_name": "VarianceScaling"}, "trainable": true, "data_format": "channels_last", "kernel_size": [1, 1], "kernel_constraint": null, "strides": [1, 1], "padding": "valid", "filters": 256, "bias_regularizer": null, "activity_regularizer": null, "bias_initializer": {"config": {}, "class_name": "Zeros"}, "name": "conv4_15_1x1_reduce", "kernel_regularizer": null}, "name": "conv4_15_1x1_reduce", "class_name": "Conv2D"}, {"inbound_nodes": [[["conv4_15_1x1_reduce", 0, 0, {}]]], "config": {"scale": true, "beta_regularizer": null, "epsilon": 1e-05, "beta_initializer": {"config": {}, "class_name": "Zeros"}, "trainable": true, "name": "conv4_15_1x1_reduce_bn", "moving_variance_initializer": {"config": {}, "class_name": "Ones"}, "gamma_initializer": {"config": {}, "class_name": "Ones"}, "axis": -1, "gamma_constraint": null, "moving_mean_initializer": {"config": {}, "class_name": "Zeros"}, "gamma_regularizer": null, "momentum": 0.95, "beta_constraint": null, "center": true}, "name": "conv4_15_1x1_reduce_bn", "class_name": "BatchNormalization"}, {"inbound_nodes": [[["conv4_15_1x1_reduce_bn", 0, 0, {}]]], "config": {"activation": "relu", "name": "activation_68", "trainable": true}, "name": "activation_68", "class_name": "Activation"}, {"inbound_nodes": [[["activation_68", 0, 0, {}]]], "config": {"trainable": true, "padding": [[2, 2], [2, 2]], "name": "zero_padding2d_22", "data_format": "channels_last"}, "name": "zero_padding2d_22", "class_name": "ZeroPadding2D"}, {"inbound_nodes": [[["zero_padding2d_22", 0, 0, {}]]], "config": {"activation": "linear", "use_bias": false, "dilation_rate": [2, 2], "bias_constraint": null, "kernel_initializer": {"config": {"mode": "fan_avg", "distribution": "uniform", "scale": 1.0, "seed": null}, "class_name": "VarianceScaling"}, "trainable": true, "data_format": "channels_last", "kernel_size": [3, 3], "kernel_constraint": null, "strides": [1, 1], "padding": "valid", "filters": 256, "bias_regularizer": null, "activity_regularizer": null, "bias_initializer": {"config": {}, "class_name": "Zeros"}, "name": "conv4_15_3x3", "kernel_regularizer": null}, "name": "conv4_15_3x3", "class_name": "Conv2D"}, {"inbound_nodes": [[["conv4_15_3x3", 0, 0, {}]]], "config": {"scale": true, "beta_regularizer": null, "epsilon": 1e-05, "beta_initializer": {"config": {}, "class_name": "Zeros"}, "trainable": true, "name": "conv4_15_3x3_bn", "moving_variance_initializer": {"config": {}, "class_name": "Ones"}, "gamma_initializer": {"config": {}, "class_name": "Ones"}, "axis": -1, "gamma_constraint": null, "moving_mean_initializer": {"config": {}, "class_name": "Zeros"}, "gamma_regularizer": null, "momentum": 0.95, "beta_constraint": null, "center": true}, "name": "conv4_15_3x3_bn", "class_name": "BatchNormalization"}, {"inbound_nodes": [[["conv4_15_3x3_bn", 0, 0, {}]]], "config": {"activation": "relu", "name": "activation_69", "trainable": true}, "name": "activation_69", "class_name": "Activation"}, {"inbound_nodes": [[["activation_69", 0, 0, {}]]], "config": {"activation": "linear", "use_bias": false, "dilation_rate": [1, 1], "bias_constraint": null, "kernel_initializer": {"config": {"mode": "fan_avg", "distribution": "uniform", "scale": 1.0, "seed": null}, "class_name": "VarianceScaling"}, "trainable": true, "data_format": "channels_last", "kernel_size": [1, 1], "kernel_constraint": null, "strides": [1, 1], "padding": "valid", "filters": 1024, "bias_regularizer": null, "activity_regularizer": null, "bias_initializer": {"config": {}, "class_name": "Zeros"}, "name": "conv4_15_1x1_increase", "kernel_regularizer": null}, "name": "conv4_15_1x1_increase", "class_name": "Conv2D"}, {"inbound_nodes": [[["conv4_15_1x1_increase", 0, 0, {}]]], "config": {"scale": true, "beta_regularizer": null, "epsilon": 1e-05, "beta_initializer": {"config": {}, "class_name": "Zeros"}, "trainable": true, "name": "conv4_15_1x1_increase_bn", "moving_variance_initializer": {"config": {}, "class_name": "Ones"}, "gamma_initializer": {"config": {}, "class_name": "Ones"}, "axis": -1, "gamma_constraint": null, "moving_mean_initializer": {"config": {}, "class_name": "Zeros"}, "gamma_regularizer": null, "momentum": 0.95, "beta_constraint": null, "center": true}, "name": "conv4_15_1x1_increase_bn", "class_name": "BatchNormalization"}, {"inbound_nodes": [[["conv4_15_1x1_increase_bn", 0, 0, {}], ["activation_67", 0, 0, {}]]], "config": {"name": "add_22", "trainable": true}, "name": "add_22", "class_name": "Add"}, {"inbound_nodes": [[["add_22", 0, 0, {}]]], "config": {"activation": "relu", "name": "activation_70", "trainable": true}, "name": "activation_70", "class_name": "Activation"}, {"inbound_nodes": [[["activation_70", 0, 0, {}]]], "config": {"activation": "linear", "use_bias": false, "dilation_rate": [1, 1], "bias_constraint": null, "kernel_initializer": {"config": {"mode": "fan_avg", "distribution": "uniform", "scale": 1.0, "seed": null}, "class_name": "VarianceScaling"}, "trainable": true, "data_format": "channels_last", "kernel_size": [1, 1], "kernel_constraint": null, "strides": [1, 1], "padding": "valid", "filters": 256, "bias_regularizer": null, "activity_regularizer": null, "bias_initializer": {"config": {}, "class_name": "Zeros"}, "name": "conv4_16_1x1_reduce", "kernel_regularizer": null}, "name": "conv4_16_1x1_reduce", "class_name": "Conv2D"}, {"inbound_nodes": [[["conv4_16_1x1_reduce", 0, 0, {}]]], "config": {"scale": true, "beta_regularizer": null, "epsilon": 1e-05, "beta_initializer": {"config": {}, "class_name": "Zeros"}, "trainable": true, "name": "conv4_16_1x1_reduce_bn", "moving_variance_initializer": {"config": {}, "class_name": "Ones"}, "gamma_initializer": {"config": {}, "class_name": "Ones"}, "axis": -1, "gamma_constraint": null, "moving_mean_initializer": {"config": {}, "class_name": "Zeros"}, "gamma_regularizer": null, "momentum": 0.95, "beta_constraint": null, "center": true}, "name": "conv4_16_1x1_reduce_bn", "class_name": "BatchNormalization"}, {"inbound_nodes": [[["conv4_16_1x1_reduce_bn", 0, 0, {}]]], "config": {"activation": "relu", "name": "activation_71", "trainable": true}, "name": "activation_71", "class_name": "Activation"}, {"inbound_nodes": [[["activation_71", 0, 0, {}]]], "config": {"trainable": true, "padding": [[2, 2], [2, 2]], "name": "zero_padding2d_23", "data_format": "channels_last"}, "name": "zero_padding2d_23", "class_name": "ZeroPadding2D"}, {"inbound_nodes": [[["zero_padding2d_23", 0, 0, {}]]], "config": {"activation": "linear", "use_bias": false, "dilation_rate": [2, 2], "bias_constraint": null, "kernel_initializer": {"config": {"mode": "fan_avg", "distribution": "uniform", "scale": 1.0, "seed": null}, "class_name": "VarianceScaling"}, "trainable": true, "data_format": "channels_last", "kernel_size": [3, 3], "kernel_constraint": null, "strides": [1, 1], "padding": "valid", "filters": 256, "bias_regularizer": null, "activity_regularizer": null, "bias_initializer": {"config": {}, "class_name": "Zeros"}, "name": "conv4_16_3x3", "kernel_regularizer": null}, "name": "conv4_16_3x3", "class_name": "Conv2D"}, {"inbound_nodes": [[["conv4_16_3x3", 0, 0, {}]]], "config": {"scale": true, "beta_regularizer": null, "epsilon": 1e-05, "beta_initializer": {"config": {}, "class_name": "Zeros"}, "trainable": true, "name": "conv4_16_3x3_bn", "moving_variance_initializer": {"config": {}, "class_name": "Ones"}, "gamma_initializer": {"config": {}, "class_name": "Ones"}, "axis": -1, "gamma_constraint": null, "moving_mean_initializer": {"config": {}, "class_name": "Zeros"}, "gamma_regularizer": null, "momentum": 0.95, "beta_constraint": null, "center": true}, "name": "conv4_16_3x3_bn", "class_name": "BatchNormalization"}, {"inbound_nodes": [[["conv4_16_3x3_bn", 0, 0, {}]]], "config": {"activation": "relu", "name": "activation_72", "trainable": true}, "name": "activation_72", "class_name": "Activation"}, {"inbound_nodes": [[["activation_72", 0, 0, {}]]], "config": {"activation": "linear", "use_bias": false, "dilation_rate": [1, 1], "bias_constraint": null, "kernel_initializer": {"config": {"mode": "fan_avg", "distribution": "uniform", "scale": 1.0, "seed": null}, "class_name": "VarianceScaling"}, "trainable": true, "data_format": "channels_last", "kernel_size": [1, 1], "kernel_constraint": null, "strides": [1, 1], "padding": "valid", "filters": 1024, "bias_regularizer": null, "activity_regularizer": null, "bias_initializer": {"config": {}, "class_name": "Zeros"}, "name": "conv4_16_1x1_increase", "kernel_regularizer": null}, "name": "conv4_16_1x1_increase", "class_name": "Conv2D"}, {"inbound_nodes": [[["conv4_16_1x1_increase", 0, 0, {}]]], "config": {"scale": true, "beta_regularizer": null, "epsilon": 1e-05, "beta_initializer": {"config": {}, "class_name": "Zeros"}, "trainable": true, "name": "conv4_16_1x1_increase_bn", "moving_variance_initializer": {"config": {}, "class_name": "Ones"}, "gamma_initializer": {"config": {}, "class_name": "Ones"}, "axis": -1, "gamma_constraint": null, "moving_mean_initializer": {"config": {}, "class_name": "Zeros"}, "gamma_regularizer": null, "momentum": 0.95, "beta_constraint": null, "center": true}, "name": "conv4_16_1x1_increase_bn", "class_name": "BatchNormalization"}, {"inbound_nodes": [[["conv4_16_1x1_increase_bn", 0, 0, {}], ["activation_70", 0, 0, {}]]], "config": {"name": "add_23", "trainable": true}, "name": "add_23", "class_name": "Add"}, {"inbound_nodes": [[["add_23", 0, 0, {}]]], "config": {"activation": "relu", "name": "activation_73", "trainable": true}, "name": "activation_73", "class_name": "Activation"}, {"inbound_nodes": [[["activation_73", 0, 0, {}]]], "config": {"activation": "linear", "use_bias": false, "dilation_rate": [1, 1], "bias_constraint": null, "kernel_initializer": {"config": {"mode": "fan_avg", "distribution": "uniform", "scale": 1.0, "seed": null}, "class_name": "VarianceScaling"}, "trainable": true, "data_format": "channels_last", "kernel_size": [1, 1], "kernel_constraint": null, "strides": [1, 1], "padding": "valid", "filters": 256, "bias_regularizer": null, "activity_regularizer": null, "bias_initializer": {"config": {}, "class_name": "Zeros"}, "name": "conv4_17_1x1_reduce", "kernel_regularizer": null}, "name": "conv4_17_1x1_reduce", "class_name": "Conv2D"}, {"inbound_nodes": [[["conv4_17_1x1_reduce", 0, 0, {}]]], "config": {"scale": true, "beta_regularizer": null, "epsilon": 1e-05, "beta_initializer": {"config": {}, "class_name": "Zeros"}, "trainable": true, "name": "conv4_17_1x1_reduce_bn", "moving_variance_initializer": {"config": {}, "class_name": "Ones"}, "gamma_initializer": {"config": {}, "class_name": "Ones"}, "axis": -1, "gamma_constraint": null, "moving_mean_initializer": {"config": {}, "class_name": "Zeros"}, "gamma_regularizer": null, "momentum": 0.95, "beta_constraint": null, "center": true}, "name": "conv4_17_1x1_reduce_bn", "class_name": "BatchNormalization"}, {"inbound_nodes": [[["conv4_17_1x1_reduce_bn", 0, 0, {}]]], "config": {"activation": "relu", "name": "activation_74", "trainable": true}, "name": "activation_74", "class_name": "Activation"}, {"inbound_nodes": [[["activation_74", 0, 0, {}]]], "config": {"trainable": true, "padding": [[2, 2], [2, 2]], "name": "zero_padding2d_24", "data_format": "channels_last"}, "name": "zero_padding2d_24", "class_name": "ZeroPadding2D"}, {"inbound_nodes": [[["zero_padding2d_24", 0, 0, {}]]], "config": {"activation": "linear", "use_bias": false, "dilation_rate": [2, 2], "bias_constraint": null, "kernel_initializer": {"config": {"mode": "fan_avg", "distribution": "uniform", "scale": 1.0, "seed": null}, "class_name": "VarianceScaling"}, "trainable": true, "data_format": "channels_last", "kernel_size": [3, 3], "kernel_constraint": null, "strides": [1, 1], "padding": "valid", "filters": 256, "bias_regularizer": null, "activity_regularizer": null, "bias_initializer": {"config": {}, "class_name": "Zeros"}, "name": "conv4_17_3x3", "kernel_regularizer": null}, "name": "conv4_17_3x3", "class_name": "Conv2D"}, {"inbound_nodes": [[["conv4_17_3x3", 0, 0, {}]]], "config": {"scale": true, "beta_regularizer": null, "epsilon": 1e-05, "beta_initializer": {"config": {}, "class_name": "Zeros"}, "trainable": true, "name": "conv4_17_3x3_bn", "moving_variance_initializer": {"config": {}, "class_name": "Ones"}, "gamma_initializer": {"config": {}, "class_name": "Ones"}, "axis": -1, "gamma_constraint": null, "moving_mean_initializer": {"config": {}, "class_name": "Zeros"}, "gamma_regularizer": null, "momentum": 0.95, "beta_constraint": null, "center": true}, "name": "conv4_17_3x3_bn", "class_name": "BatchNormalization"}, {"inbound_nodes": [[["conv4_17_3x3_bn", 0, 0, {}]]], "config": {"activation": "relu", "name": "activation_75", "trainable": true}, "name": "activation_75", "class_name": "Activation"}, {"inbound_nodes": [[["activation_75", 0, 0, {}]]], "config": {"activation": "linear", "use_bias": false, "dilation_rate": [1, 1], "bias_constraint": null, "kernel_initializer": {"config": {"mode": "fan_avg", "distribution": "uniform", "scale": 1.0, "seed": null}, "class_name": "VarianceScaling"}, "trainable": true, "data_format": "channels_last", "kernel_size": [1, 1], "kernel_constraint": null, "strides": [1, 1], "padding": "valid", "filters": 1024, "bias_regularizer": null, "activity_regularizer": null, "bias_initializer": {"config": {}, "class_name": "Zeros"}, "name": "conv4_17_1x1_increase", "kernel_regularizer": null}, "name": "conv4_17_1x1_increase", "class_name": "Conv2D"}, {"inbound_nodes": [[["conv4_17_1x1_increase", 0, 0, {}]]], "config": {"scale": true, "beta_regularizer": null, "epsilon": 1e-05, "beta_initializer": {"config": {}, "class_name": "Zeros"}, "trainable": true, "name": "conv4_17_1x1_increase_bn", "moving_variance_initializer": {"config": {}, "class_name": "Ones"}, "gamma_initializer": {"config": {}, "class_name": "Ones"}, "axis": -1, "gamma_constraint": null, "moving_mean_initializer": {"config": {}, "class_name": "Zeros"}, "gamma_regularizer": null, "momentum": 0.95, "beta_constraint": null, "center": true}, "name": "conv4_17_1x1_increase_bn", "class_name": "BatchNormalization"}, {"inbound_nodes": [[["conv4_17_1x1_increase_bn", 0, 0, {}], ["activation_73", 0, 0, {}]]], "config": {"name": "add_24", "trainable": true}, "name": "add_24", "class_name": "Add"}, {"inbound_nodes": [[["add_24", 0, 0, {}]]], "config": {"activation": "relu", "name": "activation_76", "trainable": true}, "name": "activation_76", "class_name": "Activation"}, {"inbound_nodes": [[["activation_76", 0, 0, {}]]], "config": {"activation": "linear", "use_bias": false, "dilation_rate": [1, 1], "bias_constraint": null, "kernel_initializer": {"config": {"mode": "fan_avg", "distribution": "uniform", "scale": 1.0, "seed": null}, "class_name": "VarianceScaling"}, "trainable": true, "data_format": "channels_last", "kernel_size": [1, 1], "kernel_constraint": null, "strides": [1, 1], "padding": "valid", "filters": 256, "bias_regularizer": null, "activity_regularizer": null, "bias_initializer": {"config": {}, "class_name": "Zeros"}, "name": "conv4_18_1x1_reduce", "kernel_regularizer": null}, "name": "conv4_18_1x1_reduce", "class_name": "Conv2D"}, {"inbound_nodes": [[["conv4_18_1x1_reduce", 0, 0, {}]]], "config": {"scale": true, "beta_regularizer": null, "epsilon": 1e-05, "beta_initializer": {"config": {}, "class_name": "Zeros"}, "trainable": true, "name": "conv4_18_1x1_reduce_bn", "moving_variance_initializer": {"config": {}, "class_name": "Ones"}, "gamma_initializer": {"config": {}, "class_name": "Ones"}, "axis": -1, "gamma_constraint": null, "moving_mean_initializer": {"config": {}, "class_name": "Zeros"}, "gamma_regularizer": null, "momentum": 0.95, "beta_constraint": null, "center": true}, "name": "conv4_18_1x1_reduce_bn", "class_name": "BatchNormalization"}, {"inbound_nodes": [[["conv4_18_1x1_reduce_bn", 0, 0, {}]]], "config": {"activation": "relu", "name": "activation_77", "trainable": true}, "name": "activation_77", "class_name": "Activation"}, {"inbound_nodes": [[["activation_77", 0, 0, {}]]], "config": {"trainable": true, "padding": [[2, 2], [2, 2]], "name": "zero_padding2d_25", "data_format": "channels_last"}, "name": "zero_padding2d_25", "class_name": "ZeroPadding2D"}, {"inbound_nodes": [[["zero_padding2d_25", 0, 0, {}]]], "config": {"activation": "linear", "use_bias": false, "dilation_rate": [2, 2], "bias_constraint": null, "kernel_initializer": {"config": {"mode": "fan_avg", "distribution": "uniform", "scale": 1.0, "seed": null}, "class_name": "VarianceScaling"}, "trainable": true, "data_format": "channels_last", "kernel_size": [3, 3], "kernel_constraint": null, "strides": [1, 1], "padding": "valid", "filters": 256, "bias_regularizer": null, "activity_regularizer": null, "bias_initializer": {"config": {}, "class_name": "Zeros"}, "name": "conv4_18_3x3", "kernel_regularizer": null}, "name": "conv4_18_3x3", "class_name": "Conv2D"}, {"inbound_nodes": [[["conv4_18_3x3", 0, 0, {}]]], "config": {"scale": true, "beta_regularizer": null, "epsilon": 1e-05, "beta_initializer": {"config": {}, "class_name": "Zeros"}, "trainable": true, "name": "conv4_18_3x3_bn", "moving_variance_initializer": {"config": {}, "class_name": "Ones"}, "gamma_initializer": {"config": {}, "class_name": "Ones"}, "axis": -1, "gamma_constraint": null, "moving_mean_initializer": {"config": {}, "class_name": "Zeros"}, "gamma_regularizer": null, "momentum": 0.95, "beta_constraint": null, "center": true}, "name": "conv4_18_3x3_bn", "class_name": "BatchNormalization"}, {"inbound_nodes": [[["conv4_18_3x3_bn", 0, 0, {}]]], "config": {"activation": "relu", "name": "activation_78", "trainable": true}, "name": "activation_78", "class_name": "Activation"}, {"inbound_nodes": [[["activation_78", 0, 0, {}]]], "config": {"activation": "linear", "use_bias": false, "dilation_rate": [1, 1], "bias_constraint": null, "kernel_initializer": {"config": {"mode": "fan_avg", "distribution": "uniform", "scale": 1.0, "seed": null}, "class_name": "VarianceScaling"}, "trainable": true, "data_format": "channels_last", "kernel_size": [1, 1], "kernel_constraint": null, "strides": [1, 1], "padding": "valid", "filters": 1024, "bias_regularizer": null, "activity_regularizer": null, "bias_initializer": {"config": {}, "class_name": "Zeros"}, "name": "conv4_18_1x1_increase", "kernel_regularizer": null}, "name": "conv4_18_1x1_increase", "class_name": "Conv2D"}, {"inbound_nodes": [[["conv4_18_1x1_increase", 0, 0, {}]]], "config": {"scale": true, "beta_regularizer": null, "epsilon": 1e-05, "beta_initializer": {"config": {}, "class_name": "Zeros"}, "trainable": true, "name": "conv4_18_1x1_increase_bn", "moving_variance_initializer": {"config": {}, "class_name": "Ones"}, "gamma_initializer": {"config": {}, "class_name": "Ones"}, "axis": -1, "gamma_constraint": null, "moving_mean_initializer": {"config": {}, "class_name": "Zeros"}, "gamma_regularizer": null, "momentum": 0.95, "beta_constraint": null, "center": true}, "name": "conv4_18_1x1_increase_bn", "class_name": "BatchNormalization"}, {"inbound_nodes": [[["conv4_18_1x1_increase_bn", 0, 0, {}], ["activation_76", 0, 0, {}]]], "config": {"name": "add_25", "trainable": true}, "name": "add_25", "class_name": "Add"}, {"inbound_nodes": [[["add_25", 0, 0, {}]]], "config": {"activation": "relu", "name": "activation_79", "trainable": true}, "name": "activation_79", "class_name": "Activation"}, {"inbound_nodes": [[["activation_79", 0, 0, {}]]], "config": {"activation": "linear", "use_bias": false, "dilation_rate": [1, 1], "bias_constraint": null, "kernel_initializer": {"config": {"mode": "fan_avg", "distribution": "uniform", "scale": 1.0, "seed": null}, "class_name": "VarianceScaling"}, "trainable": true, "data_format": "channels_last", "kernel_size": [1, 1], "kernel_constraint": null, "strides": [1, 1], "padding": "valid", "filters": 256, "bias_regularizer": null, "activity_regularizer": null, "bias_initializer": {"config": {}, "class_name": "Zeros"}, "name": "conv4_19_1x1_reduce", "kernel_regularizer": null}, "name": "conv4_19_1x1_reduce", "class_name": "Conv2D"}, {"inbound_nodes": [[["conv4_19_1x1_reduce", 0, 0, {}]]], "config": {"scale": true, "beta_regularizer": null, "epsilon": 1e-05, "beta_initializer": {"config": {}, "class_name": "Zeros"}, "trainable": true, "name": "conv4_19_1x1_reduce_bn", "moving_variance_initializer": {"config": {}, "class_name": "Ones"}, "gamma_initializer": {"config": {}, "class_name": "Ones"}, "axis": -1, "gamma_constraint": null, "moving_mean_initializer": {"config": {}, "class_name": "Zeros"}, "gamma_regularizer": null, "momentum": 0.95, "beta_constraint": null, "center": true}, "name": "conv4_19_1x1_reduce_bn", "class_name": "BatchNormalization"}, {"inbound_nodes": [[["conv4_19_1x1_reduce_bn", 0, 0, {}]]], "config": {"activation": "relu", "name": "activation_80", "trainable": true}, "name": "activation_80", "class_name": "Activation"}, {"inbound_nodes": [[["activation_80", 0, 0, {}]]], "config": {"trainable": true, "padding": [[2, 2], [2, 2]], "name": "zero_padding2d_26", "data_format": "channels_last"}, "name": "zero_padding2d_26", "class_name": "ZeroPadding2D"}, {"inbound_nodes": [[["zero_padding2d_26", 0, 0, {}]]], "config": {"activation": "linear", "use_bias": false, "dilation_rate": [2, 2], "bias_constraint": null, "kernel_initializer": {"config": {"mode": "fan_avg", "distribution": "uniform", "scale": 1.0, "seed": null}, "class_name": "VarianceScaling"}, "trainable": true, "data_format": "channels_last", "kernel_size": [3, 3], "kernel_constraint": null, "strides": [1, 1], "padding": "valid", "filters": 256, "bias_regularizer": null, "activity_regularizer": null, "bias_initializer": {"config": {}, "class_name": "Zeros"}, "name": "conv4_19_3x3", "kernel_regularizer": null}, "name": "conv4_19_3x3", "class_name": "Conv2D"}, {"inbound_nodes": [[["conv4_19_3x3", 0, 0, {}]]], "config": {"scale": true, "beta_regularizer": null, "epsilon": 1e-05, "beta_initializer": {"config": {}, "class_name": "Zeros"}, "trainable": true, "name": "conv4_19_3x3_bn", "moving_variance_initializer": {"config": {}, "class_name": "Ones"}, "gamma_initializer": {"config": {}, "class_name": "Ones"}, "axis": -1, "gamma_constraint": null, "moving_mean_initializer": {"config": {}, "class_name": "Zeros"}, "gamma_regularizer": null, "momentum": 0.95, "beta_constraint": null, "center": true}, "name": "conv4_19_3x3_bn", "class_name": "BatchNormalization"}, {"inbound_nodes": [[["conv4_19_3x3_bn", 0, 0, {}]]], "config": {"activation": "relu", "name": "activation_81", "trainable": true}, "name": "activation_81", "class_name": "Activation"}, {"inbound_nodes": [[["activation_81", 0, 0, {}]]], "config": {"activation": "linear", "use_bias": false, "dilation_rate": [1, 1], "bias_constraint": null, "kernel_initializer": {"config": {"mode": "fan_avg", "distribution": "uniform", "scale": 1.0, "seed": null}, "class_name": "VarianceScaling"}, "trainable": true, "data_format": "channels_last", "kernel_size": [1, 1], "kernel_constraint": null, "strides": [1, 1], "padding": "valid", "filters": 1024, "bias_regularizer": null, "activity_regularizer": null, "bias_initializer": {"config": {}, "class_name": "Zeros"}, "name": "conv4_19_1x1_increase", "kernel_regularizer": null}, "name": "conv4_19_1x1_increase", "class_name": "Conv2D"}, {"inbound_nodes": [[["conv4_19_1x1_increase", 0, 0, {}]]], "config": {"scale": true, "beta_regularizer": null, "epsilon": 1e-05, "beta_initializer": {"config": {}, "class_name": "Zeros"}, "trainable": true, "name": "conv4_19_1x1_increase_bn", "moving_variance_initializer": {"config": {}, "class_name": "Ones"}, "gamma_initializer": {"config": {}, "class_name": "Ones"}, "axis": -1, "gamma_constraint": null, "moving_mean_initializer": {"config": {}, "class_name": "Zeros"}, "gamma_regularizer": null, "momentum": 0.95, "beta_constraint": null, "center": true}, "name": "conv4_19_1x1_increase_bn", "class_name": "BatchNormalization"}, {"inbound_nodes": [[["conv4_19_1x1_increase_bn", 0, 0, {}], ["activation_79", 0, 0, {}]]], "config": {"name": "add_26", "trainable": true}, "name": "add_26", "class_name": "Add"}, {"inbound_nodes": [[["add_26", 0, 0, {}]]], "config": {"activation": "relu", "name": "activation_82", "trainable": true}, "name": "activation_82", "class_name": "Activation"}, {"inbound_nodes": [[["activation_82", 0, 0, {}]]], "config": {"activation": "linear", "use_bias": false, "dilation_rate": [1, 1], "bias_constraint": null, "kernel_initializer": {"config": {"mode": "fan_avg", "distribution": "uniform", "scale": 1.0, "seed": null}, "class_name": "VarianceScaling"}, "trainable": true, "data_format": "channels_last", "kernel_size": [1, 1], "kernel_constraint": null, "strides": [1, 1], "padding": "valid", "filters": 256, "bias_regularizer": null, "activity_regularizer": null, "bias_initializer": {"config": {}, "class_name": "Zeros"}, "name": "conv4_20_1x1_reduce", "kernel_regularizer": null}, "name": "conv4_20_1x1_reduce", "class_name": "Conv2D"}, {"inbound_nodes": [[["conv4_20_1x1_reduce", 0, 0, {}]]], "config": {"scale": true, "beta_regularizer": null, "epsilon": 1e-05, "beta_initializer": {"config": {}, "class_name": "Zeros"}, "trainable": true, "name": "conv4_20_1x1_reduce_bn", "moving_variance_initializer": {"config": {}, "class_name": "Ones"}, "gamma_initializer": {"config": {}, "class_name": "Ones"}, "axis": -1, "gamma_constraint": null, "moving_mean_initializer": {"config": {}, "class_name": "Zeros"}, "gamma_regularizer": null, "momentum": 0.95, "beta_constraint": null, "center": true}, "name": "conv4_20_1x1_reduce_bn", "class_name": "BatchNormalization"}, {"inbound_nodes": [[["conv4_20_1x1_reduce_bn", 0, 0, {}]]], "config": {"activation": "relu", "name": "activation_83", "trainable": true}, "name": "activation_83", "class_name": "Activation"}, {"inbound_nodes": [[["activation_83", 0, 0, {}]]], "config": {"trainable": true, "padding": [[2, 2], [2, 2]], "name": "zero_padding2d_27", "data_format": "channels_last"}, "name": "zero_padding2d_27", "class_name": "ZeroPadding2D"}, {"inbound_nodes": [[["zero_padding2d_27", 0, 0, {}]]], "config": {"activation": "linear", "use_bias": false, "dilation_rate": [2, 2], "bias_constraint": null, "kernel_initializer": {"config": {"mode": "fan_avg", "distribution": "uniform", "scale": 1.0, "seed": null}, "class_name": "VarianceScaling"}, "trainable": true, "data_format": "channels_last", "kernel_size": [3, 3], "kernel_constraint": null, "strides": [1, 1], "padding": "valid", "filters": 256, "bias_regularizer": null, "activity_regularizer": null, "bias_initializer": {"config": {}, "class_name": "Zeros"}, "name": "conv4_20_3x3", "kernel_regularizer": null}, "name": "conv4_20_3x3", "class_name": "Conv2D"}, {"inbound_nodes": [[["conv4_20_3x3", 0, 0, {}]]], "config": {"scale": true, "beta_regularizer": null, "epsilon": 1e-05, "beta_initializer": {"config": {}, "class_name": "Zeros"}, "trainable": true, "name": "conv4_20_3x3_bn", "moving_variance_initializer": {"config": {}, "class_name": "Ones"}, "gamma_initializer": {"config": {}, "class_name": "Ones"}, "axis": -1, "gamma_constraint": null, "moving_mean_initializer": {"config": {}, "class_name": "Zeros"}, "gamma_regularizer": null, "momentum": 0.95, "beta_constraint": null, "center": true}, "name": "conv4_20_3x3_bn", "class_name": "BatchNormalization"}, {"inbound_nodes": [[["conv4_20_3x3_bn", 0, 0, {}]]], "config": {"activation": "relu", "name": "activation_84", "trainable": true}, "name": "activation_84", "class_name": "Activation"}, {"inbound_nodes": [[["activation_84", 0, 0, {}]]], "config": {"activation": "linear", "use_bias": false, "dilation_rate": [1, 1], "bias_constraint": null, "kernel_initializer": {"config": {"mode": "fan_avg", "distribution": "uniform", "scale": 1.0, "seed": null}, "class_name": "VarianceScaling"}, "trainable": true, "data_format": "channels_last", "kernel_size": [1, 1], "kernel_constraint": null, "strides": [1, 1], "padding": "valid", "filters": 1024, "bias_regularizer": null, "activity_regularizer": null, "bias_initializer": {"config": {}, "class_name": "Zeros"}, "name": "conv4_20_1x1_increase", "kernel_regularizer": null}, "name": "conv4_20_1x1_increase", "class_name": "Conv2D"}, {"inbound_nodes": [[["conv4_20_1x1_increase", 0, 0, {}]]], "config": {"scale": true, "beta_regularizer": null, "epsilon": 1e-05, "beta_initializer": {"config": {}, "class_name": "Zeros"}, "trainable": true, "name": "conv4_20_1x1_increase_bn", "moving_variance_initializer": {"config": {}, "class_name": "Ones"}, "gamma_initializer": {"config": {}, "class_name": "Ones"}, "axis": -1, "gamma_constraint": null, "moving_mean_initializer": {"config": {}, "class_name": "Zeros"}, "gamma_regularizer": null, "momentum": 0.95, "beta_constraint": null, "center": true}, "name": "conv4_20_1x1_increase_bn", "class_name": "BatchNormalization"}, {"inbound_nodes": [[["conv4_20_1x1_increase_bn", 0, 0, {}], ["activation_82", 0, 0, {}]]], "config": {"name": "add_27", "trainable": true}, "name": "add_27", "class_name": "Add"}, {"inbound_nodes": [[["add_27", 0, 0, {}]]], "config": {"activation": "relu", "name": "activation_85", "trainable": true}, "name": "activation_85", "class_name": "Activation"}, {"inbound_nodes": [[["activation_85", 0, 0, {}]]], "config": {"activation": "linear", "use_bias": false, "dilation_rate": [1, 1], "bias_constraint": null, "kernel_initializer": {"config": {"mode": "fan_avg", "distribution": "uniform", "scale": 1.0, "seed": null}, "class_name": "VarianceScaling"}, "trainable": true, "data_format": "channels_last", "kernel_size": [1, 1], "kernel_constraint": null, "strides": [1, 1], "padding": "valid", "filters": 256, "bias_regularizer": null, "activity_regularizer": null, "bias_initializer": {"config": {}, "class_name": "Zeros"}, "name": "conv4_21_1x1_reduce", "kernel_regularizer": null}, "name": "conv4_21_1x1_reduce", "class_name": "Conv2D"}, {"inbound_nodes": [[["conv4_21_1x1_reduce", 0, 0, {}]]], "config": {"scale": true, "beta_regularizer": null, "epsilon": 1e-05, "beta_initializer": {"config": {}, "class_name": "Zeros"}, "trainable": true, "name": "conv4_21_1x1_reduce_bn", "moving_variance_initializer": {"config": {}, "class_name": "Ones"}, "gamma_initializer": {"config": {}, "class_name": "Ones"}, "axis": -1, "gamma_constraint": null, "moving_mean_initializer": {"config": {}, "class_name": "Zeros"}, "gamma_regularizer": null, "momentum": 0.95, "beta_constraint": null, "center": true}, "name": "conv4_21_1x1_reduce_bn", "class_name": "BatchNormalization"}, {"inbound_nodes": [[["conv4_21_1x1_reduce_bn", 0, 0, {}]]], "config": {"activation": "relu", "name": "activation_86", "trainable": true}, "name": "activation_86", "class_name": "Activation"}, {"inbound_nodes": [[["activation_86", 0, 0, {}]]], "config": {"trainable": true, "padding": [[2, 2], [2, 2]], "name": "zero_padding2d_28", "data_format": "channels_last"}, "name": "zero_padding2d_28", "class_name": "ZeroPadding2D"}, {"inbound_nodes": [[["zero_padding2d_28", 0, 0, {}]]], "config": {"activation": "linear", "use_bias": false, "dilation_rate": [2, 2], "bias_constraint": null, "kernel_initializer": {"config": {"mode": "fan_avg", "distribution": "uniform", "scale": 1.0, "seed": null}, "class_name": "VarianceScaling"}, "trainable": true, "data_format": "channels_last", "kernel_size": [3, 3], "kernel_constraint": null, "strides": [1, 1], "padding": "valid", "filters": 256, "bias_regularizer": null, "activity_regularizer": null, "bias_initializer": {"config": {}, "class_name": "Zeros"}, "name": "conv4_21_3x3", "kernel_regularizer": null}, "name": "conv4_21_3x3", "class_name": "Conv2D"}, {"inbound_nodes": [[["conv4_21_3x3", 0, 0, {}]]], "config": {"scale": true, "beta_regularizer": null, "epsilon": 1e-05, "beta_initializer": {"config": {}, "class_name": "Zeros"}, "trainable": true, "name": "conv4_21_3x3_bn", "moving_variance_initializer": {"config": {}, "class_name": "Ones"}, "gamma_initializer": {"config": {}, "class_name": "Ones"}, "axis": -1, "gamma_constraint": null, "moving_mean_initializer": {"config": {}, "class_name": "Zeros"}, "gamma_regularizer": null, "momentum": 0.95, "beta_constraint": null, "center": true}, "name": "conv4_21_3x3_bn", "class_name": "BatchNormalization"}, {"inbound_nodes": [[["conv4_21_3x3_bn", 0, 0, {}]]], "config": {"activation": "relu", "name": "activation_87", "trainable": true}, "name": "activation_87", "class_name": "Activation"}, {"inbound_nodes": [[["activation_87", 0, 0, {}]]], "config": {"activation": "linear", "use_bias": false, "dilation_rate": [1, 1], "bias_constraint": null, "kernel_initializer": {"config": {"mode": "fan_avg", "distribution": "uniform", "scale": 1.0, "seed": null}, "class_name": "VarianceScaling"}, "trainable": true, "data_format": "channels_last", "kernel_size": [1, 1], "kernel_constraint": null, "strides": [1, 1], "padding": "valid", "filters": 1024, "bias_regularizer": null, "activity_regularizer": null, "bias_initializer": {"config": {}, "class_name": "Zeros"}, "name": "conv4_21_1x1_increase", "kernel_regularizer": null}, "name": "conv4_21_1x1_increase", "class_name": "Conv2D"}, {"inbound_nodes": [[["conv4_21_1x1_increase", 0, 0, {}]]], "config": {"scale": true, "beta_regularizer": null, "epsilon": 1e-05, "beta_initializer": {"config": {}, "class_name": "Zeros"}, "trainable": true, "name": "conv4_21_1x1_increase_bn", "moving_variance_initializer": {"config": {}, "class_name": "Ones"}, "gamma_initializer": {"config": {}, "class_name": "Ones"}, "axis": -1, "gamma_constraint": null, "moving_mean_initializer": {"config": {}, "class_name": "Zeros"}, "gamma_regularizer": null, "momentum": 0.95, "beta_constraint": null, "center": true}, "name": "conv4_21_1x1_increase_bn", "class_name": "BatchNormalization"}, {"inbound_nodes": [[["conv4_21_1x1_increase_bn", 0, 0, {}], ["activation_85", 0, 0, {}]]], "config": {"name": "add_28", "trainable": true}, "name": "add_28", "class_name": "Add"}, {"inbound_nodes": [[["add_28", 0, 0, {}]]], "config": {"activation": "relu", "name": "activation_88", "trainable": true}, "name": "activation_88", "class_name": "Activation"}, {"inbound_nodes": [[["activation_88", 0, 0, {}]]], "config": {"activation": "linear", "use_bias": false, "dilation_rate": [1, 1], "bias_constraint": null, "kernel_initializer": {"config": {"mode": "fan_avg", "distribution": "uniform", "scale": 1.0, "seed": null}, "class_name": "VarianceScaling"}, "trainable": true, "data_format": "channels_last", "kernel_size": [1, 1], "kernel_constraint": null, "strides": [1, 1], "padding": "valid", "filters": 256, "bias_regularizer": null, "activity_regularizer": null, "bias_initializer": {"config": {}, "class_name": "Zeros"}, "name": "conv4_22_1x1_reduce", "kernel_regularizer": null}, "name": "conv4_22_1x1_reduce", "class_name": "Conv2D"}, {"inbound_nodes": [[["conv4_22_1x1_reduce", 0, 0, {}]]], "config": {"scale": true, "beta_regularizer": null, "epsilon": 1e-05, "beta_initializer": {"config": {}, "class_name": "Zeros"}, "trainable": true, "name": "conv4_22_1x1_reduce_bn", "moving_variance_initializer": {"config": {}, "class_name": "Ones"}, "gamma_initializer": {"config": {}, "class_name": "Ones"}, "axis": -1, "gamma_constraint": null, "moving_mean_initializer": {"config": {}, "class_name": "Zeros"}, "gamma_regularizer": null, "momentum": 0.95, "beta_constraint": null, "center": true}, "name": "conv4_22_1x1_reduce_bn", "class_name": "BatchNormalization"}, {"inbound_nodes": [[["conv4_22_1x1_reduce_bn", 0, 0, {}]]], "config": {"activation": "relu", "name": "activation_89", "trainable": true}, "name": "activation_89", "class_name": "Activation"}, {"inbound_nodes": [[["activation_89", 0, 0, {}]]], "config": {"trainable": true, "padding": [[2, 2], [2, 2]], "name": "zero_padding2d_29", "data_format": "channels_last"}, "name": "zero_padding2d_29", "class_name": "ZeroPadding2D"}, {"inbound_nodes": [[["zero_padding2d_29", 0, 0, {}]]], "config": {"activation": "linear", "use_bias": false, "dilation_rate": [2, 2], "bias_constraint": null, "kernel_initializer": {"config": {"mode": "fan_avg", "distribution": "uniform", "scale": 1.0, "seed": null}, "class_name": "VarianceScaling"}, "trainable": true, "data_format": "channels_last", "kernel_size": [3, 3], "kernel_constraint": null, "strides": [1, 1], "padding": "valid", "filters": 256, "bias_regularizer": null, "activity_regularizer": null, "bias_initializer": {"config": {}, "class_name": "Zeros"}, "name": "conv4_22_3x3", "kernel_regularizer": null}, "name": "conv4_22_3x3", "class_name": "Conv2D"}, {"inbound_nodes": [[["conv4_22_3x3", 0, 0, {}]]], "config": {"scale": true, "beta_regularizer": null, "epsilon": 1e-05, "beta_initializer": {"config": {}, "class_name": "Zeros"}, "trainable": true, "name": "conv4_22_3x3_bn", "moving_variance_initializer": {"config": {}, "class_name": "Ones"}, "gamma_initializer": {"config": {}, "class_name": "Ones"}, "axis": -1, "gamma_constraint": null, "moving_mean_initializer": {"config": {}, "class_name": "Zeros"}, "gamma_regularizer": null, "momentum": 0.95, "beta_constraint": null, "center": true}, "name": "conv4_22_3x3_bn", "class_name": "BatchNormalization"}, {"inbound_nodes": [[["conv4_22_3x3_bn", 0, 0, {}]]], "config": {"activation": "relu", "name": "activation_90", "trainable": true}, "name": "activation_90", "class_name": "Activation"}, {"inbound_nodes": [[["activation_90", 0, 0, {}]]], "config": {"activation": "linear", "use_bias": false, "dilation_rate": [1, 1], "bias_constraint": null, "kernel_initializer": {"config": {"mode": "fan_avg", "distribution": "uniform", "scale": 1.0, "seed": null}, "class_name": "VarianceScaling"}, "trainable": true, "data_format": "channels_last", "kernel_size": [1, 1], "kernel_constraint": null, "strides": [1, 1], "padding": "valid", "filters": 1024, "bias_regularizer": null, "activity_regularizer": null, "bias_initializer": {"config": {}, "class_name": "Zeros"}, "name": "conv4_22_1x1_increase", "kernel_regularizer": null}, "name": "conv4_22_1x1_increase", "class_name": "Conv2D"}, {"inbound_nodes": [[["conv4_22_1x1_increase", 0, 0, {}]]], "config": {"scale": true, "beta_regularizer": null, "epsilon": 1e-05, "beta_initializer": {"config": {}, "class_name": "Zeros"}, "trainable": true, "name": "conv4_22_1x1_increase_bn", "moving_variance_initializer": {"config": {}, "class_name": "Ones"}, "gamma_initializer": {"config": {}, "class_name": "Ones"}, "axis": -1, "gamma_constraint": null, "moving_mean_initializer": {"config": {}, "class_name": "Zeros"}, "gamma_regularizer": null, "momentum": 0.95, "beta_constraint": null, "center": true}, "name": "conv4_22_1x1_increase_bn", "class_name": "BatchNormalization"}, {"inbound_nodes": [[["conv4_22_1x1_increase_bn", 0, 0, {}], ["activation_88", 0, 0, {}]]], "config": {"name": "add_29", "trainable": true}, "name": "add_29", "class_name": "Add"}, {"inbound_nodes": [[["add_29", 0, 0, {}]]], "config": {"activation": "relu", "name": "activation_91", "trainable": true}, "name": "activation_91", "class_name": "Activation"}, {"inbound_nodes": [[["activation_91", 0, 0, {}]]], "config": {"activation": "linear", "use_bias": false, "dilation_rate": [1, 1], "bias_constraint": null, "kernel_initializer": {"config": {"mode": "fan_avg", "distribution": "uniform", "scale": 1.0, "seed": null}, "class_name": "VarianceScaling"}, "trainable": true, "data_format": "channels_last", "kernel_size": [1, 1], "kernel_constraint": null, "strides": [1, 1], "padding": "valid", "filters": 256, "bias_regularizer": null, "activity_regularizer": null, "bias_initializer": {"config": {}, "class_name": "Zeros"}, "name": "conv4_23_1x1_reduce", "kernel_regularizer": null}, "name": "conv4_23_1x1_reduce", "class_name": "Conv2D"}, {"inbound_nodes": [[["conv4_23_1x1_reduce", 0, 0, {}]]], "config": {"scale": true, "beta_regularizer": null, "epsilon": 1e-05, "beta_initializer": {"config": {}, "class_name": "Zeros"}, "trainable": true, "name": "conv4_23_1x1_reduce_bn", "moving_variance_initializer": {"config": {}, "class_name": "Ones"}, "gamma_initializer": {"config": {}, "class_name": "Ones"}, "axis": -1, "gamma_constraint": null, "moving_mean_initializer": {"config": {}, "class_name": "Zeros"}, "gamma_regularizer": null, "momentum": 0.95, "beta_constraint": null, "center": true}, "name": "conv4_23_1x1_reduce_bn", "class_name": "BatchNormalization"}, {"inbound_nodes": [[["conv4_23_1x1_reduce_bn", 0, 0, {}]]], "config": {"activation": "relu", "name": "activation_92", "trainable": true}, "name": "activation_92", "class_name": "Activation"}, {"inbound_nodes": [[["activation_92", 0, 0, {}]]], "config": {"trainable": true, "padding": [[2, 2], [2, 2]], "name": "zero_padding2d_30", "data_format": "channels_last"}, "name": "zero_padding2d_30", "class_name": "ZeroPadding2D"}, {"inbound_nodes": [[["zero_padding2d_30", 0, 0, {}]]], "config": {"activation": "linear", "use_bias": false, "dilation_rate": [2, 2], "bias_constraint": null, "kernel_initializer": {"config": {"mode": "fan_avg", "distribution": "uniform", "scale": 1.0, "seed": null}, "class_name": "VarianceScaling"}, "trainable": true, "data_format": "channels_last", "kernel_size": [3, 3], "kernel_constraint": null, "strides": [1, 1], "padding": "valid", "filters": 256, "bias_regularizer": null, "activity_regularizer": null, "bias_initializer": {"config": {}, "class_name": "Zeros"}, "name": "conv4_23_3x3", "kernel_regularizer": null}, "name": "conv4_23_3x3", "class_name": "Conv2D"}, {"inbound_nodes": [[["conv4_23_3x3", 0, 0, {}]]], "config": {"scale": true, "beta_regularizer": null, "epsilon": 1e-05, "beta_initializer": {"config": {}, "class_name": "Zeros"}, "trainable": true, "name": "conv4_23_3x3_bn", "moving_variance_initializer": {"config": {}, "class_name": "Ones"}, "gamma_initializer": {"config": {}, "class_name": "Ones"}, "axis": -1, "gamma_constraint": null, "moving_mean_initializer": {"config": {}, "class_name": "Zeros"}, "gamma_regularizer": null, "momentum": 0.95, "beta_constraint": null, "center": true}, "name": "conv4_23_3x3_bn", "class_name": "BatchNormalization"}, {"inbound_nodes": [[["conv4_23_3x3_bn", 0, 0, {}]]], "config": {"activation": "relu", "name": "activation_93", "trainable": true}, "name": "activation_93", "class_name": "Activation"}, {"inbound_nodes": [[["activation_93", 0, 0, {}]]], "config": {"activation": "linear", "use_bias": false, "dilation_rate": [1, 1], "bias_constraint": null, "kernel_initializer": {"config": {"mode": "fan_avg", "distribution": "uniform", "scale": 1.0, "seed": null}, "class_name": "VarianceScaling"}, "trainable": true, "data_format": "channels_last", "kernel_size": [1, 1], "kernel_constraint": null, "strides": [1, 1], "padding": "valid", "filters": 1024, "bias_regularizer": null, "activity_regularizer": null, "bias_initializer": {"config": {}, "class_name": "Zeros"}, "name": "conv4_23_1x1_increase", "kernel_regularizer": null}, "name": "conv4_23_1x1_increase", "class_name": "Conv2D"}, {"inbound_nodes": [[["conv4_23_1x1_increase", 0, 0, {}]]], "config": {"scale": true, "beta_regularizer": null, "epsilon": 1e-05, "beta_initializer": {"config": {}, "class_name": "Zeros"}, "trainable": true, "name": "conv4_23_1x1_increase_bn", "moving_variance_initializer": {"config": {}, "class_name": "Ones"}, "gamma_initializer": {"config": {}, "class_name": "Ones"}, "axis": -1, "gamma_constraint": null, "moving_mean_initializer": {"config": {}, "class_name": "Zeros"}, "gamma_regularizer": null, "momentum": 0.95, "beta_constraint": null, "center": true}, "name": "conv4_23_1x1_increase_bn", "class_name": "BatchNormalization"}, {"inbound_nodes": [[["conv4_23_1x1_increase_bn", 0, 0, {}], ["activation_91", 0, 0, {}]]], "config": {"name": "add_30", "trainable": true}, "name": "add_30", "class_name": "Add"}, {"inbound_nodes": [[["add_30", 0, 0, {}]]], "config": {"activation": "relu", "name": "activation_94", "trainable": true}, "name": "activation_94", "class_name": "Activation"}, {"inbound_nodes": [[["activation_94", 0, 0, {}]]], "config": {"activation": "linear", "use_bias": false, "dilation_rate": [1, 1], "bias_constraint": null, "kernel_initializer": {"config": {"mode": "fan_avg", "distribution": "uniform", "scale": 1.0, "seed": null}, "class_name": "VarianceScaling"}, "trainable": true, "data_format": "channels_last", "kernel_size": [1, 1], "kernel_constraint": null, "strides": [1, 1], "padding": "valid", "filters": 512, "bias_regularizer": null, "activity_regularizer": null, "bias_initializer": {"config": {}, "class_name": "Zeros"}, "name": "conv5_1_1x1_reduce", "kernel_regularizer": null}, "name": "conv5_1_1x1_reduce", "class_name": "Conv2D"}, {"inbound_nodes": [[["conv5_1_1x1_reduce", 0, 0, {}]]], "config": {"scale": true, "beta_regularizer": null, "epsilon": 1e-05, "beta_initializer": {"config": {}, "class_name": "Zeros"}, "trainable": true, "name": "conv5_1_1x1_reduce_bn", "moving_variance_initializer": {"config": {}, "class_name": "Ones"}, "gamma_initializer": {"config": {}, "class_name": "Ones"}, "axis": -1, "gamma_constraint": null, "moving_mean_initializer": {"config": {}, "class_name": "Zeros"}, "gamma_regularizer": null, "momentum": 0.95, "beta_constraint": null, "center": true}, "name": "conv5_1_1x1_reduce_bn", "class_name": "BatchNormalization"}, {"inbound_nodes": [[["conv5_1_1x1_reduce_bn", 0, 0, {}]]], "config": {"activation": "relu", "name": "activation_95", "trainable": true}, "name": "activation_95", "class_name": "Activation"}, {"inbound_nodes": [[["activation_95", 0, 0, {}]]], "config": {"trainable": true, "padding": [[4, 4], [4, 4]], "name": "zero_padding2d_31", "data_format": "channels_last"}, "name": "zero_padding2d_31", "class_name": "ZeroPadding2D"}, {"inbound_nodes": [[["zero_padding2d_31", 0, 0, {}]]], "config": {"activation": "linear", "use_bias": false, "dilation_rate": [4, 4], "bias_constraint": null, "kernel_initializer": {"config": {"mode": "fan_avg", "distribution": "uniform", "scale": 1.0, "seed": null}, "class_name": "VarianceScaling"}, "trainable": true, "data_format": "channels_last", "kernel_size": [3, 3], "kernel_constraint": null, "strides": [1, 1], "padding": "valid", "filters": 512, "bias_regularizer": null, "activity_regularizer": null, "bias_initializer": {"config": {}, "class_name": "Zeros"}, "name": "conv5_1_3x3", "kernel_regularizer": null}, "name": "conv5_1_3x3", "class_name": "Conv2D"}, {"inbound_nodes": [[["conv5_1_3x3", 0, 0, {}]]], "config": {"scale": true, "beta_regularizer": null, "epsilon": 1e-05, "beta_initializer": {"config": {}, "class_name": "Zeros"}, "trainable": true, "name": "conv5_1_3x3_bn", "moving_variance_initializer": {"config": {}, "class_name": "Ones"}, "gamma_initializer": {"config": {}, "class_name": "Ones"}, "axis": -1, "gamma_constraint": null, "moving_mean_initializer": {"config": {}, "class_name": "Zeros"}, "gamma_regularizer": null, "momentum": 0.95, "beta_constraint": null, "center": true}, "name": "conv5_1_3x3_bn", "class_name": "BatchNormalization"}, {"inbound_nodes": [[["conv5_1_3x3_bn", 0, 0, {}]]], "config": {"activation": "relu", "name": "activation_96", "trainable": true}, "name": "activation_96", "class_name": "Activation"}, {"inbound_nodes": [[["activation_96", 0, 0, {}]]], "config": {"activation": "linear", "use_bias": false, "dilation_rate": [1, 1], "bias_constraint": null, "kernel_initializer": {"config": {"mode": "fan_avg", "distribution": "uniform", "scale": 1.0, "seed": null}, "class_name": "VarianceScaling"}, "trainable": true, "data_format": "channels_last", "kernel_size": [1, 1], "kernel_constraint": null, "strides": [1, 1], "padding": "valid", "filters": 2048, "bias_regularizer": null, "activity_regularizer": null, "bias_initializer": {"config": {}, "class_name": "Zeros"}, "name": "conv5_1_1x1_increase", "kernel_regularizer": null}, "name": "conv5_1_1x1_increase", "class_name": "Conv2D"}, {"inbound_nodes": [[["activation_94", 0, 0, {}]]], "config": {"activation": "linear", "use_bias": false, "dilation_rate": [1, 1], "bias_constraint": null, "kernel_initializer": {"config": {"mode": "fan_avg", "distribution": "uniform", "scale": 1.0, "seed": null}, "class_name": "VarianceScaling"}, "trainable": true, "data_format": "channels_last", "kernel_size": [1, 1], "kernel_constraint": null, "strides": [1, 1], "padding": "valid", "filters": 2048, "bias_regularizer": null, "activity_regularizer": null, "bias_initializer": {"config": {}, "class_name": "Zeros"}, "name": "conv5_1_1x1_proj", "kernel_regularizer": null}, "name": "conv5_1_1x1_proj", "class_name": "Conv2D"}, {"inbound_nodes": [[["conv5_1_1x1_increase", 0, 0, {}]]], "config": {"scale": true, "beta_regularizer": null, "epsilon": 1e-05, "beta_initializer": {"config": {}, "class_name": "Zeros"}, "trainable": true, "name": "conv5_1_1x1_increase_bn", "moving_variance_initializer": {"config": {}, "class_name": "Ones"}, "gamma_initializer": {"config": {}, "class_name": "Ones"}, "axis": -1, "gamma_constraint": null, "moving_mean_initializer": {"config": {}, "class_name": "Zeros"}, "gamma_regularizer": null, "momentum": 0.95, "beta_constraint": null, "center": true}, "name": "conv5_1_1x1_increase_bn", "class_name": "BatchNormalization"}, {"inbound_nodes": [[["conv5_1_1x1_proj", 0, 0, {}]]], "config": {"scale": true, "beta_regularizer": null, "epsilon": 1e-05, "beta_initializer": {"config": {}, "class_name": "Zeros"}, "trainable": true, "name": "conv5_1_1x1_proj_bn", "moving_variance_initializer": {"config": {}, "class_name": "Ones"}, "gamma_initializer": {"config": {}, "class_name": "Ones"}, "axis": -1, "gamma_constraint": null, "moving_mean_initializer": {"config": {}, "class_name": "Zeros"}, "gamma_regularizer": null, "momentum": 0.95, "beta_constraint": null, "center": true}, "name": "conv5_1_1x1_proj_bn", "class_name": "BatchNormalization"}, {"inbound_nodes": [[["conv5_1_1x1_increase_bn", 0, 0, {}], ["conv5_1_1x1_proj_bn", 0, 0, {}]]], "config": {"name": "add_31", "trainable": true}, "name": "add_31", "class_name": "Add"}, {"inbound_nodes": [[["add_31", 0, 0, {}]]], "config": {"activation": "relu", "name": "activation_97", "trainable": true}, "name": "activation_97", "class_name": "Activation"}, {"inbound_nodes": [[["activation_97", 0, 0, {}]]], "config": {"activation": "linear", "use_bias": false, "dilation_rate": [1, 1], "bias_constraint": null, "kernel_initializer": {"config": {"mode": "fan_avg", "distribution": "uniform", "scale": 1.0, "seed": null}, "class_name": "VarianceScaling"}, "trainable": true, "data_format": "channels_last", "kernel_size": [1, 1], "kernel_constraint": null, "strides": [1, 1], "padding": "valid", "filters": 512, "bias_regularizer": null, "activity_regularizer": null, "bias_initializer": {"config": {}, "class_name": "Zeros"}, "name": "conv5_2_1x1_reduce", "kernel_regularizer": null}, "name": "conv5_2_1x1_reduce", "class_name": "Conv2D"}, {"inbound_nodes": [[["conv5_2_1x1_reduce", 0, 0, {}]]], "config": {"scale": true, "beta_regularizer": null, "epsilon": 1e-05, "beta_initializer": {"config": {}, "class_name": "Zeros"}, "trainable": true, "name": "conv5_2_1x1_reduce_bn", "moving_variance_initializer": {"config": {}, "class_name": "Ones"}, "gamma_initializer": {"config": {}, "class_name": "Ones"}, "axis": -1, "gamma_constraint": null, "moving_mean_initializer": {"config": {}, "class_name": "Zeros"}, "gamma_regularizer": null, "momentum": 0.95, "beta_constraint": null, "center": true}, "name": "conv5_2_1x1_reduce_bn", "class_name": "BatchNormalization"}, {"inbound_nodes": [[["conv5_2_1x1_reduce_bn", 0, 0, {}]]], "config": {"activation": "relu", "name": "activation_98", "trainable": true}, "name": "activation_98", "class_name": "Activation"}, {"inbound_nodes": [[["activation_98", 0, 0, {}]]], "config": {"trainable": true, "padding": [[4, 4], [4, 4]], "name": "zero_padding2d_32", "data_format": "channels_last"}, "name": "zero_padding2d_32", "class_name": "ZeroPadding2D"}, {"inbound_nodes": [[["zero_padding2d_32", 0, 0, {}]]], "config": {"activation": "linear", "use_bias": false, "dilation_rate": [4, 4], "bias_constraint": null, "kernel_initializer": {"config": {"mode": "fan_avg", "distribution": "uniform", "scale": 1.0, "seed": null}, "class_name": "VarianceScaling"}, "trainable": true, "data_format": "channels_last", "kernel_size": [3, 3], "kernel_constraint": null, "strides": [1, 1], "padding": "valid", "filters": 512, "bias_regularizer": null, "activity_regularizer": null, "bias_initializer": {"config": {}, "class_name": "Zeros"}, "name": "conv5_2_3x3", "kernel_regularizer": null}, "name": "conv5_2_3x3", "class_name": "Conv2D"}, {"inbound_nodes": [[["conv5_2_3x3", 0, 0, {}]]], "config": {"scale": true, "beta_regularizer": null, "epsilon": 1e-05, "beta_initializer": {"config": {}, "class_name": "Zeros"}, "trainable": true, "name": "conv5_2_3x3_bn", "moving_variance_initializer": {"config": {}, "class_name": "Ones"}, "gamma_initializer": {"config": {}, "class_name": "Ones"}, "axis": -1, "gamma_constraint": null, "moving_mean_initializer": {"config": {}, "class_name": "Zeros"}, "gamma_regularizer": null, "momentum": 0.95, "beta_constraint": null, "center": true}, "name": "conv5_2_3x3_bn", "class_name": "BatchNormalization"}, {"inbound_nodes": [[["conv5_2_3x3_bn", 0, 0, {}]]], "config": {"activation": "relu", "name": "activation_99", "trainable": true}, "name": "activation_99", "class_name": "Activation"}, {"inbound_nodes": [[["activation_99", 0, 0, {}]]], "config": {"activation": "linear", "use_bias": false, "dilation_rate": [1, 1], "bias_constraint": null, "kernel_initializer": {"config": {"mode": "fan_avg", "distribution": "uniform", "scale": 1.0, "seed": null}, "class_name": "VarianceScaling"}, "trainable": true, "data_format": "channels_last", "kernel_size": [1, 1], "kernel_constraint": null, "strides": [1, 1], "padding": "valid", "filters": 2048, "bias_regularizer": null, "activity_regularizer": null, "bias_initializer": {"config": {}, "class_name": "Zeros"}, "name": "conv5_2_1x1_increase", "kernel_regularizer": null}, "name": "conv5_2_1x1_increase", "class_name": "Conv2D"}, {"inbound_nodes": [[["conv5_2_1x1_increase", 0, 0, {}]]], "config": {"scale": true, "beta_regularizer": null, "epsilon": 1e-05, "beta_initializer": {"config": {}, "class_name": "Zeros"}, "trainable": true, "name": "conv5_2_1x1_increase_bn", "moving_variance_initializer": {"config": {}, "class_name": "Ones"}, "gamma_initializer": {"config": {}, "class_name": "Ones"}, "axis": -1, "gamma_constraint": null, "moving_mean_initializer": {"config": {}, "class_name": "Zeros"}, "gamma_regularizer": null, "momentum": 0.95, "beta_constraint": null, "center": true}, "name": "conv5_2_1x1_increase_bn", "class_name": "BatchNormalization"}, {"inbound_nodes": [[["conv5_2_1x1_increase_bn", 0, 0, {}], ["activation_97", 0, 0, {}]]], "config": {"name": "add_32", "trainable": true}, "name": "add_32", "class_name": "Add"}, {"inbound_nodes": [[["add_32", 0, 0, {}]]], "config": {"activation": "relu", "name": "activation_100", "trainable": true}, "name": "activation_100", "class_name": "Activation"}, {"inbound_nodes": [[["activation_100", 0, 0, {}]]], "config": {"activation": "linear", "use_bias": false, "dilation_rate": [1, 1], "bias_constraint": null, "kernel_initializer": {"config": {"mode": "fan_avg", "distribution": "uniform", "scale": 1.0, "seed": null}, "class_name": "VarianceScaling"}, "trainable": true, "data_format": "channels_last", "kernel_size": [1, 1], "kernel_constraint": null, "strides": [1, 1], "padding": "valid", "filters": 512, "bias_regularizer": null, "activity_regularizer": null, "bias_initializer": {"config": {}, "class_name": "Zeros"}, "name": "conv5_3_1x1_reduce", "kernel_regularizer": null}, "name": "conv5_3_1x1_reduce", "class_name": "Conv2D"}, {"inbound_nodes": [[["conv5_3_1x1_reduce", 0, 0, {}]]], "config": {"scale": true, "beta_regularizer": null, "epsilon": 1e-05, "beta_initializer": {"config": {}, "class_name": "Zeros"}, "trainable": true, "name": "conv5_3_1x1_reduce_bn", "moving_variance_initializer": {"config": {}, "class_name": "Ones"}, "gamma_initializer": {"config": {}, "class_name": "Ones"}, "axis": -1, "gamma_constraint": null, "moving_mean_initializer": {"config": {}, "class_name": "Zeros"}, "gamma_regularizer": null, "momentum": 0.95, "beta_constraint": null, "center": true}, "name": "conv5_3_1x1_reduce_bn", "class_name": "BatchNormalization"}, {"inbound_nodes": [[["conv5_3_1x1_reduce_bn", 0, 0, {}]]], "config": {"activation": "relu", "name": "activation_101", "trainable": true}, "name": "activation_101", "class_name": "Activation"}, {"inbound_nodes": [[["activation_101", 0, 0, {}]]], "config": {"trainable": true, "padding": [[4, 4], [4, 4]], "name": "zero_padding2d_33", "data_format": "channels_last"}, "name": "zero_padding2d_33", "class_name": "ZeroPadding2D"}, {"inbound_nodes": [[["zero_padding2d_33", 0, 0, {}]]], "config": {"activation": "linear", "use_bias": false, "dilation_rate": [4, 4], "bias_constraint": null, "kernel_initializer": {"config": {"mode": "fan_avg", "distribution": "uniform", "scale": 1.0, "seed": null}, "class_name": "VarianceScaling"}, "trainable": true, "data_format": "channels_last", "kernel_size": [3, 3], "kernel_constraint": null, "strides": [1, 1], "padding": "valid", "filters": 512, "bias_regularizer": null, "activity_regularizer": null, "bias_initializer": {"config": {}, "class_name": "Zeros"}, "name": "conv5_3_3x3", "kernel_regularizer": null}, "name": "conv5_3_3x3", "class_name": "Conv2D"}, {"inbound_nodes": [[["conv5_3_3x3", 0, 0, {}]]], "config": {"scale": true, "beta_regularizer": null, "epsilon": 1e-05, "beta_initializer": {"config": {}, "class_name": "Zeros"}, "trainable": true, "name": "conv5_3_3x3_bn", "moving_variance_initializer": {"config": {}, "class_name": "Ones"}, "gamma_initializer": {"config": {}, "class_name": "Ones"}, "axis": -1, "gamma_constraint": null, "moving_mean_initializer": {"config": {}, "class_name": "Zeros"}, "gamma_regularizer": null, "momentum": 0.95, "beta_constraint": null, "center": true}, "name": "conv5_3_3x3_bn", "class_name": "BatchNormalization"}, {"inbound_nodes": [[["conv5_3_3x3_bn", 0, 0, {}]]], "config": {"activation": "relu", "name": "activation_102", "trainable": true}, "name": "activation_102", "class_name": "Activation"}, {"inbound_nodes": [[["activation_102", 0, 0, {}]]], "config": {"activation": "linear", "use_bias": false, "dilation_rate": [1, 1], "bias_constraint": null, "kernel_initializer": {"config": {"mode": "fan_avg", "distribution": "uniform", "scale": 1.0, "seed": null}, "class_name": "VarianceScaling"}, "trainable": true, "data_format": "channels_last", "kernel_size": [1, 1], "kernel_constraint": null, "strides": [1, 1], "padding": "valid", "filters": 2048, "bias_regularizer": null, "activity_regularizer": null, "bias_initializer": {"config": {}, "class_name": "Zeros"}, "name": "conv5_3_1x1_increase", "kernel_regularizer": null}, "name": "conv5_3_1x1_increase", "class_name": "Conv2D"}, {"inbound_nodes": [[["conv5_3_1x1_increase", 0, 0, {}]]], "config": {"scale": true, "beta_regularizer": null, "epsilon": 1e-05, "beta_initializer": {"config": {}, "class_name": "Zeros"}, "trainable": true, "name": "conv5_3_1x1_increase_bn", "moving_variance_initializer": {"config": {}, "class_name": "Ones"}, "gamma_initializer": {"config": {}, "class_name": "Ones"}, "axis": -1, "gamma_constraint": null, "moving_mean_initializer": {"config": {}, "class_name": "Zeros"}, "gamma_regularizer": null, "momentum": 0.95, "beta_constraint": null, "center": true}, "name": "conv5_3_1x1_increase_bn", "class_name": "BatchNormalization"}, {"inbound_nodes": [[["conv5_3_1x1_increase_bn", 0, 0, {}], ["activation_100", 0, 0, {}]]], "config": {"name": "add_33", "trainable": true}, "name": "add_33", "class_name": "Add"}, {"inbound_nodes": [[["add_33", 0, 0, {}]]], "config": {"activation": "relu", "name": "activation_103", "trainable": true}, "name": "activation_103", "class_name": "Activation"}, {"inbound_nodes": [[["activation_103", 0, 0, {}]]], "config": {"strides": [10, 10], "padding": "valid", "trainable": true, "name": "average_pooling2d_4", "data_format": "channels_last", "pool_size": [10, 10]}, "name": "average_pooling2d_4", "class_name": "AveragePooling2D"}, {"inbound_nodes": [[["activation_103", 0, 0, {}]]], "config": {"strides": [20, 20], "padding": "valid", "trainable": true, "name": "average_pooling2d_3", "data_format": "channels_last", "pool_size": [20, 20]}, "name": "average_pooling2d_3", "class_name": "AveragePooling2D"}, {"inbound_nodes": [[["activation_103", 0, 0, {}]]], "config": {"strides": [30, 30], "padding": "valid", "trainable": true, "name": "average_pooling2d_2", "data_format": "channels_last", "pool_size": [30, 30]}, "name": "average_pooling2d_2", "class_name": "AveragePooling2D"}, {"inbound_nodes": [[["activation_103", 0, 0, {}]]], "config": {"strides": [60, 60], "padding": "valid", "trainable": true, "name": "average_pooling2d_1", "data_format": "channels_last", "pool_size": [60, 60]}, "name": "average_pooling2d_1", "class_name": "AveragePooling2D"}, {"inbound_nodes": [[["average_pooling2d_4", 0, 0, {}]]], "config": {"activation": "linear", "use_bias": false, "dilation_rate": [1, 1], "bias_constraint": null, "kernel_initializer": {"config": {"mode": "fan_avg", "distribution": "uniform", "scale": 1.0, "seed": null}, "class_name": "VarianceScaling"}, "trainable": true, "data_format": "channels_last", "kernel_size": [1, 1], "kernel_constraint": null, "strides": [1, 1], "padding": "valid", "filters": 512, "bias_regularizer": null, "activity_regularizer": null, "bias_initializer": {"config": {}, "class_name": "Zeros"}, "name": "conv5_3_pool6_conv", "kernel_regularizer": null}, "name": "conv5_3_pool6_conv", "class_name": "Conv2D"}, {"inbound_nodes": [[["average_pooling2d_3", 0, 0, {}]]], "config": {"activation": "linear", "use_bias": false, "dilation_rate": [1, 1], "bias_constraint": null, "kernel_initializer": {"config": {"mode": "fan_avg", "distribution": "uniform", "scale": 1.0, "seed": null}, "class_name": "VarianceScaling"}, "trainable": true, "data_format": "channels_last", "kernel_size": [1, 1], "kernel_constraint": null, "strides": [1, 1], "padding": "valid", "filters": 512, "bias_regularizer": null, "activity_regularizer": null, "bias_initializer": {"config": {}, "class_name": "Zeros"}, "name": "conv5_3_pool3_conv", "kernel_regularizer": null}, "name": "conv5_3_pool3_conv", "class_name": "Conv2D"}, {"inbound_nodes": [[["average_pooling2d_2", 0, 0, {}]]], "config": {"activation": "linear", "use_bias": false, "dilation_rate": [1, 1], "bias_constraint": null, "kernel_initializer": {"config": {"mode": "fan_avg", "distribution": "uniform", "scale": 1.0, "seed": null}, "class_name": "VarianceScaling"}, "trainable": true, "data_format": "channels_last", "kernel_size": [1, 1], "kernel_constraint": null, "strides": [1, 1], "padding": "valid", "filters": 512, "bias_regularizer": null, "activity_regularizer": null, "bias_initializer": {"config": {}, "class_name": "Zeros"}, "name": "conv5_3_pool2_conv", "kernel_regularizer": null}, "name": "conv5_3_pool2_conv", "class_name": "Conv2D"}, {"inbound_nodes": [[["average_pooling2d_1", 0, 0, {}]]], "config": {"activation": "linear", "use_bias": false, "dilation_rate": [1, 1], "bias_constraint": null, "kernel_initializer": {"config": {"mode": "fan_avg", "distribution": "uniform", "scale": 1.0, "seed": null}, "class_name": "VarianceScaling"}, "trainable": true, "data_format": "channels_last", "kernel_size": [1, 1], "kernel_constraint": null, "strides": [1, 1], "padding": "valid", "filters": 512, "bias_regularizer": null, "activity_regularizer": null, "bias_initializer": {"config": {}, "class_name": "Zeros"}, "name": "conv5_3_pool1_conv", "kernel_regularizer": null}, "name": "conv5_3_pool1_conv", "class_name": "Conv2D"}, {"inbound_nodes": [[["conv5_3_pool6_conv", 0, 0, {}]]], "config": {"scale": true, "beta_regularizer": null, "epsilon": 1e-05, "beta_initializer": {"config": {}, "class_name": "Zeros"}, "trainable": true, "name": "conv5_3_pool6_conv_bn", "moving_variance_initializer": {"config": {}, "class_name": "Ones"}, "gamma_initializer": {"config": {}, "class_name": "Ones"}, "axis": -1, "gamma_constraint": null, "moving_mean_initializer": {"config": {}, "class_name": "Zeros"}, "gamma_regularizer": null, "momentum": 0.95, "beta_constraint": null, "center": true}, "name": "conv5_3_pool6_conv_bn", "class_name": "BatchNormalization"}, {"inbound_nodes": [[["conv5_3_pool3_conv", 0, 0, {}]]], "config": {"scale": true, "beta_regularizer": null, "epsilon": 1e-05, "beta_initializer": {"config": {}, "class_name": "Zeros"}, "trainable": true, "name": "conv5_3_pool3_conv_bn", "moving_variance_initializer": {"config": {}, "class_name": "Ones"}, "gamma_initializer": {"config": {}, "class_name": "Ones"}, "axis": -1, "gamma_constraint": null, "moving_mean_initializer": {"config": {}, "class_name": "Zeros"}, "gamma_regularizer": null, "momentum": 0.95, "beta_constraint": null, "center": true}, "name": "conv5_3_pool3_conv_bn", "class_name": "BatchNormalization"}, {"inbound_nodes": [[["conv5_3_pool2_conv", 0, 0, {}]]], "config": {"scale": true, "beta_regularizer": null, "epsilon": 1e-05, "beta_initializer": {"config": {}, "class_name": "Zeros"}, "trainable": true, "name": "conv5_3_pool2_conv_bn", "moving_variance_initializer": {"config": {}, "class_name": "Ones"}, "gamma_initializer": {"config": {}, "class_name": "Ones"}, "axis": -1, "gamma_constraint": null, "moving_mean_initializer": {"config": {}, "class_name": "Zeros"}, "gamma_regularizer": null, "momentum": 0.95, "beta_constraint": null, "center": true}, "name": "conv5_3_pool2_conv_bn", "class_name": "BatchNormalization"}, {"inbound_nodes": [[["conv5_3_pool1_conv", 0, 0, {}]]], "config": {"scale": true, "beta_regularizer": null, "epsilon": 1e-05, "beta_initializer": {"config": {}, "class_name": "Zeros"}, "trainable": true, "name": "conv5_3_pool1_conv_bn", "moving_variance_initializer": {"config": {}, "class_name": "Ones"}, "gamma_initializer": {"config": {}, "class_name": "Ones"}, "axis": -1, "gamma_constraint": null, "moving_mean_initializer": {"config": {}, "class_name": "Zeros"}, "gamma_regularizer": null, "momentum": 0.95, "beta_constraint": null, "center": true}, "name": "conv5_3_pool1_conv_bn", "class_name": "BatchNormalization"}, {"inbound_nodes": [[["conv5_3_pool6_conv_bn", 0, 0, {}]]], "config": {"activation": "relu", "name": "activation_107", "trainable": true}, "name": "activation_107", "class_name": "Activation"}, {"inbound_nodes": [[["conv5_3_pool3_conv_bn", 0, 0, {}]]], "config": {"activation": "relu", "name": "activation_106", "trainable": true}, "name": "activation_106", "class_name": "Activation"}, {"inbound_nodes": [[["conv5_3_pool2_conv_bn", 0, 0, {}]]], "config": {"activation": "relu", "name": "activation_105", "trainable": true}, "name": "activation_105", "class_name": "Activation"}, {"inbound_nodes": [[["conv5_3_pool1_conv_bn", 0, 0, {}]]], "config": {"activation": "relu", "name": "activation_104", "trainable": true}, "name": "activation_104", "class_name": "Activation"}, {"inbound_nodes": [[["activation_107", 0, 0, {}]]], "config": {"function_type": "lambda", "output_shape_type": "raw", "function": ["\u00e3\u0002\u0000\u0000\u0000\u0000\u0000\u0000\u0000\u0006\u0000\u0000\u0000\u0005\u0000\u0000\u0000C\u0000\u0000\u0000sA\u0000\u0000\u0000d\u0001\u0000d\u0002\u0000l\u0000\u0000m\u0001\u0000}\u0002\u0000\u0001|\u0001\u0000\\\u0002\u0000}\u0003\u0000}\u0004\u0000|\u0002\u0000j\u0002\u0000j\u0003\u0000|\u0000\u0000|\u0003\u0000|\u0004\u0000g\u0002\u0000d\u0003\u0000d\u0004\u0000\u0083\u0002\u0001}\u0005\u0000|\u0005\u0000S)\u0005N\u00e9\u0000\u0000\u0000\u0000)\u0001\u00da\u0002tf\u00da\ralign_cornersT)\u0004Z\rkeras.backendr\u0002\u0000\u0000\u0000\u00da\u0005image\u00da\rresize_images)\u0006\u00da\u0001x\u00da\u0005shapeZ\u0003ktfZ\nnew_heightZ\tnew_width\u00da\u0007resized\u00a9\u0000r\t\u0000\u0000\u0000\u00faR/home/c-use/research/segmentation/pspnet/PSPNet-Keras-tensorflow/layers_builder.py\u00da\u0006Interp\u0011\u0000\u0000\u0000s\n\u0000\u0000\u0000\u0000\u0001\u0010\u0001\f\u0001\u0018\u0001\t\u0001", null, null], "output_shape": null, "arguments": {"shape": [60, 60]}, "name": "lambda_4", "trainable": true}, "name": "lambda_4", "class_name": "Lambda"}, {"inbound_nodes": [[["activation_106", 0, 0, {}]]], "config": {"function_type": "lambda", "output_shape_type": "raw", "function": ["\u00e3\u0002\u0000\u0000\u0000\u0000\u0000\u0000\u0000\u0006\u0000\u0000\u0000\u0005\u0000\u0000\u0000C\u0000\u0000\u0000sA\u0000\u0000\u0000d\u0001\u0000d\u0002\u0000l\u0000\u0000m\u0001\u0000}\u0002\u0000\u0001|\u0001\u0000\\\u0002\u0000}\u0003\u0000}\u0004\u0000|\u0002\u0000j\u0002\u0000j\u0003\u0000|\u0000\u0000|\u0003\u0000|\u0004\u0000g\u0002\u0000d\u0003\u0000d\u0004\u0000\u0083\u0002\u0001}\u0005\u0000|\u0005\u0000S)\u0005N\u00e9\u0000\u0000\u0000\u0000)\u0001\u00da\u0002tf\u00da\ralign_cornersT)\u0004Z\rkeras.backendr\u0002\u0000\u0000\u0000\u00da\u0005image\u00da\rresize_images)\u0006\u00da\u0001x\u00da\u0005shapeZ\u0003ktfZ\nnew_heightZ\tnew_width\u00da\u0007resized\u00a9\u0000r\t\u0000\u0000\u0000\u00faR/home/c-use/research/segmentation/pspnet/PSPNet-Keras-tensorflow/layers_builder.py\u00da\u0006Interp\u0011\u0000\u0000\u0000s\n\u0000\u0000\u0000\u0000\u0001\u0010\u0001\f\u0001\u0018\u0001\t\u0001", null, null], "output_shape": null, "arguments": {"shape": [60, 60]}, "name": "lambda_3", "trainable": true}, "name": "lambda_3", "class_name": "Lambda"}, {"inbound_nodes": [[["activation_105", 0, 0, {}]]], "config": {"function_type": "lambda", "output_shape_type": "raw", "function": ["\u00e3\u0002\u0000\u0000\u0000\u0000\u0000\u0000\u0000\u0006\u0000\u0000\u0000\u0005\u0000\u0000\u0000C\u0000\u0000\u0000sA\u0000\u0000\u0000d\u0001\u0000d\u0002\u0000l\u0000\u0000m\u0001\u0000}\u0002\u0000\u0001|\u0001\u0000\\\u0002\u0000}\u0003\u0000}\u0004\u0000|\u0002\u0000j\u0002\u0000j\u0003\u0000|\u0000\u0000|\u0003\u0000|\u0004\u0000g\u0002\u0000d\u0003\u0000d\u0004\u0000\u0083\u0002\u0001}\u0005\u0000|\u0005\u0000S)\u0005N\u00e9\u0000\u0000\u0000\u0000)\u0001\u00da\u0002tf\u00da\ralign_cornersT)\u0004Z\rkeras.backendr\u0002\u0000\u0000\u0000\u00da\u0005image\u00da\rresize_images)\u0006\u00da\u0001x\u00da\u0005shapeZ\u0003ktfZ\nnew_heightZ\tnew_width\u00da\u0007resized\u00a9\u0000r\t\u0000\u0000\u0000\u00faR/home/c-use/research/segmentation/pspnet/PSPNet-Keras-tensorflow/layers_builder.py\u00da\u0006Interp\u0011\u0000\u0000\u0000s\n\u0000\u0000\u0000\u0000\u0001\u0010\u0001\f\u0001\u0018\u0001\t\u0001", null, null], "output_shape": null, "arguments": {"shape": [60, 60]}, "name": "lambda_2", "trainable": true}, "name": "lambda_2", "class_name": "Lambda"}, {"inbound_nodes": [[["activation_104", 0, 0, {}]]], "config": {"function_type": "lambda", "output_shape_type": "raw", "function": ["\u00e3\u0002\u0000\u0000\u0000\u0000\u0000\u0000\u0000\u0006\u0000\u0000\u0000\u0005\u0000\u0000\u0000C\u0000\u0000\u0000sA\u0000\u0000\u0000d\u0001\u0000d\u0002\u0000l\u0000\u0000m\u0001\u0000}\u0002\u0000\u0001|\u0001\u0000\\\u0002\u0000}\u0003\u0000}\u0004\u0000|\u0002\u0000j\u0002\u0000j\u0003\u0000|\u0000\u0000|\u0003\u0000|\u0004\u0000g\u0002\u0000d\u0003\u0000d\u0004\u0000\u0083\u0002\u0001}\u0005\u0000|\u0005\u0000S)\u0005N\u00e9\u0000\u0000\u0000\u0000)\u0001\u00da\u0002tf\u00da\ralign_cornersT)\u0004Z\rkeras.backendr\u0002\u0000\u0000\u0000\u00da\u0005image\u00da\rresize_images)\u0006\u00da\u0001x\u00da\u0005shapeZ\u0003ktfZ\nnew_heightZ\tnew_width\u00da\u0007resized\u00a9\u0000r\t\u0000\u0000\u0000\u00faR/home/c-use/research/segmentation/pspnet/PSPNet-Keras-tensorflow/layers_builder.py\u00da\u0006Interp\u0011\u0000\u0000\u0000s\n\u0000\u0000\u0000\u0000\u0001\u0010\u0001\f\u0001\u0018\u0001\t\u0001", null, null], "output_shape": null, "arguments": {"shape": [60, 60]}, "name": "lambda_1", "trainable": true}, "name": "lambda_1", "class_name": "Lambda"}, {"inbound_nodes": [[["activation_103", 0, 0, {}], ["lambda_4", 0, 0, {}], ["lambda_3", 0, 0, {}], ["lambda_2", 0, 0, {}], ["lambda_1", 0, 0, {}]]], "config": {"axis": -1, "name": "concatenate_1", "trainable": true}, "name": "concatenate_1", "class_name": "Concatenate"}, {"inbound_nodes": [[["concatenate_1", 0, 0, {}]]], "config": {"activation": "linear", "use_bias": false, "dilation_rate": [1, 1], "bias_constraint": null, "kernel_initializer": {"config": {"mode": "fan_avg", "distribution": "uniform", "scale": 1.0, "seed": null}, "class_name": "VarianceScaling"}, "trainable": true, "data_format": "channels_last", "kernel_size": [3, 3], "kernel_constraint": null, "strides": [1, 1], "padding": "same", "filters": 512, "bias_regularizer": null, "activity_regularizer": null, "bias_initializer": {"config": {}, "class_name": "Zeros"}, "name": "conv5_4", "kernel_regularizer": null}, "name": "conv5_4", "class_name": "Conv2D"}, {"inbound_nodes": [[["conv5_4", 0, 0, {}]]], "config": {"scale": true, "beta_regularizer": null, "epsilon": 1e-05, "beta_initializer": {"config": {}, "class_name": "Zeros"}, "trainable": true, "name": "conv5_4_bn", "moving_variance_initializer": {"config": {}, "class_name": "Ones"}, "gamma_initializer": {"config": {}, "class_name": "Ones"}, "axis": -1, "gamma_constraint": null, "moving_mean_initializer": {"config": {}, "class_name": "Zeros"}, "gamma_regularizer": null, "momentum": 0.95, "beta_constraint": null, "center": true}, "name": "conv5_4_bn", "class_name": "BatchNormalization"}, {"inbound_nodes": [[["conv5_4_bn", 0, 0, {}]]], "config": {"activation": "relu", "name": "activation_108", "trainable": true}, "name": "activation_108", "class_name": "Activation"}, {"inbound_nodes": [[["activation_108", 0, 0, {}]]], "config": {"rate": 0.1, "name": "dropout_1", "trainable": true}, "name": "dropout_1", "class_name": "Dropout"}, {"inbound_nodes": [[["dropout_1", 0, 0, {}]]], "config": {"activation": "linear", "use_bias": true, "dilation_rate": [1, 1], "bias_constraint": null, "kernel_initializer": {"config": {"mode": "fan_avg", "distribution": "uniform", "scale": 1.0, "seed": null}, "class_name": "VarianceScaling"}, "trainable": true, "data_format": "channels_last", "kernel_size": [1, 1], "kernel_constraint": null, "strides": [1, 1], "padding": "valid", "filters": 21, "bias_regularizer": null, "activity_regularizer": null, "bias_initializer": {"config": {}, "class_name": "Zeros"}, "name": "conv6", "kernel_regularizer": null}, "name": "conv6", "class_name": "Conv2D"}, {"inbound_nodes": [[["conv6", 0, 0, {}]]], "config": {"function_type": "lambda", "output_shape_type": "raw", "function": ["\u00e3\u0002\u0000\u0000\u0000\u0000\u0000\u0000\u0000\u0006\u0000\u0000\u0000\u0005\u0000\u0000\u0000C\u0000\u0000\u0000sA\u0000\u0000\u0000d\u0001\u0000d\u0002\u0000l\u0000\u0000m\u0001\u0000}\u0002\u0000\u0001|\u0001\u0000\\\u0002\u0000}\u0003\u0000}\u0004\u0000|\u0002\u0000j\u0002\u0000j\u0003\u0000|\u0000\u0000|\u0003\u0000|\u0004\u0000g\u0002\u0000d\u0003\u0000d\u0004\u0000\u0083\u0002\u0001}\u0005\u0000|\u0005\u0000S)\u0005N\u00e9\u0000\u0000\u0000\u0000)\u0001\u00da\u0002tf\u00da\ralign_cornersT)\u0004Z\rkeras.backendr\u0002\u0000\u0000\u0000\u00da\u0005image\u00da\rresize_images)\u0006\u00da\u0001x\u00da\u0005shapeZ\u0003ktfZ\nnew_heightZ\tnew_width\u00da\u0007resized\u00a9\u0000r\t\u0000\u0000\u0000\u00faR/home/c-use/research/segmentation/pspnet/PSPNet-Keras-tensorflow/layers_builder.py\u00da\u0006Interp\u0011\u0000\u0000\u0000s\n\u0000\u0000\u0000\u0000\u0001\u0010\u0001\f\u0001\u0018\u0001\t\u0001", null, null], "output_shape": null, "arguments": {"shape": [473, 473]}, "name": "lambda_5", "trainable": true}, "name": "lambda_5", "class_name": "Lambda"}, {"inbound_nodes": [[["lambda_5", 0, 0, {}]]], "config": {"activation": "softmax", "name": "activation_109", "trainable": true}, "name": "activation_109", "class_name": "Activation"}]}, "keras_version": "2.0.6", "class_name": "Model", "backend": "tensorflow"}