{"backend": "tensorflow", "keras_version": "2.0.6", "config": {"input_layers": [["input_1", 0, 0]], "output_layers": [["activation_109", 0, 0]], "name": "model_1", "layers": [{"class_name": "InputLayer", "inbound_nodes": [], "name": "input_1", "config": {"dtype": "float32", "sparse": false, "name": "input_1", "batch_input_shape": [null, 713, 713, 3]}}, {"class_name": "Conv2D", "inbound_nodes": [[["input_1", 0, 0, {}]]], "name": "conv1_1_3x3_s2", "config": {"filters": 64, "name": "conv1_1_3x3_s2", "data_format": "channels_last", "activation": "linear", "bias_regularizer": null, "dilation_rate": [1, 1], "use_bias": false, "kernel_constraint": null, "strides": [2, 2], "padding": "same", "bias_constraint": null, "trainable": true, "bias_initializer": {"class_name": "Zeros", "config": {}}, "activity_regularizer": null, "kernel_regularizer": null, "kernel_size": [3, 3], "kernel_initializer": {"class_name": "VarianceScaling", "config": {"scale": 1.0, "mode": "fan_avg", "seed": null, "distribution": "uniform"}}}}, {"class_name": "BatchNormalization", "inbound_nodes": [[["conv1_1_3x3_s2", 0, 0, {}]]], "name": "conv1_1_3x3_s2_bn", "config": {"moving_mean_initializer": {"class_name": "Zeros", "config": {}}, "name": "conv1_1_3x3_s2_bn", "beta_regularizer": null, "beta_initializer": {"class_name": "Zeros", "config": {}}, "center": true, "gamma_regularizer": null, "epsilon": 1e-05, "momentum": 0.95, "gamma_initializer": {"class_name": "Ones", "config": {}}, "beta_constraint": null, "trainable": true, "axis": -1, "scale": true, "gamma_constraint": null, "moving_variance_initializer": {"class_name": "Ones", "config": {}}}}, {"class_name": "Activation", "inbound_nodes": [[["conv1_1_3x3_s2_bn", 0, 0, {}]]], "name": "activation_1", "config": {"activation": "relu", "name": "activation_1", "trainable": true}}, {"class_name": "Conv2D", "inbound_nodes": [[["activation_1", 0, 0, {}]]], "name": "conv1_2_3x3", "config": {"filters": 64, "name": "conv1_2_3x3", "data_format": "channels_last", "activation": "linear", "bias_regularizer": null, "dilation_rate": [1, 1], "use_bias": false, "kernel_constraint": null, "strides": [1, 1], "padding": "same", "bias_constraint": null, "trainable": true, "bias_initializer": {"class_name": "Zeros", "config": {}}, "activity_regularizer": null, "kernel_regularizer": null, "kernel_size": [3, 3], "kernel_initializer": {"class_name": "VarianceScaling", "config": {"scale": 1.0, "mode": "fan_avg", "seed": null, "distribution": "uniform"}}}}, {"class_name": "BatchNormalization", "inbound_nodes": [[["conv1_2_3x3", 0, 0, {}]]], "name": "conv1_2_3x3_bn", "config": {"moving_mean_initializer": {"class_name": "Zeros", "config": {}}, "name": "conv1_2_3x3_bn", "beta_regularizer": null, "beta_initializer": {"class_name": "Zeros", "config": {}}, "center": true, "gamma_regularizer": null, "epsilon": 1e-05, "momentum": 0.95, "gamma_initializer": {"class_name": "Ones", "config": {}}, "beta_constraint": null, "trainable": true, "axis": -1, "scale": true, "gamma_constraint": null, "moving_variance_initializer": {"class_name": "Ones", "config": {}}}}, {"class_name": "Activation", "inbound_nodes": [[["conv1_2_3x3_bn", 0, 0, {}]]], "name": "activation_2", "config": {"activation": "relu", "name": "activation_2", "trainable": true}}, {"class_name": "Conv2D", "inbound_nodes": [[["activation_2", 0, 0, {}]]], "name": "conv1_3_3x3", "config": {"filters": 128, "name": "conv1_3_3x3", "data_format": "channels_last", "activation": "linear", "bias_regularizer": null, "dilation_rate": [1, 1], "use_bias": false, "kernel_constraint": null, "strides": [1, 1], "padding": "same", "bias_constraint": null, "trainable": true, "bias_initializer": {"class_name": "Zeros", "config": {}}, "activity_regularizer": null, "kernel_regularizer": null, "kernel_size": [3, 3], "kernel_initializer": {"class_name": "VarianceScaling", "config": {"scale": 1.0, "mode": "fan_avg", "seed": null, "distribution": "uniform"}}}}, {"class_name": "BatchNormalization", "inbound_nodes": [[["conv1_3_3x3", 0, 0, {}]]], "name": "conv1_3_3x3_bn", "config": {"moving_mean_initializer": {"class_name": "Zeros", "config": {}}, "name": "conv1_3_3x3_bn", "beta_regularizer": null, "beta_initializer": {"class_name": "Zeros", "config": {}}, "center": true, "gamma_regularizer": null, "epsilon": 1e-05, "momentum": 0.95, "gamma_initializer": {"class_name": "Ones", "config": {}}, "beta_constraint": null, "trainable": true, "axis": -1, "scale": true, "gamma_constraint": null, "moving_variance_initializer": {"class_name": "Ones", "config": {}}}}, {"class_name": "Activation", "inbound_nodes": [[["conv1_3_3x3_bn", 0, 0, {}]]], "name": "activation_3", "config": {"activation": "relu", "name": "activation_3", "trainable": true}}, {"class_name": "MaxPooling2D", "inbound_nodes": [[["activation_3", 0, 0, {}]]], "name": "max_pooling2d_1", "config": {"pool_size": [3, 3], "name": "max_pooling2d_1", "data_format": "channels_last", "padding": "same", "trainable": true, "strides": [2, 2]}}, {"class_name": "Activation", "inbound_nodes": [[["max_pooling2d_1", 0, 0, {}]]], "name": "activation_4", "config": {"activation": "relu", "name": "activation_4", "trainable": true}}, {"class_name": "Conv2D", "inbound_nodes": [[["activation_4", 0, 0, {}]]], "name": "conv2_1_1x1_reduce", "config": {"filters": 64, "name": "conv2_1_1x1_reduce", "data_format": "channels_last", "activation": "linear", "bias_regularizer": null, "dilation_rate": [1, 1], "use_bias": false, "kernel_constraint": null, "strides": [1, 1], "padding": "valid", "bias_constraint": null, "trainable": true, "bias_initializer": {"class_name": "Zeros", "config": {}}, "activity_regularizer": null, "kernel_regularizer": null, "kernel_size": [1, 1], "kernel_initializer": {"class_name": "VarianceScaling", "config": {"scale": 1.0, "mode": "fan_avg", "seed": null, "distribution": "uniform"}}}}, {"class_name": "BatchNormalization", "inbound_nodes": [[["conv2_1_1x1_reduce", 0, 0, {}]]], "name": "conv2_1_1x1_reduce_bn", "config": {"moving_mean_initializer": {"class_name": "Zeros", "config": {}}, "name": "conv2_1_1x1_reduce_bn", "beta_regularizer": null, "beta_initializer": {"class_name": "Zeros", "config": {}}, "center": true, "gamma_regularizer": null, "epsilon": 1e-05, "momentum": 0.95, "gamma_initializer": {"class_name": "Ones", "config": {}}, "beta_constraint": null, "trainable": true, "axis": -1, "scale": true, "gamma_constraint": null, "moving_variance_initializer": {"class_name": "Ones", "config": {}}}}, {"class_name": "Activation", "inbound_nodes": [[["conv2_1_1x1_reduce_bn", 0, 0, {}]]], "name": "activation_5", "config": {"activation": "relu", "name": "activation_5", "trainable": true}}, {"class_name": "ZeroPadding2D", "inbound_nodes": [[["activation_5", 0, 0, {}]]], "name": "zero_padding2d_1", "config": {"padding": [[1, 1], [1, 1]], "name": "zero_padding2d_1", "trainable": true, "data_format": "channels_last"}}, {"class_name": "Conv2D", "inbound_nodes": [[["zero_padding2d_1", 0, 0, {}]]], "name": "conv2_1_3x3", "config": {"filters": 64, "name": "conv2_1_3x3", "data_format": "channels_last", "activation": "linear", "bias_regularizer": null, "dilation_rate": [1, 1], "use_bias": false, "kernel_constraint": null, "strides": [1, 1], "padding": "valid", "bias_constraint": null, "trainable": true, "bias_initializer": {"class_name": "Zeros", "config": {}}, "activity_regularizer": null, "kernel_regularizer": null, "kernel_size": [3, 3], "kernel_initializer": {"class_name": "VarianceScaling", "config": {"scale": 1.0, "mode": "fan_avg", "seed": null, "distribution": "uniform"}}}}, {"class_name": "BatchNormalization", "inbound_nodes": [[["conv2_1_3x3", 0, 0, {}]]], "name": "conv2_1_3x3_bn", "config": {"moving_mean_initializer": {"class_name": "Zeros", "config": {}}, "name": "conv2_1_3x3_bn", "beta_regularizer": null, "beta_initializer": {"class_name": "Zeros", "config": {}}, "center": true, "gamma_regularizer": null, "epsilon": 1e-05, "momentum": 0.95, "gamma_initializer": {"class_name": "Ones", "config": {}}, "beta_constraint": null, "trainable": true, "axis": -1, "scale": true, "gamma_constraint": null, "moving_variance_initializer": {"class_name": "Ones", "config": {}}}}, {"class_name": "Activation", "inbound_nodes": [[["conv2_1_3x3_bn", 0, 0, {}]]], "name": "activation_6", "config": {"activation": "relu", "name": "activation_6", "trainable": true}}, {"class_name": "Conv2D", "inbound_nodes": [[["activation_6", 0, 0, {}]]], "name": "conv2_1_1x1_increase", "config": {"filters": 256, "name": "conv2_1_1x1_increase", "data_format": "channels_last", "activation": "linear", "bias_regularizer": null, "dilation_rate": [1, 1], "use_bias": false, "kernel_constraint": null, "strides": [1, 1], "padding": "valid", "bias_constraint": null, "trainable": true, "bias_initializer": {"class_name": "Zeros", "config": {}}, "activity_regularizer": null, "kernel_regularizer": null, "kernel_size": [1, 1], "kernel_initializer": {"class_name": "VarianceScaling", "config": {"scale": 1.0, "mode": "fan_avg", "seed": null, "distribution": "uniform"}}}}, {"class_name": "Conv2D", "inbound_nodes": [[["activation_4", 0, 0, {}]]], "name": "conv2_1_1x1_proj", "config": {"filters": 256, "name": "conv2_1_1x1_proj", "data_format": "channels_last", "activation": "linear", "bias_regularizer": null, "dilation_rate": [1, 1], "use_bias": false, "kernel_constraint": null, "strides": [1, 1], "padding": "valid", "bias_constraint": null, "trainable": true, "bias_initializer": {"class_name": "Zeros", "config": {}}, "activity_regularizer": null, "kernel_regularizer": null, "kernel_size": [1, 1], "kernel_initializer": {"class_name": "VarianceScaling", "config": {"scale": 1.0, "mode": "fan_avg", "seed": null, "distribution": "uniform"}}}}, {"class_name": "BatchNormalization", "inbound_nodes": [[["conv2_1_1x1_increase", 0, 0, {}]]], "name": "conv2_1_1x1_increase_bn", "config": {"moving_mean_initializer": {"class_name": "Zeros", "config": {}}, "name": "conv2_1_1x1_increase_bn", "beta_regularizer": null, "beta_initializer": {"class_name": "Zeros", "config": {}}, "center": true, "gamma_regularizer": null, "epsilon": 1e-05, "momentum": 0.95, "gamma_initializer": {"class_name": "Ones", "config": {}}, "beta_constraint": null, "trainable": true, "axis": -1, "scale": true, "gamma_constraint": null, "moving_variance_initializer": {"class_name": "Ones", "config": {}}}}, {"class_name": "BatchNormalization", "inbound_nodes": [[["conv2_1_1x1_proj", 0, 0, {}]]], "name": "conv2_1_1x1_proj_bn", "config": {"moving_mean_initializer": {"class_name": "Zeros", "config": {}}, "name": "conv2_1_1x1_proj_bn", "beta_regularizer": null, "beta_initializer": {"class_name": "Zeros", "config": {}}, "center": true, "gamma_regularizer": null, "epsilon": 1e-05, "momentum": 0.95, "gamma_initializer": {"class_name": "Ones", "config": {}}, "beta_constraint": null, "trainable": true, "axis": -1, "scale": true, "gamma_constraint": null, "moving_variance_initializer": {"class_name": "Ones", "config": {}}}}, {"class_name": "Add", "inbound_nodes": [[["conv2_1_1x1_increase_bn", 0, 0, {}], ["conv2_1_1x1_proj_bn", 0, 0, {}]]], "name": "add_1", "config": {"name": "add_1", "trainable": true}}, {"class_name": "Activation", "inbound_nodes": [[["add_1", 0, 0, {}]]], "name": "activation_7", "config": {"activation": "relu", "name": "activation_7", "trainable": true}}, {"class_name": "Conv2D", "inbound_nodes": [[["activation_7", 0, 0, {}]]], "name": "conv2_2_1x1_reduce", "config": {"filters": 64, "name": "conv2_2_1x1_reduce", "data_format": "channels_last", "activation": "linear", "bias_regularizer": null, "dilation_rate": [1, 1], "use_bias": false, "kernel_constraint": null, "strides": [1, 1], "padding": "valid", "bias_constraint": null, "trainable": true, "bias_initializer": {"class_name": "Zeros", "config": {}}, "activity_regularizer": null, "kernel_regularizer": null, "kernel_size": [1, 1], "kernel_initializer": {"class_name": "VarianceScaling", "config": {"scale": 1.0, "mode": "fan_avg", "seed": null, "distribution": "uniform"}}}}, {"class_name": "BatchNormalization", "inbound_nodes": [[["conv2_2_1x1_reduce", 0, 0, {}]]], "name": "conv2_2_1x1_reduce_bn", "config": {"moving_mean_initializer": {"class_name": "Zeros", "config": {}}, "name": "conv2_2_1x1_reduce_bn", "beta_regularizer": null, "beta_initializer": {"class_name": "Zeros", "config": {}}, "center": true, "gamma_regularizer": null, "epsilon": 1e-05, "momentum": 0.95, "gamma_initializer": {"class_name": "Ones", "config": {}}, "beta_constraint": null, "trainable": true, "axis": -1, "scale": true, "gamma_constraint": null, "moving_variance_initializer": {"class_name": "Ones", "config": {}}}}, {"class_name": "Activation", "inbound_nodes": [[["conv2_2_1x1_reduce_bn", 0, 0, {}]]], "name": "activation_8", "config": {"activation": "relu", "name": "activation_8", "trainable": true}}, {"class_name": "ZeroPadding2D", "inbound_nodes": [[["activation_8", 0, 0, {}]]], "name": "zero_padding2d_2", "config": {"padding": [[1, 1], [1, 1]], "name": "zero_padding2d_2", "trainable": true, "data_format": "channels_last"}}, {"class_name": "Conv2D", "inbound_nodes": [[["zero_padding2d_2", 0, 0, {}]]], "name": "conv2_2_3x3", "config": {"filters": 64, "name": "conv2_2_3x3", "data_format": "channels_last", "activation": "linear", "bias_regularizer": null, "dilation_rate": [1, 1], "use_bias": false, "kernel_constraint": null, "strides": [1, 1], "padding": "valid", "bias_constraint": null, "trainable": true, "bias_initializer": {"class_name": "Zeros", "config": {}}, "activity_regularizer": null, "kernel_regularizer": null, "kernel_size": [3, 3], "kernel_initializer": {"class_name": "VarianceScaling", "config": {"scale": 1.0, "mode": "fan_avg", "seed": null, "distribution": "uniform"}}}}, {"class_name": "BatchNormalization", "inbound_nodes": [[["conv2_2_3x3", 0, 0, {}]]], "name": "conv2_2_3x3_bn", "config": {"moving_mean_initializer": {"class_name": "Zeros", "config": {}}, "name": "conv2_2_3x3_bn", "beta_regularizer": null, "beta_initializer": {"class_name": "Zeros", "config": {}}, "center": true, "gamma_regularizer": null, "epsilon": 1e-05, "momentum": 0.95, "gamma_initializer": {"class_name": "Ones", "config": {}}, "beta_constraint": null, "trainable": true, "axis": -1, "scale": true, "gamma_constraint": null, "moving_variance_initializer": {"class_name": "Ones", "config": {}}}}, {"class_name": "Activation", "inbound_nodes": [[["conv2_2_3x3_bn", 0, 0, {}]]], "name": "activation_9", "config": {"activation": "relu", "name": "activation_9", "trainable": true}}, {"class_name": "Conv2D", "inbound_nodes": [[["activation_9", 0, 0, {}]]], "name": "conv2_2_1x1_increase", "config": {"filters": 256, "name": "conv2_2_1x1_increase", "data_format": "channels_last", "activation": "linear", "bias_regularizer": null, "dilation_rate": [1, 1], "use_bias": false, "kernel_constraint": null, "strides": [1, 1], "padding": "valid", "bias_constraint": null, "trainable": true, "bias_initializer": {"class_name": "Zeros", "config": {}}, "activity_regularizer": null, "kernel_regularizer": null, "kernel_size": [1, 1], "kernel_initializer": {"class_name": "VarianceScaling", "config": {"scale": 1.0, "mode": "fan_avg", "seed": null, "distribution": "uniform"}}}}, {"class_name": "BatchNormalization", "inbound_nodes": [[["conv2_2_1x1_increase", 0, 0, {}]]], "name": "conv2_2_1x1_increase_bn", "config": {"moving_mean_initializer": {"class_name": "Zeros", "config": {}}, "name": "conv2_2_1x1_increase_bn", "beta_regularizer": null, "beta_initializer": {"class_name": "Zeros", "config": {}}, "center": true, "gamma_regularizer": null, "epsilon": 1e-05, "momentum": 0.95, "gamma_initializer": {"class_name": "Ones", "config": {}}, "beta_constraint": null, "trainable": true, "axis": -1, "scale": true, "gamma_constraint": null, "moving_variance_initializer": {"class_name": "Ones", "config": {}}}}, {"class_name": "Add", "inbound_nodes": [[["conv2_2_1x1_increase_bn", 0, 0, {}], ["activation_7", 0, 0, {}]]], "name": "add_2", "config": {"name": "add_2", "trainable": true}}, {"class_name": "Activation", "inbound_nodes": [[["add_2", 0, 0, {}]]], "name": "activation_10", "config": {"activation": "relu", "name": "activation_10", "trainable": true}}, {"class_name": "Conv2D", "inbound_nodes": [[["activation_10", 0, 0, {}]]], "name": "conv2_3_1x1_reduce", "config": {"filters": 64, "name": "conv2_3_1x1_reduce", "data_format": "channels_last", "activation": "linear", "bias_regularizer": null, "dilation_rate": [1, 1], "use_bias": false, "kernel_constraint": null, "strides": [1, 1], "padding": "valid", "bias_constraint": null, "trainable": true, "bias_initializer": {"class_name": "Zeros", "config": {}}, "activity_regularizer": null, "kernel_regularizer": null, "kernel_size": [1, 1], "kernel_initializer": {"class_name": "VarianceScaling", "config": {"scale": 1.0, "mode": "fan_avg", "seed": null, "distribution": "uniform"}}}}, {"class_name": "BatchNormalization", "inbound_nodes": [[["conv2_3_1x1_reduce", 0, 0, {}]]], "name": "conv2_3_1x1_reduce_bn", "config": {"moving_mean_initializer": {"class_name": "Zeros", "config": {}}, "name": "conv2_3_1x1_reduce_bn", "beta_regularizer": null, "beta_initializer": {"class_name": "Zeros", "config": {}}, "center": true, "gamma_regularizer": null, "epsilon": 1e-05, "momentum": 0.95, "gamma_initializer": {"class_name": "Ones", "config": {}}, "beta_constraint": null, "trainable": true, "axis": -1, "scale": true, "gamma_constraint": null, "moving_variance_initializer": {"class_name": "Ones", "config": {}}}}, {"class_name": "Activation", "inbound_nodes": [[["conv2_3_1x1_reduce_bn", 0, 0, {}]]], "name": "activation_11", "config": {"activation": "relu", "name": "activation_11", "trainable": true}}, {"class_name": "ZeroPadding2D", "inbound_nodes": [[["activation_11", 0, 0, {}]]], "name": "zero_padding2d_3", "config": {"padding": [[1, 1], [1, 1]], "name": "zero_padding2d_3", "trainable": true, "data_format": "channels_last"}}, {"class_name": "Conv2D", "inbound_nodes": [[["zero_padding2d_3", 0, 0, {}]]], "name": "conv2_3_3x3", "config": {"filters": 64, "name": "conv2_3_3x3", "data_format": "channels_last", "activation": "linear", "bias_regularizer": null, "dilation_rate": [1, 1], "use_bias": false, "kernel_constraint": null, "strides": [1, 1], "padding": "valid", "bias_constraint": null, "trainable": true, "bias_initializer": {"class_name": "Zeros", "config": {}}, "activity_regularizer": null, "kernel_regularizer": null, "kernel_size": [3, 3], "kernel_initializer": {"class_name": "VarianceScaling", "config": {"scale": 1.0, "mode": "fan_avg", "seed": null, "distribution": "uniform"}}}}, {"class_name": "BatchNormalization", "inbound_nodes": [[["conv2_3_3x3", 0, 0, {}]]], "name": "conv2_3_3x3_bn", "config": {"moving_mean_initializer": {"class_name": "Zeros", "config": {}}, "name": "conv2_3_3x3_bn", "beta_regularizer": null, "beta_initializer": {"class_name": "Zeros", "config": {}}, "center": true, "gamma_regularizer": null, "epsilon": 1e-05, "momentum": 0.95, "gamma_initializer": {"class_name": "Ones", "config": {}}, "beta_constraint": null, "trainable": true, "axis": -1, "scale": true, "gamma_constraint": null, "moving_variance_initializer": {"class_name": "Ones", "config": {}}}}, {"class_name": "Activation", "inbound_nodes": [[["conv2_3_3x3_bn", 0, 0, {}]]], "name": "activation_12", "config": {"activation": "relu", "name": "activation_12", "trainable": true}}, {"class_name": "Conv2D", "inbound_nodes": [[["activation_12", 0, 0, {}]]], "name": "conv2_3_1x1_increase", "config": {"filters": 256, "name": "conv2_3_1x1_increase", "data_format": "channels_last", "activation": "linear", "bias_regularizer": null, "dilation_rate": [1, 1], "use_bias": false, "kernel_constraint": null, "strides": [1, 1], "padding": "valid", "bias_constraint": null, "trainable": true, "bias_initializer": {"class_name": "Zeros", "config": {}}, "activity_regularizer": null, "kernel_regularizer": null, "kernel_size": [1, 1], "kernel_initializer": {"class_name": "VarianceScaling", "config": {"scale": 1.0, "mode": "fan_avg", "seed": null, "distribution": "uniform"}}}}, {"class_name": "BatchNormalization", "inbound_nodes": [[["conv2_3_1x1_increase", 0, 0, {}]]], "name": "conv2_3_1x1_increase_bn", "config": {"moving_mean_initializer": {"class_name": "Zeros", "config": {}}, "name": "conv2_3_1x1_increase_bn", "beta_regularizer": null, "beta_initializer": {"class_name": "Zeros", "config": {}}, "center": true, "gamma_regularizer": null, "epsilon": 1e-05, "momentum": 0.95, "gamma_initializer": {"class_name": "Ones", "config": {}}, "beta_constraint": null, "trainable": true, "axis": -1, "scale": true, "gamma_constraint": null, "moving_variance_initializer": {"class_name": "Ones", "config": {}}}}, {"class_name": "Add", "inbound_nodes": [[["conv2_3_1x1_increase_bn", 0, 0, {}], ["activation_10", 0, 0, {}]]], "name": "add_3", "config": {"name": "add_3", "trainable": true}}, {"class_name": "Activation", "inbound_nodes": [[["add_3", 0, 0, {}]]], "name": "activation_13", "config": {"activation": "relu", "name": "activation_13", "trainable": true}}, {"class_name": "Conv2D", "inbound_nodes": [[["activation_13", 0, 0, {}]]], "name": "conv3_1_1x1_reduce", "config": {"filters": 128, "name": "conv3_1_1x1_reduce", "data_format": "channels_last", "activation": "linear", "bias_regularizer": null, "dilation_rate": [1, 1], "use_bias": false, "kernel_constraint": null, "strides": [2, 2], "padding": "valid", "bias_constraint": null, "trainable": true, "bias_initializer": {"class_name": "Zeros", "config": {}}, "activity_regularizer": null, "kernel_regularizer": null, "kernel_size": [1, 1], "kernel_initializer": {"class_name": "VarianceScaling", "config": {"scale": 1.0, "mode": "fan_avg", "seed": null, "distribution": "uniform"}}}}, {"class_name": "BatchNormalization", "inbound_nodes": [[["conv3_1_1x1_reduce", 0, 0, {}]]], "name": "conv3_1_1x1_reduce_bn", "config": {"moving_mean_initializer": {"class_name": "Zeros", "config": {}}, "name": "conv3_1_1x1_reduce_bn", "beta_regularizer": null, "beta_initializer": {"class_name": "Zeros", "config": {}}, "center": true, "gamma_regularizer": null, "epsilon": 1e-05, "momentum": 0.95, "gamma_initializer": {"class_name": "Ones", "config": {}}, "beta_constraint": null, "trainable": true, "axis": -1, "scale": true, "gamma_constraint": null, "moving_variance_initializer": {"class_name": "Ones", "config": {}}}}, {"class_name": "Activation", "inbound_nodes": [[["conv3_1_1x1_reduce_bn", 0, 0, {}]]], "name": "activation_14", "config": {"activation": "relu", "name": "activation_14", "trainable": true}}, {"class_name": "ZeroPadding2D", "inbound_nodes": [[["activation_14", 0, 0, {}]]], "name": "zero_padding2d_4", "config": {"padding": [[1, 1], [1, 1]], "name": "zero_padding2d_4", "trainable": true, "data_format": "channels_last"}}, {"class_name": "Conv2D", "inbound_nodes": [[["zero_padding2d_4", 0, 0, {}]]], "name": "conv3_1_3x3", "config": {"filters": 128, "name": "conv3_1_3x3", "data_format": "channels_last", "activation": "linear", "bias_regularizer": null, "dilation_rate": [1, 1], "use_bias": false, "kernel_constraint": null, "strides": [1, 1], "padding": "valid", "bias_constraint": null, "trainable": true, "bias_initializer": {"class_name": "Zeros", "config": {}}, "activity_regularizer": null, "kernel_regularizer": null, "kernel_size": [3, 3], "kernel_initializer": {"class_name": "VarianceScaling", "config": {"scale": 1.0, "mode": "fan_avg", "seed": null, "distribution": "uniform"}}}}, {"class_name": "BatchNormalization", "inbound_nodes": [[["conv3_1_3x3", 0, 0, {}]]], "name": "conv3_1_3x3_bn", "config": {"moving_mean_initializer": {"class_name": "Zeros", "config": {}}, "name": "conv3_1_3x3_bn", "beta_regularizer": null, "beta_initializer": {"class_name": "Zeros", "config": {}}, "center": true, "gamma_regularizer": null, "epsilon": 1e-05, "momentum": 0.95, "gamma_initializer": {"class_name": "Ones", "config": {}}, "beta_constraint": null, "trainable": true, "axis": -1, "scale": true, "gamma_constraint": null, "moving_variance_initializer": {"class_name": "Ones", "config": {}}}}, {"class_name": "Activation", "inbound_nodes": [[["conv3_1_3x3_bn", 0, 0, {}]]], "name": "activation_15", "config": {"activation": "relu", "name": "activation_15", "trainable": true}}, {"class_name": "Conv2D", "inbound_nodes": [[["activation_15", 0, 0, {}]]], "name": "conv3_1_1x1_increase", "config": {"filters": 512, "name": "conv3_1_1x1_increase", "data_format": "channels_last", "activation": "linear", "bias_regularizer": null, "dilation_rate": [1, 1], "use_bias": false, "kernel_constraint": null, "strides": [1, 1], "padding": "valid", "bias_constraint": null, "trainable": true, "bias_initializer": {"class_name": "Zeros", "config": {}}, "activity_regularizer": null, "kernel_regularizer": null, "kernel_size": [1, 1], "kernel_initializer": {"class_name": "VarianceScaling", "config": {"scale": 1.0, "mode": "fan_avg", "seed": null, "distribution": "uniform"}}}}, {"class_name": "Conv2D", "inbound_nodes": [[["activation_13", 0, 0, {}]]], "name": "conv3_1_1x1_proj", "config": {"filters": 512, "name": "conv3_1_1x1_proj", "data_format": "channels_last", "activation": "linear", "bias_regularizer": null, "dilation_rate": [1, 1], "use_bias": false, "kernel_constraint": null, "strides": [2, 2], "padding": "valid", "bias_constraint": null, "trainable": true, "bias_initializer": {"class_name": "Zeros", "config": {}}, "activity_regularizer": null, "kernel_regularizer": null, "kernel_size": [1, 1], "kernel_initializer": {"class_name": "VarianceScaling", "config": {"scale": 1.0, "mode": "fan_avg", "seed": null, "distribution": "uniform"}}}}, {"class_name": "BatchNormalization", "inbound_nodes": [[["conv3_1_1x1_increase", 0, 0, {}]]], "name": "conv3_1_1x1_increase_bn", "config": {"moving_mean_initializer": {"class_name": "Zeros", "config": {}}, "name": "conv3_1_1x1_increase_bn", "beta_regularizer": null, "beta_initializer": {"class_name": "Zeros", "config": {}}, "center": true, "gamma_regularizer": null, "epsilon": 1e-05, "momentum": 0.95, "gamma_initializer": {"class_name": "Ones", "config": {}}, "beta_constraint": null, "trainable": true, "axis": -1, "scale": true, "gamma_constraint": null, "moving_variance_initializer": {"class_name": "Ones", "config": {}}}}, {"class_name": "BatchNormalization", "inbound_nodes": [[["conv3_1_1x1_proj", 0, 0, {}]]], "name": "conv3_1_1x1_proj_bn", "config": {"moving_mean_initializer": {"class_name": "Zeros", "config": {}}, "name": "conv3_1_1x1_proj_bn", "beta_regularizer": null, "beta_initializer": {"class_name": "Zeros", "config": {}}, "center": true, "gamma_regularizer": null, "epsilon": 1e-05, "momentum": 0.95, "gamma_initializer": {"class_name": "Ones", "config": {}}, "beta_constraint": null, "trainable": true, "axis": -1, "scale": true, "gamma_constraint": null, "moving_variance_initializer": {"class_name": "Ones", "config": {}}}}, {"class_name": "Add", "inbound_nodes": [[["conv3_1_1x1_increase_bn", 0, 0, {}], ["conv3_1_1x1_proj_bn", 0, 0, {}]]], "name": "add_4", "config": {"name": "add_4", "trainable": true}}, {"class_name": "Activation", "inbound_nodes": [[["add_4", 0, 0, {}]]], "name": "activation_16", "config": {"activation": "relu", "name": "activation_16", "trainable": true}}, {"class_name": "Conv2D", "inbound_nodes": [[["activation_16", 0, 0, {}]]], "name": "conv3_2_1x1_reduce", "config": {"filters": 128, "name": "conv3_2_1x1_reduce", "data_format": "channels_last", "activation": "linear", "bias_regularizer": null, "dilation_rate": [1, 1], "use_bias": false, "kernel_constraint": null, "strides": [1, 1], "padding": "valid", "bias_constraint": null, "trainable": true, "bias_initializer": {"class_name": "Zeros", "config": {}}, "activity_regularizer": null, "kernel_regularizer": null, "kernel_size": [1, 1], "kernel_initializer": {"class_name": "VarianceScaling", "config": {"scale": 1.0, "mode": "fan_avg", "seed": null, "distribution": "uniform"}}}}, {"class_name": "BatchNormalization", "inbound_nodes": [[["conv3_2_1x1_reduce", 0, 0, {}]]], "name": "conv3_2_1x1_reduce_bn", "config": {"moving_mean_initializer": {"class_name": "Zeros", "config": {}}, "name": "conv3_2_1x1_reduce_bn", "beta_regularizer": null, "beta_initializer": {"class_name": "Zeros", "config": {}}, "center": true, "gamma_regularizer": null, "epsilon": 1e-05, "momentum": 0.95, "gamma_initializer": {"class_name": "Ones", "config": {}}, "beta_constraint": null, "trainable": true, "axis": -1, "scale": true, "gamma_constraint": null, "moving_variance_initializer": {"class_name": "Ones", "config": {}}}}, {"class_name": "Activation", "inbound_nodes": [[["conv3_2_1x1_reduce_bn", 0, 0, {}]]], "name": "activation_17", "config": {"activation": "relu", "name": "activation_17", "trainable": true}}, {"class_name": "ZeroPadding2D", "inbound_nodes": [[["activation_17", 0, 0, {}]]], "name": "zero_padding2d_5", "config": {"padding": [[1, 1], [1, 1]], "name": "zero_padding2d_5", "trainable": true, "data_format": "channels_last"}}, {"class_name": "Conv2D", "inbound_nodes": [[["zero_padding2d_5", 0, 0, {}]]], "name": "conv3_2_3x3", "config": {"filters": 128, "name": "conv3_2_3x3", "data_format": "channels_last", "activation": "linear", "bias_regularizer": null, "dilation_rate": [1, 1], "use_bias": false, "kernel_constraint": null, "strides": [1, 1], "padding": "valid", "bias_constraint": null, "trainable": true, "bias_initializer": {"class_name": "Zeros", "config": {}}, "activity_regularizer": null, "kernel_regularizer": null, "kernel_size": [3, 3], "kernel_initializer": {"class_name": "VarianceScaling", "config": {"scale": 1.0, "mode": "fan_avg", "seed": null, "distribution": "uniform"}}}}, {"class_name": "BatchNormalization", "inbound_nodes": [[["conv3_2_3x3", 0, 0, {}]]], "name": "conv3_2_3x3_bn", "config": {"moving_mean_initializer": {"class_name": "Zeros", "config": {}}, "name": "conv3_2_3x3_bn", "beta_regularizer": null, "beta_initializer": {"class_name": "Zeros", "config": {}}, "center": true, "gamma_regularizer": null, "epsilon": 1e-05, "momentum": 0.95, "gamma_initializer": {"class_name": "Ones", "config": {}}, "beta_constraint": null, "trainable": true, "axis": -1, "scale": true, "gamma_constraint": null, "moving_variance_initializer": {"class_name": "Ones", "config": {}}}}, {"class_name": "Activation", "inbound_nodes": [[["conv3_2_3x3_bn", 0, 0, {}]]], "name": "activation_18", "config": {"activation": "relu", "name": "activation_18", "trainable": true}}, {"class_name": "Conv2D", "inbound_nodes": [[["activation_18", 0, 0, {}]]], "name": "conv3_2_1x1_increase", "config": {"filters": 512, "name": "conv3_2_1x1_increase", "data_format": "channels_last", "activation": "linear", "bias_regularizer": null, "dilation_rate": [1, 1], "use_bias": false, "kernel_constraint": null, "strides": [1, 1], "padding": "valid", "bias_constraint": null, "trainable": true, "bias_initializer": {"class_name": "Zeros", "config": {}}, "activity_regularizer": null, "kernel_regularizer": null, "kernel_size": [1, 1], "kernel_initializer": {"class_name": "VarianceScaling", "config": {"scale": 1.0, "mode": "fan_avg", "seed": null, "distribution": "uniform"}}}}, {"class_name": "BatchNormalization", "inbound_nodes": [[["conv3_2_1x1_increase", 0, 0, {}]]], "name": "conv3_2_1x1_increase_bn", "config": {"moving_mean_initializer": {"class_name": "Zeros", "config": {}}, "name": "conv3_2_1x1_increase_bn", "beta_regularizer": null, "beta_initializer": {"class_name": "Zeros", "config": {}}, "center": true, "gamma_regularizer": null, "epsilon": 1e-05, "momentum": 0.95, "gamma_initializer": {"class_name": "Ones", "config": {}}, "beta_constraint": null, "trainable": true, "axis": -1, "scale": true, "gamma_constraint": null, "moving_variance_initializer": {"class_name": "Ones", "config": {}}}}, {"class_name": "Add", "inbound_nodes": [[["conv3_2_1x1_increase_bn", 0, 0, {}], ["activation_16", 0, 0, {}]]], "name": "add_5", "config": {"name": "add_5", "trainable": true}}, {"class_name": "Activation", "inbound_nodes": [[["add_5", 0, 0, {}]]], "name": "activation_19", "config": {"activation": "relu", "name": "activation_19", "trainable": true}}, {"class_name": "Conv2D", "inbound_nodes": [[["activation_19", 0, 0, {}]]], "name": "conv3_3_1x1_reduce", "config": {"filters": 128, "name": "conv3_3_1x1_reduce", "data_format": "channels_last", "activation": "linear", "bias_regularizer": null, "dilation_rate": [1, 1], "use_bias": false, "kernel_constraint": null, "strides": [1, 1], "padding": "valid", "bias_constraint": null, "trainable": true, "bias_initializer": {"class_name": "Zeros", "config": {}}, "activity_regularizer": null, "kernel_regularizer": null, "kernel_size": [1, 1], "kernel_initializer": {"class_name": "VarianceScaling", "config": {"scale": 1.0, "mode": "fan_avg", "seed": null, "distribution": "uniform"}}}}, {"class_name": "BatchNormalization", "inbound_nodes": [[["conv3_3_1x1_reduce", 0, 0, {}]]], "name": "conv3_3_1x1_reduce_bn", "config": {"moving_mean_initializer": {"class_name": "Zeros", "config": {}}, "name": "conv3_3_1x1_reduce_bn", "beta_regularizer": null, "beta_initializer": {"class_name": "Zeros", "config": {}}, "center": true, "gamma_regularizer": null, "epsilon": 1e-05, "momentum": 0.95, "gamma_initializer": {"class_name": "Ones", "config": {}}, "beta_constraint": null, "trainable": true, "axis": -1, "scale": true, "gamma_constraint": null, "moving_variance_initializer": {"class_name": "Ones", "config": {}}}}, {"class_name": "Activation", "inbound_nodes": [[["conv3_3_1x1_reduce_bn", 0, 0, {}]]], "name": "activation_20", "config": {"activation": "relu", "name": "activation_20", "trainable": true}}, {"class_name": "ZeroPadding2D", "inbound_nodes": [[["activation_20", 0, 0, {}]]], "name": "zero_padding2d_6", "config": {"padding": [[1, 1], [1, 1]], "name": "zero_padding2d_6", "trainable": true, "data_format": "channels_last"}}, {"class_name": "Conv2D", "inbound_nodes": [[["zero_padding2d_6", 0, 0, {}]]], "name": "conv3_3_3x3", "config": {"filters": 128, "name": "conv3_3_3x3", "data_format": "channels_last", "activation": "linear", "bias_regularizer": null, "dilation_rate": [1, 1], "use_bias": false, "kernel_constraint": null, "strides": [1, 1], "padding": "valid", "bias_constraint": null, "trainable": true, "bias_initializer": {"class_name": "Zeros", "config": {}}, "activity_regularizer": null, "kernel_regularizer": null, "kernel_size": [3, 3], "kernel_initializer": {"class_name": "VarianceScaling", "config": {"scale": 1.0, "mode": "fan_avg", "seed": null, "distribution": "uniform"}}}}, {"class_name": "BatchNormalization", "inbound_nodes": [[["conv3_3_3x3", 0, 0, {}]]], "name": "conv3_3_3x3_bn", "config": {"moving_mean_initializer": {"class_name": "Zeros", "config": {}}, "name": "conv3_3_3x3_bn", "beta_regularizer": null, "beta_initializer": {"class_name": "Zeros", "config": {}}, "center": true, "gamma_regularizer": null, "epsilon": 1e-05, "momentum": 0.95, "gamma_initializer": {"class_name": "Ones", "config": {}}, "beta_constraint": null, "trainable": true, "axis": -1, "scale": true, "gamma_constraint": null, "moving_variance_initializer": {"class_name": "Ones", "config": {}}}}, {"class_name": "Activation", "inbound_nodes": [[["conv3_3_3x3_bn", 0, 0, {}]]], "name": "activation_21", "config": {"activation": "relu", "name": "activation_21", "trainable": true}}, {"class_name": "Conv2D", "inbound_nodes": [[["activation_21", 0, 0, {}]]], "name": "conv3_3_1x1_increase", "config": {"filters": 512, "name": "conv3_3_1x1_increase", "data_format": "channels_last", "activation": "linear", "bias_regularizer": null, "dilation_rate": [1, 1], "use_bias": false, "kernel_constraint": null, "strides": [1, 1], "padding": "valid", "bias_constraint": null, "trainable": true, "bias_initializer": {"class_name": "Zeros", "config": {}}, "activity_regularizer": null, "kernel_regularizer": null, "kernel_size": [1, 1], "kernel_initializer": {"class_name": "VarianceScaling", "config": {"scale": 1.0, "mode": "fan_avg", "seed": null, "distribution": "uniform"}}}}, {"class_name": "BatchNormalization", "inbound_nodes": [[["conv3_3_1x1_increase", 0, 0, {}]]], "name": "conv3_3_1x1_increase_bn", "config": {"moving_mean_initializer": {"class_name": "Zeros", "config": {}}, "name": "conv3_3_1x1_increase_bn", "beta_regularizer": null, "beta_initializer": {"class_name": "Zeros", "config": {}}, "center": true, "gamma_regularizer": null, "epsilon": 1e-05, "momentum": 0.95, "gamma_initializer": {"class_name": "Ones", "config": {}}, "beta_constraint": null, "trainable": true, "axis": -1, "scale": true, "gamma_constraint": null, "moving_variance_initializer": {"class_name": "Ones", "config": {}}}}, {"class_name": "Add", "inbound_nodes": [[["conv3_3_1x1_increase_bn", 0, 0, {}], ["activation_19", 0, 0, {}]]], "name": "add_6", "config": {"name": "add_6", "trainable": true}}, {"class_name": "Activation", "inbound_nodes": [[["add_6", 0, 0, {}]]], "name": "activation_22", "config": {"activation": "relu", "name": "activation_22", "trainable": true}}, {"class_name": "Conv2D", "inbound_nodes": [[["activation_22", 0, 0, {}]]], "name": "conv3_4_1x1_reduce", "config": {"filters": 128, "name": "conv3_4_1x1_reduce", "data_format": "channels_last", "activation": "linear", "bias_regularizer": null, "dilation_rate": [1, 1], "use_bias": false, "kernel_constraint": null, "strides": [1, 1], "padding": "valid", "bias_constraint": null, "trainable": true, "bias_initializer": {"class_name": "Zeros", "config": {}}, "activity_regularizer": null, "kernel_regularizer": null, "kernel_size": [1, 1], "kernel_initializer": {"class_name": "VarianceScaling", "config": {"scale": 1.0, "mode": "fan_avg", "seed": null, "distribution": "uniform"}}}}, {"class_name": "BatchNormalization", "inbound_nodes": [[["conv3_4_1x1_reduce", 0, 0, {}]]], "name": "conv3_4_1x1_reduce_bn", "config": {"moving_mean_initializer": {"class_name": "Zeros", "config": {}}, "name": "conv3_4_1x1_reduce_bn", "beta_regularizer": null, "beta_initializer": {"class_name": "Zeros", "config": {}}, "center": true, "gamma_regularizer": null, "epsilon": 1e-05, "momentum": 0.95, "gamma_initializer": {"class_name": "Ones", "config": {}}, "beta_constraint": null, "trainable": true, "axis": -1, "scale": true, "gamma_constraint": null, "moving_variance_initializer": {"class_name": "Ones", "config": {}}}}, {"class_name": "Activation", "inbound_nodes": [[["conv3_4_1x1_reduce_bn", 0, 0, {}]]], "name": "activation_23", "config": {"activation": "relu", "name": "activation_23", "trainable": true}}, {"class_name": "ZeroPadding2D", "inbound_nodes": [[["activation_23", 0, 0, {}]]], "name": "zero_padding2d_7", "config": {"padding": [[1, 1], [1, 1]], "name": "zero_padding2d_7", "trainable": true, "data_format": "channels_last"}}, {"class_name": "Conv2D", "inbound_nodes": [[["zero_padding2d_7", 0, 0, {}]]], "name": "conv3_4_3x3", "config": {"filters": 128, "name": "conv3_4_3x3", "data_format": "channels_last", "activation": "linear", "bias_regularizer": null, "dilation_rate": [1, 1], "use_bias": false, "kernel_constraint": null, "strides": [1, 1], "padding": "valid", "bias_constraint": null, "trainable": true, "bias_initializer": {"class_name": "Zeros", "config": {}}, "activity_regularizer": null, "kernel_regularizer": null, "kernel_size": [3, 3], "kernel_initializer": {"class_name": "VarianceScaling", "config": {"scale": 1.0, "mode": "fan_avg", "seed": null, "distribution": "uniform"}}}}, {"class_name": "BatchNormalization", "inbound_nodes": [[["conv3_4_3x3", 0, 0, {}]]], "name": "conv3_4_3x3_bn", "config": {"moving_mean_initializer": {"class_name": "Zeros", "config": {}}, "name": "conv3_4_3x3_bn", "beta_regularizer": null, "beta_initializer": {"class_name": "Zeros", "config": {}}, "center": true, "gamma_regularizer": null, "epsilon": 1e-05, "momentum": 0.95, "gamma_initializer": {"class_name": "Ones", "config": {}}, "beta_constraint": null, "trainable": true, "axis": -1, "scale": true, "gamma_constraint": null, "moving_variance_initializer": {"class_name": "Ones", "config": {}}}}, {"class_name": "Activation", "inbound_nodes": [[["conv3_4_3x3_bn", 0, 0, {}]]], "name": "activation_24", "config": {"activation": "relu", "name": "activation_24", "trainable": true}}, {"class_name": "Conv2D", "inbound_nodes": [[["activation_24", 0, 0, {}]]], "name": "conv3_4_1x1_increase", "config": {"filters": 512, "name": "conv3_4_1x1_increase", "data_format": "channels_last", "activation": "linear", "bias_regularizer": null, "dilation_rate": [1, 1], "use_bias": false, "kernel_constraint": null, "strides": [1, 1], "padding": "valid", "bias_constraint": null, "trainable": true, "bias_initializer": {"class_name": "Zeros", "config": {}}, "activity_regularizer": null, "kernel_regularizer": null, "kernel_size": [1, 1], "kernel_initializer": {"class_name": "VarianceScaling", "config": {"scale": 1.0, "mode": "fan_avg", "seed": null, "distribution": "uniform"}}}}, {"class_name": "BatchNormalization", "inbound_nodes": [[["conv3_4_1x1_increase", 0, 0, {}]]], "name": "conv3_4_1x1_increase_bn", "config": {"moving_mean_initializer": {"class_name": "Zeros", "config": {}}, "name": "conv3_4_1x1_increase_bn", "beta_regularizer": null, "beta_initializer": {"class_name": "Zeros", "config": {}}, "center": true, "gamma_regularizer": null, "epsilon": 1e-05, "momentum": 0.95, "gamma_initializer": {"class_name": "Ones", "config": {}}, "beta_constraint": null, "trainable": true, "axis": -1, "scale": true, "gamma_constraint": null, "moving_variance_initializer": {"class_name": "Ones", "config": {}}}}, {"class_name": "Add", "inbound_nodes": [[["conv3_4_1x1_increase_bn", 0, 0, {}], ["activation_22", 0, 0, {}]]], "name": "add_7", "config": {"name": "add_7", "trainable": true}}, {"class_name": "Activation", "inbound_nodes": [[["add_7", 0, 0, {}]]], "name": "activation_25", "config": {"activation": "relu", "name": "activation_25", "trainable": true}}, {"class_name": "Conv2D", "inbound_nodes": [[["activation_25", 0, 0, {}]]], "name": "conv4_1_1x1_reduce", "config": {"filters": 256, "name": "conv4_1_1x1_reduce", "data_format": "channels_last", "activation": "linear", "bias_regularizer": null, "dilation_rate": [1, 1], "use_bias": false, "kernel_constraint": null, "strides": [1, 1], "padding": "valid", "bias_constraint": null, "trainable": true, "bias_initializer": {"class_name": "Zeros", "config": {}}, "activity_regularizer": null, "kernel_regularizer": null, "kernel_size": [1, 1], "kernel_initializer": {"class_name": "VarianceScaling", "config": {"scale": 1.0, "mode": "fan_avg", "seed": null, "distribution": "uniform"}}}}, {"class_name": "BatchNormalization", "inbound_nodes": [[["conv4_1_1x1_reduce", 0, 0, {}]]], "name": "conv4_1_1x1_reduce_bn", "config": {"moving_mean_initializer": {"class_name": "Zeros", "config": {}}, "name": "conv4_1_1x1_reduce_bn", "beta_regularizer": null, "beta_initializer": {"class_name": "Zeros", "config": {}}, "center": true, "gamma_regularizer": null, "epsilon": 1e-05, "momentum": 0.95, "gamma_initializer": {"class_name": "Ones", "config": {}}, "beta_constraint": null, "trainable": true, "axis": -1, "scale": true, "gamma_constraint": null, "moving_variance_initializer": {"class_name": "Ones", "config": {}}}}, {"class_name": "Activation", "inbound_nodes": [[["conv4_1_1x1_reduce_bn", 0, 0, {}]]], "name": "activation_26", "config": {"activation": "relu", "name": "activation_26", "trainable": true}}, {"class_name": "ZeroPadding2D", "inbound_nodes": [[["activation_26", 0, 0, {}]]], "name": "zero_padding2d_8", "config": {"padding": [[2, 2], [2, 2]], "name": "zero_padding2d_8", "trainable": true, "data_format": "channels_last"}}, {"class_name": "Conv2D", "inbound_nodes": [[["zero_padding2d_8", 0, 0, {}]]], "name": "conv4_1_3x3", "config": {"filters": 256, "name": "conv4_1_3x3", "data_format": "channels_last", "activation": "linear", "bias_regularizer": null, "dilation_rate": [2, 2], "use_bias": false, "kernel_constraint": null, "strides": [1, 1], "padding": "valid", "bias_constraint": null, "trainable": true, "bias_initializer": {"class_name": "Zeros", "config": {}}, "activity_regularizer": null, "kernel_regularizer": null, "kernel_size": [3, 3], "kernel_initializer": {"class_name": "VarianceScaling", "config": {"scale": 1.0, "mode": "fan_avg", "seed": null, "distribution": "uniform"}}}}, {"class_name": "BatchNormalization", "inbound_nodes": [[["conv4_1_3x3", 0, 0, {}]]], "name": "conv4_1_3x3_bn", "config": {"moving_mean_initializer": {"class_name": "Zeros", "config": {}}, "name": "conv4_1_3x3_bn", "beta_regularizer": null, "beta_initializer": {"class_name": "Zeros", "config": {}}, "center": true, "gamma_regularizer": null, "epsilon": 1e-05, "momentum": 0.95, "gamma_initializer": {"class_name": "Ones", "config": {}}, "beta_constraint": null, "trainable": true, "axis": -1, "scale": true, "gamma_constraint": null, "moving_variance_initializer": {"class_name": "Ones", "config": {}}}}, {"class_name": "Activation", "inbound_nodes": [[["conv4_1_3x3_bn", 0, 0, {}]]], "name": "activation_27", "config": {"activation": "relu", "name": "activation_27", "trainable": true}}, {"class_name": "Conv2D", "inbound_nodes": [[["activation_27", 0, 0, {}]]], "name": "conv4_1_1x1_increase", "config": {"filters": 1024, "name": "conv4_1_1x1_increase", "data_format": "channels_last", "activation": "linear", "bias_regularizer": null, "dilation_rate": [1, 1], "use_bias": false, "kernel_constraint": null, "strides": [1, 1], "padding": "valid", "bias_constraint": null, "trainable": true, "bias_initializer": {"class_name": "Zeros", "config": {}}, "activity_regularizer": null, "kernel_regularizer": null, "kernel_size": [1, 1], "kernel_initializer": {"class_name": "VarianceScaling", "config": {"scale": 1.0, "mode": "fan_avg", "seed": null, "distribution": "uniform"}}}}, {"class_name": "Conv2D", "inbound_nodes": [[["activation_25", 0, 0, {}]]], "name": "conv4_1_1x1_proj", "config": {"filters": 1024, "name": "conv4_1_1x1_proj", "data_format": "channels_last", "activation": "linear", "bias_regularizer": null, "dilation_rate": [1, 1], "use_bias": false, "kernel_constraint": null, "strides": [1, 1], "padding": "valid", "bias_constraint": null, "trainable": true, "bias_initializer": {"class_name": "Zeros", "config": {}}, "activity_regularizer": null, "kernel_regularizer": null, "kernel_size": [1, 1], "kernel_initializer": {"class_name": "VarianceScaling", "config": {"scale": 1.0, "mode": "fan_avg", "seed": null, "distribution": "uniform"}}}}, {"class_name": "BatchNormalization", "inbound_nodes": [[["conv4_1_1x1_increase", 0, 0, {}]]], "name": "conv4_1_1x1_increase_bn", "config": {"moving_mean_initializer": {"class_name": "Zeros", "config": {}}, "name": "conv4_1_1x1_increase_bn", "beta_regularizer": null, "beta_initializer": {"class_name": "Zeros", "config": {}}, "center": true, "gamma_regularizer": null, "epsilon": 1e-05, "momentum": 0.95, "gamma_initializer": {"class_name": "Ones", "config": {}}, "beta_constraint": null, "trainable": true, "axis": -1, "scale": true, "gamma_constraint": null, "moving_variance_initializer": {"class_name": "Ones", "config": {}}}}, {"class_name": "BatchNormalization", "inbound_nodes": [[["conv4_1_1x1_proj", 0, 0, {}]]], "name": "conv4_1_1x1_proj_bn", "config": {"moving_mean_initializer": {"class_name": "Zeros", "config": {}}, "name": "conv4_1_1x1_proj_bn", "beta_regularizer": null, "beta_initializer": {"class_name": "Zeros", "config": {}}, "center": true, "gamma_regularizer": null, "epsilon": 1e-05, "momentum": 0.95, "gamma_initializer": {"class_name": "Ones", "config": {}}, "beta_constraint": null, "trainable": true, "axis": -1, "scale": true, "gamma_constraint": null, "moving_variance_initializer": {"class_name": "Ones", "config": {}}}}, {"class_name": "Add", "inbound_nodes": [[["conv4_1_1x1_increase_bn", 0, 0, {}], ["conv4_1_1x1_proj_bn", 0, 0, {}]]], "name": "add_8", "config": {"name": "add_8", "trainable": true}}, {"class_name": "Activation", "inbound_nodes": [[["add_8", 0, 0, {}]]], "name": "activation_28", "config": {"activation": "relu", "name": "activation_28", "trainable": true}}, {"class_name": "Conv2D", "inbound_nodes": [[["activation_28", 0, 0, {}]]], "name": "conv4_2_1x1_reduce", "config": {"filters": 256, "name": "conv4_2_1x1_reduce", "data_format": "channels_last", "activation": "linear", "bias_regularizer": null, "dilation_rate": [1, 1], "use_bias": false, "kernel_constraint": null, "strides": [1, 1], "padding": "valid", "bias_constraint": null, "trainable": true, "bias_initializer": {"class_name": "Zeros", "config": {}}, "activity_regularizer": null, "kernel_regularizer": null, "kernel_size": [1, 1], "kernel_initializer": {"class_name": "VarianceScaling", "config": {"scale": 1.0, "mode": "fan_avg", "seed": null, "distribution": "uniform"}}}}, {"class_name": "BatchNormalization", "inbound_nodes": [[["conv4_2_1x1_reduce", 0, 0, {}]]], "name": "conv4_2_1x1_reduce_bn", "config": {"moving_mean_initializer": {"class_name": "Zeros", "config": {}}, "name": "conv4_2_1x1_reduce_bn", "beta_regularizer": null, "beta_initializer": {"class_name": "Zeros", "config": {}}, "center": true, "gamma_regularizer": null, "epsilon": 1e-05, "momentum": 0.95, "gamma_initializer": {"class_name": "Ones", "config": {}}, "beta_constraint": null, "trainable": true, "axis": -1, "scale": true, "gamma_constraint": null, "moving_variance_initializer": {"class_name": "Ones", "config": {}}}}, {"class_name": "Activation", "inbound_nodes": [[["conv4_2_1x1_reduce_bn", 0, 0, {}]]], "name": "activation_29", "config": {"activation": "relu", "name": "activation_29", "trainable": true}}, {"class_name": "ZeroPadding2D", "inbound_nodes": [[["activation_29", 0, 0, {}]]], "name": "zero_padding2d_9", "config": {"padding": [[2, 2], [2, 2]], "name": "zero_padding2d_9", "trainable": true, "data_format": "channels_last"}}, {"class_name": "Conv2D", "inbound_nodes": [[["zero_padding2d_9", 0, 0, {}]]], "name": "conv4_2_3x3", "config": {"filters": 256, "name": "conv4_2_3x3", "data_format": "channels_last", "activation": "linear", "bias_regularizer": null, "dilation_rate": [2, 2], "use_bias": false, "kernel_constraint": null, "strides": [1, 1], "padding": "valid", "bias_constraint": null, "trainable": true, "bias_initializer": {"class_name": "Zeros", "config": {}}, "activity_regularizer": null, "kernel_regularizer": null, "kernel_size": [3, 3], "kernel_initializer": {"class_name": "VarianceScaling", "config": {"scale": 1.0, "mode": "fan_avg", "seed": null, "distribution": "uniform"}}}}, {"class_name": "BatchNormalization", "inbound_nodes": [[["conv4_2_3x3", 0, 0, {}]]], "name": "conv4_2_3x3_bn", "config": {"moving_mean_initializer": {"class_name": "Zeros", "config": {}}, "name": "conv4_2_3x3_bn", "beta_regularizer": null, "beta_initializer": {"class_name": "Zeros", "config": {}}, "center": true, "gamma_regularizer": null, "epsilon": 1e-05, "momentum": 0.95, "gamma_initializer": {"class_name": "Ones", "config": {}}, "beta_constraint": null, "trainable": true, "axis": -1, "scale": true, "gamma_constraint": null, "moving_variance_initializer": {"class_name": "Ones", "config": {}}}}, {"class_name": "Activation", "inbound_nodes": [[["conv4_2_3x3_bn", 0, 0, {}]]], "name": "activation_30", "config": {"activation": "relu", "name": "activation_30", "trainable": true}}, {"class_name": "Conv2D", "inbound_nodes": [[["activation_30", 0, 0, {}]]], "name": "conv4_2_1x1_increase", "config": {"filters": 1024, "name": "conv4_2_1x1_increase", "data_format": "channels_last", "activation": "linear", "bias_regularizer": null, "dilation_rate": [1, 1], "use_bias": false, "kernel_constraint": null, "strides": [1, 1], "padding": "valid", "bias_constraint": null, "trainable": true, "bias_initializer": {"class_name": "Zeros", "config": {}}, "activity_regularizer": null, "kernel_regularizer": null, "kernel_size": [1, 1], "kernel_initializer": {"class_name": "VarianceScaling", "config": {"scale": 1.0, "mode": "fan_avg", "seed": null, "distribution": "uniform"}}}}, {"class_name": "BatchNormalization", "inbound_nodes": [[["conv4_2_1x1_increase", 0, 0, {}]]], "name": "conv4_2_1x1_increase_bn", "config": {"moving_mean_initializer": {"class_name": "Zeros", "config": {}}, "name": "conv4_2_1x1_increase_bn", "beta_regularizer": null, "beta_initializer": {"class_name": "Zeros", "config": {}}, "center": true, "gamma_regularizer": null, "epsilon": 1e-05, "momentum": 0.95, "gamma_initializer": {"class_name": "Ones", "config": {}}, "beta_constraint": null, "trainable": true, "axis": -1, "scale": true, "gamma_constraint": null, "moving_variance_initializer": {"class_name": "Ones", "config": {}}}}, {"class_name": "Add", "inbound_nodes": [[["conv4_2_1x1_increase_bn", 0, 0, {}], ["activation_28", 0, 0, {}]]], "name": "add_9", "config": {"name": "add_9", "trainable": true}}, {"class_name": "Activation", "inbound_nodes": [[["add_9", 0, 0, {}]]], "name": "activation_31", "config": {"activation": "relu", "name": "activation_31", "trainable": true}}, {"class_name": "Conv2D", "inbound_nodes": [[["activation_31", 0, 0, {}]]], "name": "conv4_3_1x1_reduce", "config": {"filters": 256, "name": "conv4_3_1x1_reduce", "data_format": "channels_last", "activation": "linear", "bias_regularizer": null, "dilation_rate": [1, 1], "use_bias": false, "kernel_constraint": null, "strides": [1, 1], "padding": "valid", "bias_constraint": null, "trainable": true, "bias_initializer": {"class_name": "Zeros", "config": {}}, "activity_regularizer": null, "kernel_regularizer": null, "kernel_size": [1, 1], "kernel_initializer": {"class_name": "VarianceScaling", "config": {"scale": 1.0, "mode": "fan_avg", "seed": null, "distribution": "uniform"}}}}, {"class_name": "BatchNormalization", "inbound_nodes": [[["conv4_3_1x1_reduce", 0, 0, {}]]], "name": "conv4_3_1x1_reduce_bn", "config": {"moving_mean_initializer": {"class_name": "Zeros", "config": {}}, "name": "conv4_3_1x1_reduce_bn", "beta_regularizer": null, "beta_initializer": {"class_name": "Zeros", "config": {}}, "center": true, "gamma_regularizer": null, "epsilon": 1e-05, "momentum": 0.95, "gamma_initializer": {"class_name": "Ones", "config": {}}, "beta_constraint": null, "trainable": true, "axis": -1, "scale": true, "gamma_constraint": null, "moving_variance_initializer": {"class_name": "Ones", "config": {}}}}, {"class_name": "Activation", "inbound_nodes": [[["conv4_3_1x1_reduce_bn", 0, 0, {}]]], "name": "activation_32", "config": {"activation": "relu", "name": "activation_32", "trainable": true}}, {"class_name": "ZeroPadding2D", "inbound_nodes": [[["activation_32", 0, 0, {}]]], "name": "zero_padding2d_10", "config": {"padding": [[2, 2], [2, 2]], "name": "zero_padding2d_10", "trainable": true, "data_format": "channels_last"}}, {"class_name": "Conv2D", "inbound_nodes": [[["zero_padding2d_10", 0, 0, {}]]], "name": "conv4_3_3x3", "config": {"filters": 256, "name": "conv4_3_3x3", "data_format": "channels_last", "activation": "linear", "bias_regularizer": null, "dilation_rate": [2, 2], "use_bias": false, "kernel_constraint": null, "strides": [1, 1], "padding": "valid", "bias_constraint": null, "trainable": true, "bias_initializer": {"class_name": "Zeros", "config": {}}, "activity_regularizer": null, "kernel_regularizer": null, "kernel_size": [3, 3], "kernel_initializer": {"class_name": "VarianceScaling", "config": {"scale": 1.0, "mode": "fan_avg", "seed": null, "distribution": "uniform"}}}}, {"class_name": "BatchNormalization", "inbound_nodes": [[["conv4_3_3x3", 0, 0, {}]]], "name": "conv4_3_3x3_bn", "config": {"moving_mean_initializer": {"class_name": "Zeros", "config": {}}, "name": "conv4_3_3x3_bn", "beta_regularizer": null, "beta_initializer": {"class_name": "Zeros", "config": {}}, "center": true, "gamma_regularizer": null, "epsilon": 1e-05, "momentum": 0.95, "gamma_initializer": {"class_name": "Ones", "config": {}}, "beta_constraint": null, "trainable": true, "axis": -1, "scale": true, "gamma_constraint": null, "moving_variance_initializer": {"class_name": "Ones", "config": {}}}}, {"class_name": "Activation", "inbound_nodes": [[["conv4_3_3x3_bn", 0, 0, {}]]], "name": "activation_33", "config": {"activation": "relu", "name": "activation_33", "trainable": true}}, {"class_name": "Conv2D", "inbound_nodes": [[["activation_33", 0, 0, {}]]], "name": "conv4_3_1x1_increase", "config": {"filters": 1024, "name": "conv4_3_1x1_increase", "data_format": "channels_last", "activation": "linear", "bias_regularizer": null, "dilation_rate": [1, 1], "use_bias": false, "kernel_constraint": null, "strides": [1, 1], "padding": "valid", "bias_constraint": null, "trainable": true, "bias_initializer": {"class_name": "Zeros", "config": {}}, "activity_regularizer": null, "kernel_regularizer": null, "kernel_size": [1, 1], "kernel_initializer": {"class_name": "VarianceScaling", "config": {"scale": 1.0, "mode": "fan_avg", "seed": null, "distribution": "uniform"}}}}, {"class_name": "BatchNormalization", "inbound_nodes": [[["conv4_3_1x1_increase", 0, 0, {}]]], "name": "conv4_3_1x1_increase_bn", "config": {"moving_mean_initializer": {"class_name": "Zeros", "config": {}}, "name": "conv4_3_1x1_increase_bn", "beta_regularizer": null, "beta_initializer": {"class_name": "Zeros", "config": {}}, "center": true, "gamma_regularizer": null, "epsilon": 1e-05, "momentum": 0.95, "gamma_initializer": {"class_name": "Ones", "config": {}}, "beta_constraint": null, "trainable": true, "axis": -1, "scale": true, "gamma_constraint": null, "moving_variance_initializer": {"class_name": "Ones", "config": {}}}}, {"class_name": "Add", "inbound_nodes": [[["conv4_3_1x1_increase_bn", 0, 0, {}], ["activation_31", 0, 0, {}]]], "name": "add_10", "config": {"name": "add_10", "trainable": true}}, {"class_name": "Activation", "inbound_nodes": [[["add_10", 0, 0, {}]]], "name": "activation_34", "config": {"activation": "relu", "name": "activation_34", "trainable": true}}, {"class_name": "Conv2D", "inbound_nodes": [[["activation_34", 0, 0, {}]]], "name": "conv4_4_1x1_reduce", "config": {"filters": 256, "name": "conv4_4_1x1_reduce", "data_format": "channels_last", "activation": "linear", "bias_regularizer": null, "dilation_rate": [1, 1], "use_bias": false, "kernel_constraint": null, "strides": [1, 1], "padding": "valid", "bias_constraint": null, "trainable": true, "bias_initializer": {"class_name": "Zeros", "config": {}}, "activity_regularizer": null, "kernel_regularizer": null, "kernel_size": [1, 1], "kernel_initializer": {"class_name": "VarianceScaling", "config": {"scale": 1.0, "mode": "fan_avg", "seed": null, "distribution": "uniform"}}}}, {"class_name": "BatchNormalization", "inbound_nodes": [[["conv4_4_1x1_reduce", 0, 0, {}]]], "name": "conv4_4_1x1_reduce_bn", "config": {"moving_mean_initializer": {"class_name": "Zeros", "config": {}}, "name": "conv4_4_1x1_reduce_bn", "beta_regularizer": null, "beta_initializer": {"class_name": "Zeros", "config": {}}, "center": true, "gamma_regularizer": null, "epsilon": 1e-05, "momentum": 0.95, "gamma_initializer": {"class_name": "Ones", "config": {}}, "beta_constraint": null, "trainable": true, "axis": -1, "scale": true, "gamma_constraint": null, "moving_variance_initializer": {"class_name": "Ones", "config": {}}}}, {"class_name": "Activation", "inbound_nodes": [[["conv4_4_1x1_reduce_bn", 0, 0, {}]]], "name": "activation_35", "config": {"activation": "relu", "name": "activation_35", "trainable": true}}, {"class_name": "ZeroPadding2D", "inbound_nodes": [[["activation_35", 0, 0, {}]]], "name": "zero_padding2d_11", "config": {"padding": [[2, 2], [2, 2]], "name": "zero_padding2d_11", "trainable": true, "data_format": "channels_last"}}, {"class_name": "Conv2D", "inbound_nodes": [[["zero_padding2d_11", 0, 0, {}]]], "name": "conv4_4_3x3", "config": {"filters": 256, "name": "conv4_4_3x3", "data_format": "channels_last", "activation": "linear", "bias_regularizer": null, "dilation_rate": [2, 2], "use_bias": false, "kernel_constraint": null, "strides": [1, 1], "padding": "valid", "bias_constraint": null, "trainable": true, "bias_initializer": {"class_name": "Zeros", "config": {}}, "activity_regularizer": null, "kernel_regularizer": null, "kernel_size": [3, 3], "kernel_initializer": {"class_name": "VarianceScaling", "config": {"scale": 1.0, "mode": "fan_avg", "seed": null, "distribution": "uniform"}}}}, {"class_name": "BatchNormalization", "inbound_nodes": [[["conv4_4_3x3", 0, 0, {}]]], "name": "conv4_4_3x3_bn", "config": {"moving_mean_initializer": {"class_name": "Zeros", "config": {}}, "name": "conv4_4_3x3_bn", "beta_regularizer": null, "beta_initializer": {"class_name": "Zeros", "config": {}}, "center": true, "gamma_regularizer": null, "epsilon": 1e-05, "momentum": 0.95, "gamma_initializer": {"class_name": "Ones", "config": {}}, "beta_constraint": null, "trainable": true, "axis": -1, "scale": true, "gamma_constraint": null, "moving_variance_initializer": {"class_name": "Ones", "config": {}}}}, {"class_name": "Activation", "inbound_nodes": [[["conv4_4_3x3_bn", 0, 0, {}]]], "name": "activation_36", "config": {"activation": "relu", "name": "activation_36", "trainable": true}}, {"class_name": "Conv2D", "inbound_nodes": [[["activation_36", 0, 0, {}]]], "name": "conv4_4_1x1_increase", "config": {"filters": 1024, "name": "conv4_4_1x1_increase", "data_format": "channels_last", "activation": "linear", "bias_regularizer": null, "dilation_rate": [1, 1], "use_bias": false, "kernel_constraint": null, "strides": [1, 1], "padding": "valid", "bias_constraint": null, "trainable": true, "bias_initializer": {"class_name": "Zeros", "config": {}}, "activity_regularizer": null, "kernel_regularizer": null, "kernel_size": [1, 1], "kernel_initializer": {"class_name": "VarianceScaling", "config": {"scale": 1.0, "mode": "fan_avg", "seed": null, "distribution": "uniform"}}}}, {"class_name": "BatchNormalization", "inbound_nodes": [[["conv4_4_1x1_increase", 0, 0, {}]]], "name": "conv4_4_1x1_increase_bn", "config": {"moving_mean_initializer": {"class_name": "Zeros", "config": {}}, "name": "conv4_4_1x1_increase_bn", "beta_regularizer": null, "beta_initializer": {"class_name": "Zeros", "config": {}}, "center": true, "gamma_regularizer": null, "epsilon": 1e-05, "momentum": 0.95, "gamma_initializer": {"class_name": "Ones", "config": {}}, "beta_constraint": null, "trainable": true, "axis": -1, "scale": true, "gamma_constraint": null, "moving_variance_initializer": {"class_name": "Ones", "config": {}}}}, {"class_name": "Add", "inbound_nodes": [[["conv4_4_1x1_increase_bn", 0, 0, {}], ["activation_34", 0, 0, {}]]], "name": "add_11", "config": {"name": "add_11", "trainable": true}}, {"class_name": "Activation", "inbound_nodes": [[["add_11", 0, 0, {}]]], "name": "activation_37", "config": {"activation": "relu", "name": "activation_37", "trainable": true}}, {"class_name": "Conv2D", "inbound_nodes": [[["activation_37", 0, 0, {}]]], "name": "conv4_5_1x1_reduce", "config": {"filters": 256, "name": "conv4_5_1x1_reduce", "data_format": "channels_last", "activation": "linear", "bias_regularizer": null, "dilation_rate": [1, 1], "use_bias": false, "kernel_constraint": null, "strides": [1, 1], "padding": "valid", "bias_constraint": null, "trainable": true, "bias_initializer": {"class_name": "Zeros", "config": {}}, "activity_regularizer": null, "kernel_regularizer": null, "kernel_size": [1, 1], "kernel_initializer": {"class_name": "VarianceScaling", "config": {"scale": 1.0, "mode": "fan_avg", "seed": null, "distribution": "uniform"}}}}, {"class_name": "BatchNormalization", "inbound_nodes": [[["conv4_5_1x1_reduce", 0, 0, {}]]], "name": "conv4_5_1x1_reduce_bn", "config": {"moving_mean_initializer": {"class_name": "Zeros", "config": {}}, "name": "conv4_5_1x1_reduce_bn", "beta_regularizer": null, "beta_initializer": {"class_name": "Zeros", "config": {}}, "center": true, "gamma_regularizer": null, "epsilon": 1e-05, "momentum": 0.95, "gamma_initializer": {"class_name": "Ones", "config": {}}, "beta_constraint": null, "trainable": true, "axis": -1, "scale": true, "gamma_constraint": null, "moving_variance_initializer": {"class_name": "Ones", "config": {}}}}, {"class_name": "Activation", "inbound_nodes": [[["conv4_5_1x1_reduce_bn", 0, 0, {}]]], "name": "activation_38", "config": {"activation": "relu", "name": "activation_38", "trainable": true}}, {"class_name": "ZeroPadding2D", "inbound_nodes": [[["activation_38", 0, 0, {}]]], "name": "zero_padding2d_12", "config": {"padding": [[2, 2], [2, 2]], "name": "zero_padding2d_12", "trainable": true, "data_format": "channels_last"}}, {"class_name": "Conv2D", "inbound_nodes": [[["zero_padding2d_12", 0, 0, {}]]], "name": "conv4_5_3x3", "config": {"filters": 256, "name": "conv4_5_3x3", "data_format": "channels_last", "activation": "linear", "bias_regularizer": null, "dilation_rate": [2, 2], "use_bias": false, "kernel_constraint": null, "strides": [1, 1], "padding": "valid", "bias_constraint": null, "trainable": true, "bias_initializer": {"class_name": "Zeros", "config": {}}, "activity_regularizer": null, "kernel_regularizer": null, "kernel_size": [3, 3], "kernel_initializer": {"class_name": "VarianceScaling", "config": {"scale": 1.0, "mode": "fan_avg", "seed": null, "distribution": "uniform"}}}}, {"class_name": "BatchNormalization", "inbound_nodes": [[["conv4_5_3x3", 0, 0, {}]]], "name": "conv4_5_3x3_bn", "config": {"moving_mean_initializer": {"class_name": "Zeros", "config": {}}, "name": "conv4_5_3x3_bn", "beta_regularizer": null, "beta_initializer": {"class_name": "Zeros", "config": {}}, "center": true, "gamma_regularizer": null, "epsilon": 1e-05, "momentum": 0.95, "gamma_initializer": {"class_name": "Ones", "config": {}}, "beta_constraint": null, "trainable": true, "axis": -1, "scale": true, "gamma_constraint": null, "moving_variance_initializer": {"class_name": "Ones", "config": {}}}}, {"class_name": "Activation", "inbound_nodes": [[["conv4_5_3x3_bn", 0, 0, {}]]], "name": "activation_39", "config": {"activation": "relu", "name": "activation_39", "trainable": true}}, {"class_name": "Conv2D", "inbound_nodes": [[["activation_39", 0, 0, {}]]], "name": "conv4_5_1x1_increase", "config": {"filters": 1024, "name": "conv4_5_1x1_increase", "data_format": "channels_last", "activation": "linear", "bias_regularizer": null, "dilation_rate": [1, 1], "use_bias": false, "kernel_constraint": null, "strides": [1, 1], "padding": "valid", "bias_constraint": null, "trainable": true, "bias_initializer": {"class_name": "Zeros", "config": {}}, "activity_regularizer": null, "kernel_regularizer": null, "kernel_size": [1, 1], "kernel_initializer": {"class_name": "VarianceScaling", "config": {"scale": 1.0, "mode": "fan_avg", "seed": null, "distribution": "uniform"}}}}, {"class_name": "BatchNormalization", "inbound_nodes": [[["conv4_5_1x1_increase", 0, 0, {}]]], "name": "conv4_5_1x1_increase_bn", "config": {"moving_mean_initializer": {"class_name": "Zeros", "config": {}}, "name": "conv4_5_1x1_increase_bn", "beta_regularizer": null, "beta_initializer": {"class_name": "Zeros", "config": {}}, "center": true, "gamma_regularizer": null, "epsilon": 1e-05, "momentum": 0.95, "gamma_initializer": {"class_name": "Ones", "config": {}}, "beta_constraint": null, "trainable": true, "axis": -1, "scale": true, "gamma_constraint": null, "moving_variance_initializer": {"class_name": "Ones", "config": {}}}}, {"class_name": "Add", "inbound_nodes": [[["conv4_5_1x1_increase_bn", 0, 0, {}], ["activation_37", 0, 0, {}]]], "name": "add_12", "config": {"name": "add_12", "trainable": true}}, {"class_name": "Activation", "inbound_nodes": [[["add_12", 0, 0, {}]]], "name": "activation_40", "config": {"activation": "relu", "name": "activation_40", "trainable": true}}, {"class_name": "Conv2D", "inbound_nodes": [[["activation_40", 0, 0, {}]]], "name": "conv4_6_1x1_reduce", "config": {"filters": 256, "name": "conv4_6_1x1_reduce", "data_format": "channels_last", "activation": "linear", "bias_regularizer": null, "dilation_rate": [1, 1], "use_bias": false, "kernel_constraint": null, "strides": [1, 1], "padding": "valid", "bias_constraint": null, "trainable": true, "bias_initializer": {"class_name": "Zeros", "config": {}}, "activity_regularizer": null, "kernel_regularizer": null, "kernel_size": [1, 1], "kernel_initializer": {"class_name": "VarianceScaling", "config": {"scale": 1.0, "mode": "fan_avg", "seed": null, "distribution": "uniform"}}}}, {"class_name": "BatchNormalization", "inbound_nodes": [[["conv4_6_1x1_reduce", 0, 0, {}]]], "name": "conv4_6_1x1_reduce_bn", "config": {"moving_mean_initializer": {"class_name": "Zeros", "config": {}}, "name": "conv4_6_1x1_reduce_bn", "beta_regularizer": null, "beta_initializer": {"class_name": "Zeros", "config": {}}, "center": true, "gamma_regularizer": null, "epsilon": 1e-05, "momentum": 0.95, "gamma_initializer": {"class_name": "Ones", "config": {}}, "beta_constraint": null, "trainable": true, "axis": -1, "scale": true, "gamma_constraint": null, "moving_variance_initializer": {"class_name": "Ones", "config": {}}}}, {"class_name": "Activation", "inbound_nodes": [[["conv4_6_1x1_reduce_bn", 0, 0, {}]]], "name": "activation_41", "config": {"activation": "relu", "name": "activation_41", "trainable": true}}, {"class_name": "ZeroPadding2D", "inbound_nodes": [[["activation_41", 0, 0, {}]]], "name": "zero_padding2d_13", "config": {"padding": [[2, 2], [2, 2]], "name": "zero_padding2d_13", "trainable": true, "data_format": "channels_last"}}, {"class_name": "Conv2D", "inbound_nodes": [[["zero_padding2d_13", 0, 0, {}]]], "name": "conv4_6_3x3", "config": {"filters": 256, "name": "conv4_6_3x3", "data_format": "channels_last", "activation": "linear", "bias_regularizer": null, "dilation_rate": [2, 2], "use_bias": false, "kernel_constraint": null, "strides": [1, 1], "padding": "valid", "bias_constraint": null, "trainable": true, "bias_initializer": {"class_name": "Zeros", "config": {}}, "activity_regularizer": null, "kernel_regularizer": null, "kernel_size": [3, 3], "kernel_initializer": {"class_name": "VarianceScaling", "config": {"scale": 1.0, "mode": "fan_avg", "seed": null, "distribution": "uniform"}}}}, {"class_name": "BatchNormalization", "inbound_nodes": [[["conv4_6_3x3", 0, 0, {}]]], "name": "conv4_6_3x3_bn", "config": {"moving_mean_initializer": {"class_name": "Zeros", "config": {}}, "name": "conv4_6_3x3_bn", "beta_regularizer": null, "beta_initializer": {"class_name": "Zeros", "config": {}}, "center": true, "gamma_regularizer": null, "epsilon": 1e-05, "momentum": 0.95, "gamma_initializer": {"class_name": "Ones", "config": {}}, "beta_constraint": null, "trainable": true, "axis": -1, "scale": true, "gamma_constraint": null, "moving_variance_initializer": {"class_name": "Ones", "config": {}}}}, {"class_name": "Activation", "inbound_nodes": [[["conv4_6_3x3_bn", 0, 0, {}]]], "name": "activation_42", "config": {"activation": "relu", "name": "activation_42", "trainable": true}}, {"class_name": "Conv2D", "inbound_nodes": [[["activation_42", 0, 0, {}]]], "name": "conv4_6_1x1_increase", "config": {"filters": 1024, "name": "conv4_6_1x1_increase", "data_format": "channels_last", "activation": "linear", "bias_regularizer": null, "dilation_rate": [1, 1], "use_bias": false, "kernel_constraint": null, "strides": [1, 1], "padding": "valid", "bias_constraint": null, "trainable": true, "bias_initializer": {"class_name": "Zeros", "config": {}}, "activity_regularizer": null, "kernel_regularizer": null, "kernel_size": [1, 1], "kernel_initializer": {"class_name": "VarianceScaling", "config": {"scale": 1.0, "mode": "fan_avg", "seed": null, "distribution": "uniform"}}}}, {"class_name": "BatchNormalization", "inbound_nodes": [[["conv4_6_1x1_increase", 0, 0, {}]]], "name": "conv4_6_1x1_increase_bn", "config": {"moving_mean_initializer": {"class_name": "Zeros", "config": {}}, "name": "conv4_6_1x1_increase_bn", "beta_regularizer": null, "beta_initializer": {"class_name": "Zeros", "config": {}}, "center": true, "gamma_regularizer": null, "epsilon": 1e-05, "momentum": 0.95, "gamma_initializer": {"class_name": "Ones", "config": {}}, "beta_constraint": null, "trainable": true, "axis": -1, "scale": true, "gamma_constraint": null, "moving_variance_initializer": {"class_name": "Ones", "config": {}}}}, {"class_name": "Add", "inbound_nodes": [[["conv4_6_1x1_increase_bn", 0, 0, {}], ["activation_40", 0, 0, {}]]], "name": "add_13", "config": {"name": "add_13", "trainable": true}}, {"class_name": "Activation", "inbound_nodes": [[["add_13", 0, 0, {}]]], "name": "activation_43", "config": {"activation": "relu", "name": "activation_43", "trainable": true}}, {"class_name": "Conv2D", "inbound_nodes": [[["activation_43", 0, 0, {}]]], "name": "conv4_7_1x1_reduce", "config": {"filters": 256, "name": "conv4_7_1x1_reduce", "data_format": "channels_last", "activation": "linear", "bias_regularizer": null, "dilation_rate": [1, 1], "use_bias": false, "kernel_constraint": null, "strides": [1, 1], "padding": "valid", "bias_constraint": null, "trainable": true, "bias_initializer": {"class_name": "Zeros", "config": {}}, "activity_regularizer": null, "kernel_regularizer": null, "kernel_size": [1, 1], "kernel_initializer": {"class_name": "VarianceScaling", "config": {"scale": 1.0, "mode": "fan_avg", "seed": null, "distribution": "uniform"}}}}, {"class_name": "BatchNormalization", "inbound_nodes": [[["conv4_7_1x1_reduce", 0, 0, {}]]], "name": "conv4_7_1x1_reduce_bn", "config": {"moving_mean_initializer": {"class_name": "Zeros", "config": {}}, "name": "conv4_7_1x1_reduce_bn", "beta_regularizer": null, "beta_initializer": {"class_name": "Zeros", "config": {}}, "center": true, "gamma_regularizer": null, "epsilon": 1e-05, "momentum": 0.95, "gamma_initializer": {"class_name": "Ones", "config": {}}, "beta_constraint": null, "trainable": true, "axis": -1, "scale": true, "gamma_constraint": null, "moving_variance_initializer": {"class_name": "Ones", "config": {}}}}, {"class_name": "Activation", "inbound_nodes": [[["conv4_7_1x1_reduce_bn", 0, 0, {}]]], "name": "activation_44", "config": {"activation": "relu", "name": "activation_44", "trainable": true}}, {"class_name": "ZeroPadding2D", "inbound_nodes": [[["activation_44", 0, 0, {}]]], "name": "zero_padding2d_14", "config": {"padding": [[2, 2], [2, 2]], "name": "zero_padding2d_14", "trainable": true, "data_format": "channels_last"}}, {"class_name": "Conv2D", "inbound_nodes": [[["zero_padding2d_14", 0, 0, {}]]], "name": "conv4_7_3x3", "config": {"filters": 256, "name": "conv4_7_3x3", "data_format": "channels_last", "activation": "linear", "bias_regularizer": null, "dilation_rate": [2, 2], "use_bias": false, "kernel_constraint": null, "strides": [1, 1], "padding": "valid", "bias_constraint": null, "trainable": true, "bias_initializer": {"class_name": "Zeros", "config": {}}, "activity_regularizer": null, "kernel_regularizer": null, "kernel_size": [3, 3], "kernel_initializer": {"class_name": "VarianceScaling", "config": {"scale": 1.0, "mode": "fan_avg", "seed": null, "distribution": "uniform"}}}}, {"class_name": "BatchNormalization", "inbound_nodes": [[["conv4_7_3x3", 0, 0, {}]]], "name": "conv4_7_3x3_bn", "config": {"moving_mean_initializer": {"class_name": "Zeros", "config": {}}, "name": "conv4_7_3x3_bn", "beta_regularizer": null, "beta_initializer": {"class_name": "Zeros", "config": {}}, "center": true, "gamma_regularizer": null, "epsilon": 1e-05, "momentum": 0.95, "gamma_initializer": {"class_name": "Ones", "config": {}}, "beta_constraint": null, "trainable": true, "axis": -1, "scale": true, "gamma_constraint": null, "moving_variance_initializer": {"class_name": "Ones", "config": {}}}}, {"class_name": "Activation", "inbound_nodes": [[["conv4_7_3x3_bn", 0, 0, {}]]], "name": "activation_45", "config": {"activation": "relu", "name": "activation_45", "trainable": true}}, {"class_name": "Conv2D", "inbound_nodes": [[["activation_45", 0, 0, {}]]], "name": "conv4_7_1x1_increase", "config": {"filters": 1024, "name": "conv4_7_1x1_increase", "data_format": "channels_last", "activation": "linear", "bias_regularizer": null, "dilation_rate": [1, 1], "use_bias": false, "kernel_constraint": null, "strides": [1, 1], "padding": "valid", "bias_constraint": null, "trainable": true, "bias_initializer": {"class_name": "Zeros", "config": {}}, "activity_regularizer": null, "kernel_regularizer": null, "kernel_size": [1, 1], "kernel_initializer": {"class_name": "VarianceScaling", "config": {"scale": 1.0, "mode": "fan_avg", "seed": null, "distribution": "uniform"}}}}, {"class_name": "BatchNormalization", "inbound_nodes": [[["conv4_7_1x1_increase", 0, 0, {}]]], "name": "conv4_7_1x1_increase_bn", "config": {"moving_mean_initializer": {"class_name": "Zeros", "config": {}}, "name": "conv4_7_1x1_increase_bn", "beta_regularizer": null, "beta_initializer": {"class_name": "Zeros", "config": {}}, "center": true, "gamma_regularizer": null, "epsilon": 1e-05, "momentum": 0.95, "gamma_initializer": {"class_name": "Ones", "config": {}}, "beta_constraint": null, "trainable": true, "axis": -1, "scale": true, "gamma_constraint": null, "moving_variance_initializer": {"class_name": "Ones", "config": {}}}}, {"class_name": "Add", "inbound_nodes": [[["conv4_7_1x1_increase_bn", 0, 0, {}], ["activation_43", 0, 0, {}]]], "name": "add_14", "config": {"name": "add_14", "trainable": true}}, {"class_name": "Activation", "inbound_nodes": [[["add_14", 0, 0, {}]]], "name": "activation_46", "config": {"activation": "relu", "name": "activation_46", "trainable": true}}, {"class_name": "Conv2D", "inbound_nodes": [[["activation_46", 0, 0, {}]]], "name": "conv4_8_1x1_reduce", "config": {"filters": 256, "name": "conv4_8_1x1_reduce", "data_format": "channels_last", "activation": "linear", "bias_regularizer": null, "dilation_rate": [1, 1], "use_bias": false, "kernel_constraint": null, "strides": [1, 1], "padding": "valid", "bias_constraint": null, "trainable": true, "bias_initializer": {"class_name": "Zeros", "config": {}}, "activity_regularizer": null, "kernel_regularizer": null, "kernel_size": [1, 1], "kernel_initializer": {"class_name": "VarianceScaling", "config": {"scale": 1.0, "mode": "fan_avg", "seed": null, "distribution": "uniform"}}}}, {"class_name": "BatchNormalization", "inbound_nodes": [[["conv4_8_1x1_reduce", 0, 0, {}]]], "name": "conv4_8_1x1_reduce_bn", "config": {"moving_mean_initializer": {"class_name": "Zeros", "config": {}}, "name": "conv4_8_1x1_reduce_bn", "beta_regularizer": null, "beta_initializer": {"class_name": "Zeros", "config": {}}, "center": true, "gamma_regularizer": null, "epsilon": 1e-05, "momentum": 0.95, "gamma_initializer": {"class_name": "Ones", "config": {}}, "beta_constraint": null, "trainable": true, "axis": -1, "scale": true, "gamma_constraint": null, "moving_variance_initializer": {"class_name": "Ones", "config": {}}}}, {"class_name": "Activation", "inbound_nodes": [[["conv4_8_1x1_reduce_bn", 0, 0, {}]]], "name": "activation_47", "config": {"activation": "relu", "name": "activation_47", "trainable": true}}, {"class_name": "ZeroPadding2D", "inbound_nodes": [[["activation_47", 0, 0, {}]]], "name": "zero_padding2d_15", "config": {"padding": [[2, 2], [2, 2]], "name": "zero_padding2d_15", "trainable": true, "data_format": "channels_last"}}, {"class_name": "Conv2D", "inbound_nodes": [[["zero_padding2d_15", 0, 0, {}]]], "name": "conv4_8_3x3", "config": {"filters": 256, "name": "conv4_8_3x3", "data_format": "channels_last", "activation": "linear", "bias_regularizer": null, "dilation_rate": [2, 2], "use_bias": false, "kernel_constraint": null, "strides": [1, 1], "padding": "valid", "bias_constraint": null, "trainable": true, "bias_initializer": {"class_name": "Zeros", "config": {}}, "activity_regularizer": null, "kernel_regularizer": null, "kernel_size": [3, 3], "kernel_initializer": {"class_name": "VarianceScaling", "config": {"scale": 1.0, "mode": "fan_avg", "seed": null, "distribution": "uniform"}}}}, {"class_name": "BatchNormalization", "inbound_nodes": [[["conv4_8_3x3", 0, 0, {}]]], "name": "conv4_8_3x3_bn", "config": {"moving_mean_initializer": {"class_name": "Zeros", "config": {}}, "name": "conv4_8_3x3_bn", "beta_regularizer": null, "beta_initializer": {"class_name": "Zeros", "config": {}}, "center": true, "gamma_regularizer": null, "epsilon": 1e-05, "momentum": 0.95, "gamma_initializer": {"class_name": "Ones", "config": {}}, "beta_constraint": null, "trainable": true, "axis": -1, "scale": true, "gamma_constraint": null, "moving_variance_initializer": {"class_name": "Ones", "config": {}}}}, {"class_name": "Activation", "inbound_nodes": [[["conv4_8_3x3_bn", 0, 0, {}]]], "name": "activation_48", "config": {"activation": "relu", "name": "activation_48", "trainable": true}}, {"class_name": "Conv2D", "inbound_nodes": [[["activation_48", 0, 0, {}]]], "name": "conv4_8_1x1_increase", "config": {"filters": 1024, "name": "conv4_8_1x1_increase", "data_format": "channels_last", "activation": "linear", "bias_regularizer": null, "dilation_rate": [1, 1], "use_bias": false, "kernel_constraint": null, "strides": [1, 1], "padding": "valid", "bias_constraint": null, "trainable": true, "bias_initializer": {"class_name": "Zeros", "config": {}}, "activity_regularizer": null, "kernel_regularizer": null, "kernel_size": [1, 1], "kernel_initializer": {"class_name": "VarianceScaling", "config": {"scale": 1.0, "mode": "fan_avg", "seed": null, "distribution": "uniform"}}}}, {"class_name": "BatchNormalization", "inbound_nodes": [[["conv4_8_1x1_increase", 0, 0, {}]]], "name": "conv4_8_1x1_increase_bn", "config": {"moving_mean_initializer": {"class_name": "Zeros", "config": {}}, "name": "conv4_8_1x1_increase_bn", "beta_regularizer": null, "beta_initializer": {"class_name": "Zeros", "config": {}}, "center": true, "gamma_regularizer": null, "epsilon": 1e-05, "momentum": 0.95, "gamma_initializer": {"class_name": "Ones", "config": {}}, "beta_constraint": null, "trainable": true, "axis": -1, "scale": true, "gamma_constraint": null, "moving_variance_initializer": {"class_name": "Ones", "config": {}}}}, {"class_name": "Add", "inbound_nodes": [[["conv4_8_1x1_increase_bn", 0, 0, {}], ["activation_46", 0, 0, {}]]], "name": "add_15", "config": {"name": "add_15", "trainable": true}}, {"class_name": "Activation", "inbound_nodes": [[["add_15", 0, 0, {}]]], "name": "activation_49", "config": {"activation": "relu", "name": "activation_49", "trainable": true}}, {"class_name": "Conv2D", "inbound_nodes": [[["activation_49", 0, 0, {}]]], "name": "conv4_9_1x1_reduce", "config": {"filters": 256, "name": "conv4_9_1x1_reduce", "data_format": "channels_last", "activation": "linear", "bias_regularizer": null, "dilation_rate": [1, 1], "use_bias": false, "kernel_constraint": null, "strides": [1, 1], "padding": "valid", "bias_constraint": null, "trainable": true, "bias_initializer": {"class_name": "Zeros", "config": {}}, "activity_regularizer": null, "kernel_regularizer": null, "kernel_size": [1, 1], "kernel_initializer": {"class_name": "VarianceScaling", "config": {"scale": 1.0, "mode": "fan_avg", "seed": null, "distribution": "uniform"}}}}, {"class_name": "BatchNormalization", "inbound_nodes": [[["conv4_9_1x1_reduce", 0, 0, {}]]], "name": "conv4_9_1x1_reduce_bn", "config": {"moving_mean_initializer": {"class_name": "Zeros", "config": {}}, "name": "conv4_9_1x1_reduce_bn", "beta_regularizer": null, "beta_initializer": {"class_name": "Zeros", "config": {}}, "center": true, "gamma_regularizer": null, "epsilon": 1e-05, "momentum": 0.95, "gamma_initializer": {"class_name": "Ones", "config": {}}, "beta_constraint": null, "trainable": true, "axis": -1, "scale": true, "gamma_constraint": null, "moving_variance_initializer": {"class_name": "Ones", "config": {}}}}, {"class_name": "Activation", "inbound_nodes": [[["conv4_9_1x1_reduce_bn", 0, 0, {}]]], "name": "activation_50", "config": {"activation": "relu", "name": "activation_50", "trainable": true}}, {"class_name": "ZeroPadding2D", "inbound_nodes": [[["activation_50", 0, 0, {}]]], "name": "zero_padding2d_16", "config": {"padding": [[2, 2], [2, 2]], "name": "zero_padding2d_16", "trainable": true, "data_format": "channels_last"}}, {"class_name": "Conv2D", "inbound_nodes": [[["zero_padding2d_16", 0, 0, {}]]], "name": "conv4_9_3x3", "config": {"filters": 256, "name": "conv4_9_3x3", "data_format": "channels_last", "activation": "linear", "bias_regularizer": null, "dilation_rate": [2, 2], "use_bias": false, "kernel_constraint": null, "strides": [1, 1], "padding": "valid", "bias_constraint": null, "trainable": true, "bias_initializer": {"class_name": "Zeros", "config": {}}, "activity_regularizer": null, "kernel_regularizer": null, "kernel_size": [3, 3], "kernel_initializer": {"class_name": "VarianceScaling", "config": {"scale": 1.0, "mode": "fan_avg", "seed": null, "distribution": "uniform"}}}}, {"class_name": "BatchNormalization", "inbound_nodes": [[["conv4_9_3x3", 0, 0, {}]]], "name": "conv4_9_3x3_bn", "config": {"moving_mean_initializer": {"class_name": "Zeros", "config": {}}, "name": "conv4_9_3x3_bn", "beta_regularizer": null, "beta_initializer": {"class_name": "Zeros", "config": {}}, "center": true, "gamma_regularizer": null, "epsilon": 1e-05, "momentum": 0.95, "gamma_initializer": {"class_name": "Ones", "config": {}}, "beta_constraint": null, "trainable": true, "axis": -1, "scale": true, "gamma_constraint": null, "moving_variance_initializer": {"class_name": "Ones", "config": {}}}}, {"class_name": "Activation", "inbound_nodes": [[["conv4_9_3x3_bn", 0, 0, {}]]], "name": "activation_51", "config": {"activation": "relu", "name": "activation_51", "trainable": true}}, {"class_name": "Conv2D", "inbound_nodes": [[["activation_51", 0, 0, {}]]], "name": "conv4_9_1x1_increase", "config": {"filters": 1024, "name": "conv4_9_1x1_increase", "data_format": "channels_last", "activation": "linear", "bias_regularizer": null, "dilation_rate": [1, 1], "use_bias": false, "kernel_constraint": null, "strides": [1, 1], "padding": "valid", "bias_constraint": null, "trainable": true, "bias_initializer": {"class_name": "Zeros", "config": {}}, "activity_regularizer": null, "kernel_regularizer": null, "kernel_size": [1, 1], "kernel_initializer": {"class_name": "VarianceScaling", "config": {"scale": 1.0, "mode": "fan_avg", "seed": null, "distribution": "uniform"}}}}, {"class_name": "BatchNormalization", "inbound_nodes": [[["conv4_9_1x1_increase", 0, 0, {}]]], "name": "conv4_9_1x1_increase_bn", "config": {"moving_mean_initializer": {"class_name": "Zeros", "config": {}}, "name": "conv4_9_1x1_increase_bn", "beta_regularizer": null, "beta_initializer": {"class_name": "Zeros", "config": {}}, "center": true, "gamma_regularizer": null, "epsilon": 1e-05, "momentum": 0.95, "gamma_initializer": {"class_name": "Ones", "config": {}}, "beta_constraint": null, "trainable": true, "axis": -1, "scale": true, "gamma_constraint": null, "moving_variance_initializer": {"class_name": "Ones", "config": {}}}}, {"class_name": "Add", "inbound_nodes": [[["conv4_9_1x1_increase_bn", 0, 0, {}], ["activation_49", 0, 0, {}]]], "name": "add_16", "config": {"name": "add_16", "trainable": true}}, {"class_name": "Activation", "inbound_nodes": [[["add_16", 0, 0, {}]]], "name": "activation_52", "config": {"activation": "relu", "name": "activation_52", "trainable": true}}, {"class_name": "Conv2D", "inbound_nodes": [[["activation_52", 0, 0, {}]]], "name": "conv4_10_1x1_reduce", "config": {"filters": 256, "name": "conv4_10_1x1_reduce", "data_format": "channels_last", "activation": "linear", "bias_regularizer": null, "dilation_rate": [1, 1], "use_bias": false, "kernel_constraint": null, "strides": [1, 1], "padding": "valid", "bias_constraint": null, "trainable": true, "bias_initializer": {"class_name": "Zeros", "config": {}}, "activity_regularizer": null, "kernel_regularizer": null, "kernel_size": [1, 1], "kernel_initializer": {"class_name": "VarianceScaling", "config": {"scale": 1.0, "mode": "fan_avg", "seed": null, "distribution": "uniform"}}}}, {"class_name": "BatchNormalization", "inbound_nodes": [[["conv4_10_1x1_reduce", 0, 0, {}]]], "name": "conv4_10_1x1_reduce_bn", "config": {"moving_mean_initializer": {"class_name": "Zeros", "config": {}}, "name": "conv4_10_1x1_reduce_bn", "beta_regularizer": null, "beta_initializer": {"class_name": "Zeros", "config": {}}, "center": true, "gamma_regularizer": null, "epsilon": 1e-05, "momentum": 0.95, "gamma_initializer": {"class_name": "Ones", "config": {}}, "beta_constraint": null, "trainable": true, "axis": -1, "scale": true, "gamma_constraint": null, "moving_variance_initializer": {"class_name": "Ones", "config": {}}}}, {"class_name": "Activation", "inbound_nodes": [[["conv4_10_1x1_reduce_bn", 0, 0, {}]]], "name": "activation_53", "config": {"activation": "relu", "name": "activation_53", "trainable": true}}, {"class_name": "ZeroPadding2D", "inbound_nodes": [[["activation_53", 0, 0, {}]]], "name": "zero_padding2d_17", "config": {"padding": [[2, 2], [2, 2]], "name": "zero_padding2d_17", "trainable": true, "data_format": "channels_last"}}, {"class_name": "Conv2D", "inbound_nodes": [[["zero_padding2d_17", 0, 0, {}]]], "name": "conv4_10_3x3", "config": {"filters": 256, "name": "conv4_10_3x3", "data_format": "channels_last", "activation": "linear", "bias_regularizer": null, "dilation_rate": [2, 2], "use_bias": false, "kernel_constraint": null, "strides": [1, 1], "padding": "valid", "bias_constraint": null, "trainable": true, "bias_initializer": {"class_name": "Zeros", "config": {}}, "activity_regularizer": null, "kernel_regularizer": null, "kernel_size": [3, 3], "kernel_initializer": {"class_name": "VarianceScaling", "config": {"scale": 1.0, "mode": "fan_avg", "seed": null, "distribution": "uniform"}}}}, {"class_name": "BatchNormalization", "inbound_nodes": [[["conv4_10_3x3", 0, 0, {}]]], "name": "conv4_10_3x3_bn", "config": {"moving_mean_initializer": {"class_name": "Zeros", "config": {}}, "name": "conv4_10_3x3_bn", "beta_regularizer": null, "beta_initializer": {"class_name": "Zeros", "config": {}}, "center": true, "gamma_regularizer": null, "epsilon": 1e-05, "momentum": 0.95, "gamma_initializer": {"class_name": "Ones", "config": {}}, "beta_constraint": null, "trainable": true, "axis": -1, "scale": true, "gamma_constraint": null, "moving_variance_initializer": {"class_name": "Ones", "config": {}}}}, {"class_name": "Activation", "inbound_nodes": [[["conv4_10_3x3_bn", 0, 0, {}]]], "name": "activation_54", "config": {"activation": "relu", "name": "activation_54", "trainable": true}}, {"class_name": "Conv2D", "inbound_nodes": [[["activation_54", 0, 0, {}]]], "name": "conv4_10_1x1_increase", "config": {"filters": 1024, "name": "conv4_10_1x1_increase", "data_format": "channels_last", "activation": "linear", "bias_regularizer": null, "dilation_rate": [1, 1], "use_bias": false, "kernel_constraint": null, "strides": [1, 1], "padding": "valid", "bias_constraint": null, "trainable": true, "bias_initializer": {"class_name": "Zeros", "config": {}}, "activity_regularizer": null, "kernel_regularizer": null, "kernel_size": [1, 1], "kernel_initializer": {"class_name": "VarianceScaling", "config": {"scale": 1.0, "mode": "fan_avg", "seed": null, "distribution": "uniform"}}}}, {"class_name": "BatchNormalization", "inbound_nodes": [[["conv4_10_1x1_increase", 0, 0, {}]]], "name": "conv4_10_1x1_increase_bn", "config": {"moving_mean_initializer": {"class_name": "Zeros", "config": {}}, "name": "conv4_10_1x1_increase_bn", "beta_regularizer": null, "beta_initializer": {"class_name": "Zeros", "config": {}}, "center": true, "gamma_regularizer": null, "epsilon": 1e-05, "momentum": 0.95, "gamma_initializer": {"class_name": "Ones", "config": {}}, "beta_constraint": null, "trainable": true, "axis": -1, "scale": true, "gamma_constraint": null, "moving_variance_initializer": {"class_name": "Ones", "config": {}}}}, {"class_name": "Add", "inbound_nodes": [[["conv4_10_1x1_increase_bn", 0, 0, {}], ["activation_52", 0, 0, {}]]], "name": "add_17", "config": {"name": "add_17", "trainable": true}}, {"class_name": "Activation", "inbound_nodes": [[["add_17", 0, 0, {}]]], "name": "activation_55", "config": {"activation": "relu", "name": "activation_55", "trainable": true}}, {"class_name": "Conv2D", "inbound_nodes": [[["activation_55", 0, 0, {}]]], "name": "conv4_11_1x1_reduce", "config": {"filters": 256, "name": "conv4_11_1x1_reduce", "data_format": "channels_last", "activation": "linear", "bias_regularizer": null, "dilation_rate": [1, 1], "use_bias": false, "kernel_constraint": null, "strides": [1, 1], "padding": "valid", "bias_constraint": null, "trainable": true, "bias_initializer": {"class_name": "Zeros", "config": {}}, "activity_regularizer": null, "kernel_regularizer": null, "kernel_size": [1, 1], "kernel_initializer": {"class_name": "VarianceScaling", "config": {"scale": 1.0, "mode": "fan_avg", "seed": null, "distribution": "uniform"}}}}, {"class_name": "BatchNormalization", "inbound_nodes": [[["conv4_11_1x1_reduce", 0, 0, {}]]], "name": "conv4_11_1x1_reduce_bn", "config": {"moving_mean_initializer": {"class_name": "Zeros", "config": {}}, "name": "conv4_11_1x1_reduce_bn", "beta_regularizer": null, "beta_initializer": {"class_name": "Zeros", "config": {}}, "center": true, "gamma_regularizer": null, "epsilon": 1e-05, "momentum": 0.95, "gamma_initializer": {"class_name": "Ones", "config": {}}, "beta_constraint": null, "trainable": true, "axis": -1, "scale": true, "gamma_constraint": null, "moving_variance_initializer": {"class_name": "Ones", "config": {}}}}, {"class_name": "Activation", "inbound_nodes": [[["conv4_11_1x1_reduce_bn", 0, 0, {}]]], "name": "activation_56", "config": {"activation": "relu", "name": "activation_56", "trainable": true}}, {"class_name": "ZeroPadding2D", "inbound_nodes": [[["activation_56", 0, 0, {}]]], "name": "zero_padding2d_18", "config": {"padding": [[2, 2], [2, 2]], "name": "zero_padding2d_18", "trainable": true, "data_format": "channels_last"}}, {"class_name": "Conv2D", "inbound_nodes": [[["zero_padding2d_18", 0, 0, {}]]], "name": "conv4_11_3x3", "config": {"filters": 256, "name": "conv4_11_3x3", "data_format": "channels_last", "activation": "linear", "bias_regularizer": null, "dilation_rate": [2, 2], "use_bias": false, "kernel_constraint": null, "strides": [1, 1], "padding": "valid", "bias_constraint": null, "trainable": true, "bias_initializer": {"class_name": "Zeros", "config": {}}, "activity_regularizer": null, "kernel_regularizer": null, "kernel_size": [3, 3], "kernel_initializer": {"class_name": "VarianceScaling", "config": {"scale": 1.0, "mode": "fan_avg", "seed": null, "distribution": "uniform"}}}}, {"class_name": "BatchNormalization", "inbound_nodes": [[["conv4_11_3x3", 0, 0, {}]]], "name": "conv4_11_3x3_bn", "config": {"moving_mean_initializer": {"class_name": "Zeros", "config": {}}, "name": "conv4_11_3x3_bn", "beta_regularizer": null, "beta_initializer": {"class_name": "Zeros", "config": {}}, "center": true, "gamma_regularizer": null, "epsilon": 1e-05, "momentum": 0.95, "gamma_initializer": {"class_name": "Ones", "config": {}}, "beta_constraint": null, "trainable": true, "axis": -1, "scale": true, "gamma_constraint": null, "moving_variance_initializer": {"class_name": "Ones", "config": {}}}}, {"class_name": "Activation", "inbound_nodes": [[["conv4_11_3x3_bn", 0, 0, {}]]], "name": "activation_57", "config": {"activation": "relu", "name": "activation_57", "trainable": true}}, {"class_name": "Conv2D", "inbound_nodes": [[["activation_57", 0, 0, {}]]], "name": "conv4_11_1x1_increase", "config": {"filters": 1024, "name": "conv4_11_1x1_increase", "data_format": "channels_last", "activation": "linear", "bias_regularizer": null, "dilation_rate": [1, 1], "use_bias": false, "kernel_constraint": null, "strides": [1, 1], "padding": "valid", "bias_constraint": null, "trainable": true, "bias_initializer": {"class_name": "Zeros", "config": {}}, "activity_regularizer": null, "kernel_regularizer": null, "kernel_size": [1, 1], "kernel_initializer": {"class_name": "VarianceScaling", "config": {"scale": 1.0, "mode": "fan_avg", "seed": null, "distribution": "uniform"}}}}, {"class_name": "BatchNormalization", "inbound_nodes": [[["conv4_11_1x1_increase", 0, 0, {}]]], "name": "conv4_11_1x1_increase_bn", "config": {"moving_mean_initializer": {"class_name": "Zeros", "config": {}}, "name": "conv4_11_1x1_increase_bn", "beta_regularizer": null, "beta_initializer": {"class_name": "Zeros", "config": {}}, "center": true, "gamma_regularizer": null, "epsilon": 1e-05, "momentum": 0.95, "gamma_initializer": {"class_name": "Ones", "config": {}}, "beta_constraint": null, "trainable": true, "axis": -1, "scale": true, "gamma_constraint": null, "moving_variance_initializer": {"class_name": "Ones", "config": {}}}}, {"class_name": "Add", "inbound_nodes": [[["conv4_11_1x1_increase_bn", 0, 0, {}], ["activation_55", 0, 0, {}]]], "name": "add_18", "config": {"name": "add_18", "trainable": true}}, {"class_name": "Activation", "inbound_nodes": [[["add_18", 0, 0, {}]]], "name": "activation_58", "config": {"activation": "relu", "name": "activation_58", "trainable": true}}, {"class_name": "Conv2D", "inbound_nodes": [[["activation_58", 0, 0, {}]]], "name": "conv4_12_1x1_reduce", "config": {"filters": 256, "name": "conv4_12_1x1_reduce", "data_format": "channels_last", "activation": "linear", "bias_regularizer": null, "dilation_rate": [1, 1], "use_bias": false, "kernel_constraint": null, "strides": [1, 1], "padding": "valid", "bias_constraint": null, "trainable": true, "bias_initializer": {"class_name": "Zeros", "config": {}}, "activity_regularizer": null, "kernel_regularizer": null, "kernel_size": [1, 1], "kernel_initializer": {"class_name": "VarianceScaling", "config": {"scale": 1.0, "mode": "fan_avg", "seed": null, "distribution": "uniform"}}}}, {"class_name": "BatchNormalization", "inbound_nodes": [[["conv4_12_1x1_reduce", 0, 0, {}]]], "name": "conv4_12_1x1_reduce_bn", "config": {"moving_mean_initializer": {"class_name": "Zeros", "config": {}}, "name": "conv4_12_1x1_reduce_bn", "beta_regularizer": null, "beta_initializer": {"class_name": "Zeros", "config": {}}, "center": true, "gamma_regularizer": null, "epsilon": 1e-05, "momentum": 0.95, "gamma_initializer": {"class_name": "Ones", "config": {}}, "beta_constraint": null, "trainable": true, "axis": -1, "scale": true, "gamma_constraint": null, "moving_variance_initializer": {"class_name": "Ones", "config": {}}}}, {"class_name": "Activation", "inbound_nodes": [[["conv4_12_1x1_reduce_bn", 0, 0, {}]]], "name": "activation_59", "config": {"activation": "relu", "name": "activation_59", "trainable": true}}, {"class_name": "ZeroPadding2D", "inbound_nodes": [[["activation_59", 0, 0, {}]]], "name": "zero_padding2d_19", "config": {"padding": [[2, 2], [2, 2]], "name": "zero_padding2d_19", "trainable": true, "data_format": "channels_last"}}, {"class_name": "Conv2D", "inbound_nodes": [[["zero_padding2d_19", 0, 0, {}]]], "name": "conv4_12_3x3", "config": {"filters": 256, "name": "conv4_12_3x3", "data_format": "channels_last", "activation": "linear", "bias_regularizer": null, "dilation_rate": [2, 2], "use_bias": false, "kernel_constraint": null, "strides": [1, 1], "padding": "valid", "bias_constraint": null, "trainable": true, "bias_initializer": {"class_name": "Zeros", "config": {}}, "activity_regularizer": null, "kernel_regularizer": null, "kernel_size": [3, 3], "kernel_initializer": {"class_name": "VarianceScaling", "config": {"scale": 1.0, "mode": "fan_avg", "seed": null, "distribution": "uniform"}}}}, {"class_name": "BatchNormalization", "inbound_nodes": [[["conv4_12_3x3", 0, 0, {}]]], "name": "conv4_12_3x3_bn", "config": {"moving_mean_initializer": {"class_name": "Zeros", "config": {}}, "name": "conv4_12_3x3_bn", "beta_regularizer": null, "beta_initializer": {"class_name": "Zeros", "config": {}}, "center": true, "gamma_regularizer": null, "epsilon": 1e-05, "momentum": 0.95, "gamma_initializer": {"class_name": "Ones", "config": {}}, "beta_constraint": null, "trainable": true, "axis": -1, "scale": true, "gamma_constraint": null, "moving_variance_initializer": {"class_name": "Ones", "config": {}}}}, {"class_name": "Activation", "inbound_nodes": [[["conv4_12_3x3_bn", 0, 0, {}]]], "name": "activation_60", "config": {"activation": "relu", "name": "activation_60", "trainable": true}}, {"class_name": "Conv2D", "inbound_nodes": [[["activation_60", 0, 0, {}]]], "name": "conv4_12_1x1_increase", "config": {"filters": 1024, "name": "conv4_12_1x1_increase", "data_format": "channels_last", "activation": "linear", "bias_regularizer": null, "dilation_rate": [1, 1], "use_bias": false, "kernel_constraint": null, "strides": [1, 1], "padding": "valid", "bias_constraint": null, "trainable": true, "bias_initializer": {"class_name": "Zeros", "config": {}}, "activity_regularizer": null, "kernel_regularizer": null, "kernel_size": [1, 1], "kernel_initializer": {"class_name": "VarianceScaling", "config": {"scale": 1.0, "mode": "fan_avg", "seed": null, "distribution": "uniform"}}}}, {"class_name": "BatchNormalization", "inbound_nodes": [[["conv4_12_1x1_increase", 0, 0, {}]]], "name": "conv4_12_1x1_increase_bn", "config": {"moving_mean_initializer": {"class_name": "Zeros", "config": {}}, "name": "conv4_12_1x1_increase_bn", "beta_regularizer": null, "beta_initializer": {"class_name": "Zeros", "config": {}}, "center": true, "gamma_regularizer": null, "epsilon": 1e-05, "momentum": 0.95, "gamma_initializer": {"class_name": "Ones", "config": {}}, "beta_constraint": null, "trainable": true, "axis": -1, "scale": true, "gamma_constraint": null, "moving_variance_initializer": {"class_name": "Ones", "config": {}}}}, {"class_name": "Add", "inbound_nodes": [[["conv4_12_1x1_increase_bn", 0, 0, {}], ["activation_58", 0, 0, {}]]], "name": "add_19", "config": {"name": "add_19", "trainable": true}}, {"class_name": "Activation", "inbound_nodes": [[["add_19", 0, 0, {}]]], "name": "activation_61", "config": {"activation": "relu", "name": "activation_61", "trainable": true}}, {"class_name": "Conv2D", "inbound_nodes": [[["activation_61", 0, 0, {}]]], "name": "conv4_13_1x1_reduce", "config": {"filters": 256, "name": "conv4_13_1x1_reduce", "data_format": "channels_last", "activation": "linear", "bias_regularizer": null, "dilation_rate": [1, 1], "use_bias": false, "kernel_constraint": null, "strides": [1, 1], "padding": "valid", "bias_constraint": null, "trainable": true, "bias_initializer": {"class_name": "Zeros", "config": {}}, "activity_regularizer": null, "kernel_regularizer": null, "kernel_size": [1, 1], "kernel_initializer": {"class_name": "VarianceScaling", "config": {"scale": 1.0, "mode": "fan_avg", "seed": null, "distribution": "uniform"}}}}, {"class_name": "BatchNormalization", "inbound_nodes": [[["conv4_13_1x1_reduce", 0, 0, {}]]], "name": "conv4_13_1x1_reduce_bn", "config": {"moving_mean_initializer": {"class_name": "Zeros", "config": {}}, "name": "conv4_13_1x1_reduce_bn", "beta_regularizer": null, "beta_initializer": {"class_name": "Zeros", "config": {}}, "center": true, "gamma_regularizer": null, "epsilon": 1e-05, "momentum": 0.95, "gamma_initializer": {"class_name": "Ones", "config": {}}, "beta_constraint": null, "trainable": true, "axis": -1, "scale": true, "gamma_constraint": null, "moving_variance_initializer": {"class_name": "Ones", "config": {}}}}, {"class_name": "Activation", "inbound_nodes": [[["conv4_13_1x1_reduce_bn", 0, 0, {}]]], "name": "activation_62", "config": {"activation": "relu", "name": "activation_62", "trainable": true}}, {"class_name": "ZeroPadding2D", "inbound_nodes": [[["activation_62", 0, 0, {}]]], "name": "zero_padding2d_20", "config": {"padding": [[2, 2], [2, 2]], "name": "zero_padding2d_20", "trainable": true, "data_format": "channels_last"}}, {"class_name": "Conv2D", "inbound_nodes": [[["zero_padding2d_20", 0, 0, {}]]], "name": "conv4_13_3x3", "config": {"filters": 256, "name": "conv4_13_3x3", "data_format": "channels_last", "activation": "linear", "bias_regularizer": null, "dilation_rate": [2, 2], "use_bias": false, "kernel_constraint": null, "strides": [1, 1], "padding": "valid", "bias_constraint": null, "trainable": true, "bias_initializer": {"class_name": "Zeros", "config": {}}, "activity_regularizer": null, "kernel_regularizer": null, "kernel_size": [3, 3], "kernel_initializer": {"class_name": "VarianceScaling", "config": {"scale": 1.0, "mode": "fan_avg", "seed": null, "distribution": "uniform"}}}}, {"class_name": "BatchNormalization", "inbound_nodes": [[["conv4_13_3x3", 0, 0, {}]]], "name": "conv4_13_3x3_bn", "config": {"moving_mean_initializer": {"class_name": "Zeros", "config": {}}, "name": "conv4_13_3x3_bn", "beta_regularizer": null, "beta_initializer": {"class_name": "Zeros", "config": {}}, "center": true, "gamma_regularizer": null, "epsilon": 1e-05, "momentum": 0.95, "gamma_initializer": {"class_name": "Ones", "config": {}}, "beta_constraint": null, "trainable": true, "axis": -1, "scale": true, "gamma_constraint": null, "moving_variance_initializer": {"class_name": "Ones", "config": {}}}}, {"class_name": "Activation", "inbound_nodes": [[["conv4_13_3x3_bn", 0, 0, {}]]], "name": "activation_63", "config": {"activation": "relu", "name": "activation_63", "trainable": true}}, {"class_name": "Conv2D", "inbound_nodes": [[["activation_63", 0, 0, {}]]], "name": "conv4_13_1x1_increase", "config": {"filters": 1024, "name": "conv4_13_1x1_increase", "data_format": "channels_last", "activation": "linear", "bias_regularizer": null, "dilation_rate": [1, 1], "use_bias": false, "kernel_constraint": null, "strides": [1, 1], "padding": "valid", "bias_constraint": null, "trainable": true, "bias_initializer": {"class_name": "Zeros", "config": {}}, "activity_regularizer": null, "kernel_regularizer": null, "kernel_size": [1, 1], "kernel_initializer": {"class_name": "VarianceScaling", "config": {"scale": 1.0, "mode": "fan_avg", "seed": null, "distribution": "uniform"}}}}, {"class_name": "BatchNormalization", "inbound_nodes": [[["conv4_13_1x1_increase", 0, 0, {}]]], "name": "conv4_13_1x1_increase_bn", "config": {"moving_mean_initializer": {"class_name": "Zeros", "config": {}}, "name": "conv4_13_1x1_increase_bn", "beta_regularizer": null, "beta_initializer": {"class_name": "Zeros", "config": {}}, "center": true, "gamma_regularizer": null, "epsilon": 1e-05, "momentum": 0.95, "gamma_initializer": {"class_name": "Ones", "config": {}}, "beta_constraint": null, "trainable": true, "axis": -1, "scale": true, "gamma_constraint": null, "moving_variance_initializer": {"class_name": "Ones", "config": {}}}}, {"class_name": "Add", "inbound_nodes": [[["conv4_13_1x1_increase_bn", 0, 0, {}], ["activation_61", 0, 0, {}]]], "name": "add_20", "config": {"name": "add_20", "trainable": true}}, {"class_name": "Activation", "inbound_nodes": [[["add_20", 0, 0, {}]]], "name": "activation_64", "config": {"activation": "relu", "name": "activation_64", "trainable": true}}, {"class_name": "Conv2D", "inbound_nodes": [[["activation_64", 0, 0, {}]]], "name": "conv4_14_1x1_reduce", "config": {"filters": 256, "name": "conv4_14_1x1_reduce", "data_format": "channels_last", "activation": "linear", "bias_regularizer": null, "dilation_rate": [1, 1], "use_bias": false, "kernel_constraint": null, "strides": [1, 1], "padding": "valid", "bias_constraint": null, "trainable": true, "bias_initializer": {"class_name": "Zeros", "config": {}}, "activity_regularizer": null, "kernel_regularizer": null, "kernel_size": [1, 1], "kernel_initializer": {"class_name": "VarianceScaling", "config": {"scale": 1.0, "mode": "fan_avg", "seed": null, "distribution": "uniform"}}}}, {"class_name": "BatchNormalization", "inbound_nodes": [[["conv4_14_1x1_reduce", 0, 0, {}]]], "name": "conv4_14_1x1_reduce_bn", "config": {"moving_mean_initializer": {"class_name": "Zeros", "config": {}}, "name": "conv4_14_1x1_reduce_bn", "beta_regularizer": null, "beta_initializer": {"class_name": "Zeros", "config": {}}, "center": true, "gamma_regularizer": null, "epsilon": 1e-05, "momentum": 0.95, "gamma_initializer": {"class_name": "Ones", "config": {}}, "beta_constraint": null, "trainable": true, "axis": -1, "scale": true, "gamma_constraint": null, "moving_variance_initializer": {"class_name": "Ones", "config": {}}}}, {"class_name": "Activation", "inbound_nodes": [[["conv4_14_1x1_reduce_bn", 0, 0, {}]]], "name": "activation_65", "config": {"activation": "relu", "name": "activation_65", "trainable": true}}, {"class_name": "ZeroPadding2D", "inbound_nodes": [[["activation_65", 0, 0, {}]]], "name": "zero_padding2d_21", "config": {"padding": [[2, 2], [2, 2]], "name": "zero_padding2d_21", "trainable": true, "data_format": "channels_last"}}, {"class_name": "Conv2D", "inbound_nodes": [[["zero_padding2d_21", 0, 0, {}]]], "name": "conv4_14_3x3", "config": {"filters": 256, "name": "conv4_14_3x3", "data_format": "channels_last", "activation": "linear", "bias_regularizer": null, "dilation_rate": [2, 2], "use_bias": false, "kernel_constraint": null, "strides": [1, 1], "padding": "valid", "bias_constraint": null, "trainable": true, "bias_initializer": {"class_name": "Zeros", "config": {}}, "activity_regularizer": null, "kernel_regularizer": null, "kernel_size": [3, 3], "kernel_initializer": {"class_name": "VarianceScaling", "config": {"scale": 1.0, "mode": "fan_avg", "seed": null, "distribution": "uniform"}}}}, {"class_name": "BatchNormalization", "inbound_nodes": [[["conv4_14_3x3", 0, 0, {}]]], "name": "conv4_14_3x3_bn", "config": {"moving_mean_initializer": {"class_name": "Zeros", "config": {}}, "name": "conv4_14_3x3_bn", "beta_regularizer": null, "beta_initializer": {"class_name": "Zeros", "config": {}}, "center": true, "gamma_regularizer": null, "epsilon": 1e-05, "momentum": 0.95, "gamma_initializer": {"class_name": "Ones", "config": {}}, "beta_constraint": null, "trainable": true, "axis": -1, "scale": true, "gamma_constraint": null, "moving_variance_initializer": {"class_name": "Ones", "config": {}}}}, {"class_name": "Activation", "inbound_nodes": [[["conv4_14_3x3_bn", 0, 0, {}]]], "name": "activation_66", "config": {"activation": "relu", "name": "activation_66", "trainable": true}}, {"class_name": "Conv2D", "inbound_nodes": [[["activation_66", 0, 0, {}]]], "name": "conv4_14_1x1_increase", "config": {"filters": 1024, "name": "conv4_14_1x1_increase", "data_format": "channels_last", "activation": "linear", "bias_regularizer": null, "dilation_rate": [1, 1], "use_bias": false, "kernel_constraint": null, "strides": [1, 1], "padding": "valid", "bias_constraint": null, "trainable": true, "bias_initializer": {"class_name": "Zeros", "config": {}}, "activity_regularizer": null, "kernel_regularizer": null, "kernel_size": [1, 1], "kernel_initializer": {"class_name": "VarianceScaling", "config": {"scale": 1.0, "mode": "fan_avg", "seed": null, "distribution": "uniform"}}}}, {"class_name": "BatchNormalization", "inbound_nodes": [[["conv4_14_1x1_increase", 0, 0, {}]]], "name": "conv4_14_1x1_increase_bn", "config": {"moving_mean_initializer": {"class_name": "Zeros", "config": {}}, "name": "conv4_14_1x1_increase_bn", "beta_regularizer": null, "beta_initializer": {"class_name": "Zeros", "config": {}}, "center": true, "gamma_regularizer": null, "epsilon": 1e-05, "momentum": 0.95, "gamma_initializer": {"class_name": "Ones", "config": {}}, "beta_constraint": null, "trainable": true, "axis": -1, "scale": true, "gamma_constraint": null, "moving_variance_initializer": {"class_name": "Ones", "config": {}}}}, {"class_name": "Add", "inbound_nodes": [[["conv4_14_1x1_increase_bn", 0, 0, {}], ["activation_64", 0, 0, {}]]], "name": "add_21", "config": {"name": "add_21", "trainable": true}}, {"class_name": "Activation", "inbound_nodes": [[["add_21", 0, 0, {}]]], "name": "activation_67", "config": {"activation": "relu", "name": "activation_67", "trainable": true}}, {"class_name": "Conv2D", "inbound_nodes": [[["activation_67", 0, 0, {}]]], "name": "conv4_15_1x1_reduce", "config": {"filters": 256, "name": "conv4_15_1x1_reduce", "data_format": "channels_last", "activation": "linear", "bias_regularizer": null, "dilation_rate": [1, 1], "use_bias": false, "kernel_constraint": null, "strides": [1, 1], "padding": "valid", "bias_constraint": null, "trainable": true, "bias_initializer": {"class_name": "Zeros", "config": {}}, "activity_regularizer": null, "kernel_regularizer": null, "kernel_size": [1, 1], "kernel_initializer": {"class_name": "VarianceScaling", "config": {"scale": 1.0, "mode": "fan_avg", "seed": null, "distribution": "uniform"}}}}, {"class_name": "BatchNormalization", "inbound_nodes": [[["conv4_15_1x1_reduce", 0, 0, {}]]], "name": "conv4_15_1x1_reduce_bn", "config": {"moving_mean_initializer": {"class_name": "Zeros", "config": {}}, "name": "conv4_15_1x1_reduce_bn", "beta_regularizer": null, "beta_initializer": {"class_name": "Zeros", "config": {}}, "center": true, "gamma_regularizer": null, "epsilon": 1e-05, "momentum": 0.95, "gamma_initializer": {"class_name": "Ones", "config": {}}, "beta_constraint": null, "trainable": true, "axis": -1, "scale": true, "gamma_constraint": null, "moving_variance_initializer": {"class_name": "Ones", "config": {}}}}, {"class_name": "Activation", "inbound_nodes": [[["conv4_15_1x1_reduce_bn", 0, 0, {}]]], "name": "activation_68", "config": {"activation": "relu", "name": "activation_68", "trainable": true}}, {"class_name": "ZeroPadding2D", "inbound_nodes": [[["activation_68", 0, 0, {}]]], "name": "zero_padding2d_22", "config": {"padding": [[2, 2], [2, 2]], "name": "zero_padding2d_22", "trainable": true, "data_format": "channels_last"}}, {"class_name": "Conv2D", "inbound_nodes": [[["zero_padding2d_22", 0, 0, {}]]], "name": "conv4_15_3x3", "config": {"filters": 256, "name": "conv4_15_3x3", "data_format": "channels_last", "activation": "linear", "bias_regularizer": null, "dilation_rate": [2, 2], "use_bias": false, "kernel_constraint": null, "strides": [1, 1], "padding": "valid", "bias_constraint": null, "trainable": true, "bias_initializer": {"class_name": "Zeros", "config": {}}, "activity_regularizer": null, "kernel_regularizer": null, "kernel_size": [3, 3], "kernel_initializer": {"class_name": "VarianceScaling", "config": {"scale": 1.0, "mode": "fan_avg", "seed": null, "distribution": "uniform"}}}}, {"class_name": "BatchNormalization", "inbound_nodes": [[["conv4_15_3x3", 0, 0, {}]]], "name": "conv4_15_3x3_bn", "config": {"moving_mean_initializer": {"class_name": "Zeros", "config": {}}, "name": "conv4_15_3x3_bn", "beta_regularizer": null, "beta_initializer": {"class_name": "Zeros", "config": {}}, "center": true, "gamma_regularizer": null, "epsilon": 1e-05, "momentum": 0.95, "gamma_initializer": {"class_name": "Ones", "config": {}}, "beta_constraint": null, "trainable": true, "axis": -1, "scale": true, "gamma_constraint": null, "moving_variance_initializer": {"class_name": "Ones", "config": {}}}}, {"class_name": "Activation", "inbound_nodes": [[["conv4_15_3x3_bn", 0, 0, {}]]], "name": "activation_69", "config": {"activation": "relu", "name": "activation_69", "trainable": true}}, {"class_name": "Conv2D", "inbound_nodes": [[["activation_69", 0, 0, {}]]], "name": "conv4_15_1x1_increase", "config": {"filters": 1024, "name": "conv4_15_1x1_increase", "data_format": "channels_last", "activation": "linear", "bias_regularizer": null, "dilation_rate": [1, 1], "use_bias": false, "kernel_constraint": null, "strides": [1, 1], "padding": "valid", "bias_constraint": null, "trainable": true, "bias_initializer": {"class_name": "Zeros", "config": {}}, "activity_regularizer": null, "kernel_regularizer": null, "kernel_size": [1, 1], "kernel_initializer": {"class_name": "VarianceScaling", "config": {"scale": 1.0, "mode": "fan_avg", "seed": null, "distribution": "uniform"}}}}, {"class_name": "BatchNormalization", "inbound_nodes": [[["conv4_15_1x1_increase", 0, 0, {}]]], "name": "conv4_15_1x1_increase_bn", "config": {"moving_mean_initializer": {"class_name": "Zeros", "config": {}}, "name": "conv4_15_1x1_increase_bn", "beta_regularizer": null, "beta_initializer": {"class_name": "Zeros", "config": {}}, "center": true, "gamma_regularizer": null, "epsilon": 1e-05, "momentum": 0.95, "gamma_initializer": {"class_name": "Ones", "config": {}}, "beta_constraint": null, "trainable": true, "axis": -1, "scale": true, "gamma_constraint": null, "moving_variance_initializer": {"class_name": "Ones", "config": {}}}}, {"class_name": "Add", "inbound_nodes": [[["conv4_15_1x1_increase_bn", 0, 0, {}], ["activation_67", 0, 0, {}]]], "name": "add_22", "config": {"name": "add_22", "trainable": true}}, {"class_name": "Activation", "inbound_nodes": [[["add_22", 0, 0, {}]]], "name": "activation_70", "config": {"activation": "relu", "name": "activation_70", "trainable": true}}, {"class_name": "Conv2D", "inbound_nodes": [[["activation_70", 0, 0, {}]]], "name": "conv4_16_1x1_reduce", "config": {"filters": 256, "name": "conv4_16_1x1_reduce", "data_format": "channels_last", "activation": "linear", "bias_regularizer": null, "dilation_rate": [1, 1], "use_bias": false, "kernel_constraint": null, "strides": [1, 1], "padding": "valid", "bias_constraint": null, "trainable": true, "bias_initializer": {"class_name": "Zeros", "config": {}}, "activity_regularizer": null, "kernel_regularizer": null, "kernel_size": [1, 1], "kernel_initializer": {"class_name": "VarianceScaling", "config": {"scale": 1.0, "mode": "fan_avg", "seed": null, "distribution": "uniform"}}}}, {"class_name": "BatchNormalization", "inbound_nodes": [[["conv4_16_1x1_reduce", 0, 0, {}]]], "name": "conv4_16_1x1_reduce_bn", "config": {"moving_mean_initializer": {"class_name": "Zeros", "config": {}}, "name": "conv4_16_1x1_reduce_bn", "beta_regularizer": null, "beta_initializer": {"class_name": "Zeros", "config": {}}, "center": true, "gamma_regularizer": null, "epsilon": 1e-05, "momentum": 0.95, "gamma_initializer": {"class_name": "Ones", "config": {}}, "beta_constraint": null, "trainable": true, "axis": -1, "scale": true, "gamma_constraint": null, "moving_variance_initializer": {"class_name": "Ones", "config": {}}}}, {"class_name": "Activation", "inbound_nodes": [[["conv4_16_1x1_reduce_bn", 0, 0, {}]]], "name": "activation_71", "config": {"activation": "relu", "name": "activation_71", "trainable": true}}, {"class_name": "ZeroPadding2D", "inbound_nodes": [[["activation_71", 0, 0, {}]]], "name": "zero_padding2d_23", "config": {"padding": [[2, 2], [2, 2]], "name": "zero_padding2d_23", "trainable": true, "data_format": "channels_last"}}, {"class_name": "Conv2D", "inbound_nodes": [[["zero_padding2d_23", 0, 0, {}]]], "name": "conv4_16_3x3", "config": {"filters": 256, "name": "conv4_16_3x3", "data_format": "channels_last", "activation": "linear", "bias_regularizer": null, "dilation_rate": [2, 2], "use_bias": false, "kernel_constraint": null, "strides": [1, 1], "padding": "valid", "bias_constraint": null, "trainable": true, "bias_initializer": {"class_name": "Zeros", "config": {}}, "activity_regularizer": null, "kernel_regularizer": null, "kernel_size": [3, 3], "kernel_initializer": {"class_name": "VarianceScaling", "config": {"scale": 1.0, "mode": "fan_avg", "seed": null, "distribution": "uniform"}}}}, {"class_name": "BatchNormalization", "inbound_nodes": [[["conv4_16_3x3", 0, 0, {}]]], "name": "conv4_16_3x3_bn", "config": {"moving_mean_initializer": {"class_name": "Zeros", "config": {}}, "name": "conv4_16_3x3_bn", "beta_regularizer": null, "beta_initializer": {"class_name": "Zeros", "config": {}}, "center": true, "gamma_regularizer": null, "epsilon": 1e-05, "momentum": 0.95, "gamma_initializer": {"class_name": "Ones", "config": {}}, "beta_constraint": null, "trainable": true, "axis": -1, "scale": true, "gamma_constraint": null, "moving_variance_initializer": {"class_name": "Ones", "config": {}}}}, {"class_name": "Activation", "inbound_nodes": [[["conv4_16_3x3_bn", 0, 0, {}]]], "name": "activation_72", "config": {"activation": "relu", "name": "activation_72", "trainable": true}}, {"class_name": "Conv2D", "inbound_nodes": [[["activation_72", 0, 0, {}]]], "name": "conv4_16_1x1_increase", "config": {"filters": 1024, "name": "conv4_16_1x1_increase", "data_format": "channels_last", "activation": "linear", "bias_regularizer": null, "dilation_rate": [1, 1], "use_bias": false, "kernel_constraint": null, "strides": [1, 1], "padding": "valid", "bias_constraint": null, "trainable": true, "bias_initializer": {"class_name": "Zeros", "config": {}}, "activity_regularizer": null, "kernel_regularizer": null, "kernel_size": [1, 1], "kernel_initializer": {"class_name": "VarianceScaling", "config": {"scale": 1.0, "mode": "fan_avg", "seed": null, "distribution": "uniform"}}}}, {"class_name": "BatchNormalization", "inbound_nodes": [[["conv4_16_1x1_increase", 0, 0, {}]]], "name": "conv4_16_1x1_increase_bn", "config": {"moving_mean_initializer": {"class_name": "Zeros", "config": {}}, "name": "conv4_16_1x1_increase_bn", "beta_regularizer": null, "beta_initializer": {"class_name": "Zeros", "config": {}}, "center": true, "gamma_regularizer": null, "epsilon": 1e-05, "momentum": 0.95, "gamma_initializer": {"class_name": "Ones", "config": {}}, "beta_constraint": null, "trainable": true, "axis": -1, "scale": true, "gamma_constraint": null, "moving_variance_initializer": {"class_name": "Ones", "config": {}}}}, {"class_name": "Add", "inbound_nodes": [[["conv4_16_1x1_increase_bn", 0, 0, {}], ["activation_70", 0, 0, {}]]], "name": "add_23", "config": {"name": "add_23", "trainable": true}}, {"class_name": "Activation", "inbound_nodes": [[["add_23", 0, 0, {}]]], "name": "activation_73", "config": {"activation": "relu", "name": "activation_73", "trainable": true}}, {"class_name": "Conv2D", "inbound_nodes": [[["activation_73", 0, 0, {}]]], "name": "conv4_17_1x1_reduce", "config": {"filters": 256, "name": "conv4_17_1x1_reduce", "data_format": "channels_last", "activation": "linear", "bias_regularizer": null, "dilation_rate": [1, 1], "use_bias": false, "kernel_constraint": null, "strides": [1, 1], "padding": "valid", "bias_constraint": null, "trainable": true, "bias_initializer": {"class_name": "Zeros", "config": {}}, "activity_regularizer": null, "kernel_regularizer": null, "kernel_size": [1, 1], "kernel_initializer": {"class_name": "VarianceScaling", "config": {"scale": 1.0, "mode": "fan_avg", "seed": null, "distribution": "uniform"}}}}, {"class_name": "BatchNormalization", "inbound_nodes": [[["conv4_17_1x1_reduce", 0, 0, {}]]], "name": "conv4_17_1x1_reduce_bn", "config": {"moving_mean_initializer": {"class_name": "Zeros", "config": {}}, "name": "conv4_17_1x1_reduce_bn", "beta_regularizer": null, "beta_initializer": {"class_name": "Zeros", "config": {}}, "center": true, "gamma_regularizer": null, "epsilon": 1e-05, "momentum": 0.95, "gamma_initializer": {"class_name": "Ones", "config": {}}, "beta_constraint": null, "trainable": true, "axis": -1, "scale": true, "gamma_constraint": null, "moving_variance_initializer": {"class_name": "Ones", "config": {}}}}, {"class_name": "Activation", "inbound_nodes": [[["conv4_17_1x1_reduce_bn", 0, 0, {}]]], "name": "activation_74", "config": {"activation": "relu", "name": "activation_74", "trainable": true}}, {"class_name": "ZeroPadding2D", "inbound_nodes": [[["activation_74", 0, 0, {}]]], "name": "zero_padding2d_24", "config": {"padding": [[2, 2], [2, 2]], "name": "zero_padding2d_24", "trainable": true, "data_format": "channels_last"}}, {"class_name": "Conv2D", "inbound_nodes": [[["zero_padding2d_24", 0, 0, {}]]], "name": "conv4_17_3x3", "config": {"filters": 256, "name": "conv4_17_3x3", "data_format": "channels_last", "activation": "linear", "bias_regularizer": null, "dilation_rate": [2, 2], "use_bias": false, "kernel_constraint": null, "strides": [1, 1], "padding": "valid", "bias_constraint": null, "trainable": true, "bias_initializer": {"class_name": "Zeros", "config": {}}, "activity_regularizer": null, "kernel_regularizer": null, "kernel_size": [3, 3], "kernel_initializer": {"class_name": "VarianceScaling", "config": {"scale": 1.0, "mode": "fan_avg", "seed": null, "distribution": "uniform"}}}}, {"class_name": "BatchNormalization", "inbound_nodes": [[["conv4_17_3x3", 0, 0, {}]]], "name": "conv4_17_3x3_bn", "config": {"moving_mean_initializer": {"class_name": "Zeros", "config": {}}, "name": "conv4_17_3x3_bn", "beta_regularizer": null, "beta_initializer": {"class_name": "Zeros", "config": {}}, "center": true, "gamma_regularizer": null, "epsilon": 1e-05, "momentum": 0.95, "gamma_initializer": {"class_name": "Ones", "config": {}}, "beta_constraint": null, "trainable": true, "axis": -1, "scale": true, "gamma_constraint": null, "moving_variance_initializer": {"class_name": "Ones", "config": {}}}}, {"class_name": "Activation", "inbound_nodes": [[["conv4_17_3x3_bn", 0, 0, {}]]], "name": "activation_75", "config": {"activation": "relu", "name": "activation_75", "trainable": true}}, {"class_name": "Conv2D", "inbound_nodes": [[["activation_75", 0, 0, {}]]], "name": "conv4_17_1x1_increase", "config": {"filters": 1024, "name": "conv4_17_1x1_increase", "data_format": "channels_last", "activation": "linear", "bias_regularizer": null, "dilation_rate": [1, 1], "use_bias": false, "kernel_constraint": null, "strides": [1, 1], "padding": "valid", "bias_constraint": null, "trainable": true, "bias_initializer": {"class_name": "Zeros", "config": {}}, "activity_regularizer": null, "kernel_regularizer": null, "kernel_size": [1, 1], "kernel_initializer": {"class_name": "VarianceScaling", "config": {"scale": 1.0, "mode": "fan_avg", "seed": null, "distribution": "uniform"}}}}, {"class_name": "BatchNormalization", "inbound_nodes": [[["conv4_17_1x1_increase", 0, 0, {}]]], "name": "conv4_17_1x1_increase_bn", "config": {"moving_mean_initializer": {"class_name": "Zeros", "config": {}}, "name": "conv4_17_1x1_increase_bn", "beta_regularizer": null, "beta_initializer": {"class_name": "Zeros", "config": {}}, "center": true, "gamma_regularizer": null, "epsilon": 1e-05, "momentum": 0.95, "gamma_initializer": {"class_name": "Ones", "config": {}}, "beta_constraint": null, "trainable": true, "axis": -1, "scale": true, "gamma_constraint": null, "moving_variance_initializer": {"class_name": "Ones", "config": {}}}}, {"class_name": "Add", "inbound_nodes": [[["conv4_17_1x1_increase_bn", 0, 0, {}], ["activation_73", 0, 0, {}]]], "name": "add_24", "config": {"name": "add_24", "trainable": true}}, {"class_name": "Activation", "inbound_nodes": [[["add_24", 0, 0, {}]]], "name": "activation_76", "config": {"activation": "relu", "name": "activation_76", "trainable": true}}, {"class_name": "Conv2D", "inbound_nodes": [[["activation_76", 0, 0, {}]]], "name": "conv4_18_1x1_reduce", "config": {"filters": 256, "name": "conv4_18_1x1_reduce", "data_format": "channels_last", "activation": "linear", "bias_regularizer": null, "dilation_rate": [1, 1], "use_bias": false, "kernel_constraint": null, "strides": [1, 1], "padding": "valid", "bias_constraint": null, "trainable": true, "bias_initializer": {"class_name": "Zeros", "config": {}}, "activity_regularizer": null, "kernel_regularizer": null, "kernel_size": [1, 1], "kernel_initializer": {"class_name": "VarianceScaling", "config": {"scale": 1.0, "mode": "fan_avg", "seed": null, "distribution": "uniform"}}}}, {"class_name": "BatchNormalization", "inbound_nodes": [[["conv4_18_1x1_reduce", 0, 0, {}]]], "name": "conv4_18_1x1_reduce_bn", "config": {"moving_mean_initializer": {"class_name": "Zeros", "config": {}}, "name": "conv4_18_1x1_reduce_bn", "beta_regularizer": null, "beta_initializer": {"class_name": "Zeros", "config": {}}, "center": true, "gamma_regularizer": null, "epsilon": 1e-05, "momentum": 0.95, "gamma_initializer": {"class_name": "Ones", "config": {}}, "beta_constraint": null, "trainable": true, "axis": -1, "scale": true, "gamma_constraint": null, "moving_variance_initializer": {"class_name": "Ones", "config": {}}}}, {"class_name": "Activation", "inbound_nodes": [[["conv4_18_1x1_reduce_bn", 0, 0, {}]]], "name": "activation_77", "config": {"activation": "relu", "name": "activation_77", "trainable": true}}, {"class_name": "ZeroPadding2D", "inbound_nodes": [[["activation_77", 0, 0, {}]]], "name": "zero_padding2d_25", "config": {"padding": [[2, 2], [2, 2]], "name": "zero_padding2d_25", "trainable": true, "data_format": "channels_last"}}, {"class_name": "Conv2D", "inbound_nodes": [[["zero_padding2d_25", 0, 0, {}]]], "name": "conv4_18_3x3", "config": {"filters": 256, "name": "conv4_18_3x3", "data_format": "channels_last", "activation": "linear", "bias_regularizer": null, "dilation_rate": [2, 2], "use_bias": false, "kernel_constraint": null, "strides": [1, 1], "padding": "valid", "bias_constraint": null, "trainable": true, "bias_initializer": {"class_name": "Zeros", "config": {}}, "activity_regularizer": null, "kernel_regularizer": null, "kernel_size": [3, 3], "kernel_initializer": {"class_name": "VarianceScaling", "config": {"scale": 1.0, "mode": "fan_avg", "seed": null, "distribution": "uniform"}}}}, {"class_name": "BatchNormalization", "inbound_nodes": [[["conv4_18_3x3", 0, 0, {}]]], "name": "conv4_18_3x3_bn", "config": {"moving_mean_initializer": {"class_name": "Zeros", "config": {}}, "name": "conv4_18_3x3_bn", "beta_regularizer": null, "beta_initializer": {"class_name": "Zeros", "config": {}}, "center": true, "gamma_regularizer": null, "epsilon": 1e-05, "momentum": 0.95, "gamma_initializer": {"class_name": "Ones", "config": {}}, "beta_constraint": null, "trainable": true, "axis": -1, "scale": true, "gamma_constraint": null, "moving_variance_initializer": {"class_name": "Ones", "config": {}}}}, {"class_name": "Activation", "inbound_nodes": [[["conv4_18_3x3_bn", 0, 0, {}]]], "name": "activation_78", "config": {"activation": "relu", "name": "activation_78", "trainable": true}}, {"class_name": "Conv2D", "inbound_nodes": [[["activation_78", 0, 0, {}]]], "name": "conv4_18_1x1_increase", "config": {"filters": 1024, "name": "conv4_18_1x1_increase", "data_format": "channels_last", "activation": "linear", "bias_regularizer": null, "dilation_rate": [1, 1], "use_bias": false, "kernel_constraint": null, "strides": [1, 1], "padding": "valid", "bias_constraint": null, "trainable": true, "bias_initializer": {"class_name": "Zeros", "config": {}}, "activity_regularizer": null, "kernel_regularizer": null, "kernel_size": [1, 1], "kernel_initializer": {"class_name": "VarianceScaling", "config": {"scale": 1.0, "mode": "fan_avg", "seed": null, "distribution": "uniform"}}}}, {"class_name": "BatchNormalization", "inbound_nodes": [[["conv4_18_1x1_increase", 0, 0, {}]]], "name": "conv4_18_1x1_increase_bn", "config": {"moving_mean_initializer": {"class_name": "Zeros", "config": {}}, "name": "conv4_18_1x1_increase_bn", "beta_regularizer": null, "beta_initializer": {"class_name": "Zeros", "config": {}}, "center": true, "gamma_regularizer": null, "epsilon": 1e-05, "momentum": 0.95, "gamma_initializer": {"class_name": "Ones", "config": {}}, "beta_constraint": null, "trainable": true, "axis": -1, "scale": true, "gamma_constraint": null, "moving_variance_initializer": {"class_name": "Ones", "config": {}}}}, {"class_name": "Add", "inbound_nodes": [[["conv4_18_1x1_increase_bn", 0, 0, {}], ["activation_76", 0, 0, {}]]], "name": "add_25", "config": {"name": "add_25", "trainable": true}}, {"class_name": "Activation", "inbound_nodes": [[["add_25", 0, 0, {}]]], "name": "activation_79", "config": {"activation": "relu", "name": "activation_79", "trainable": true}}, {"class_name": "Conv2D", "inbound_nodes": [[["activation_79", 0, 0, {}]]], "name": "conv4_19_1x1_reduce", "config": {"filters": 256, "name": "conv4_19_1x1_reduce", "data_format": "channels_last", "activation": "linear", "bias_regularizer": null, "dilation_rate": [1, 1], "use_bias": false, "kernel_constraint": null, "strides": [1, 1], "padding": "valid", "bias_constraint": null, "trainable": true, "bias_initializer": {"class_name": "Zeros", "config": {}}, "activity_regularizer": null, "kernel_regularizer": null, "kernel_size": [1, 1], "kernel_initializer": {"class_name": "VarianceScaling", "config": {"scale": 1.0, "mode": "fan_avg", "seed": null, "distribution": "uniform"}}}}, {"class_name": "BatchNormalization", "inbound_nodes": [[["conv4_19_1x1_reduce", 0, 0, {}]]], "name": "conv4_19_1x1_reduce_bn", "config": {"moving_mean_initializer": {"class_name": "Zeros", "config": {}}, "name": "conv4_19_1x1_reduce_bn", "beta_regularizer": null, "beta_initializer": {"class_name": "Zeros", "config": {}}, "center": true, "gamma_regularizer": null, "epsilon": 1e-05, "momentum": 0.95, "gamma_initializer": {"class_name": "Ones", "config": {}}, "beta_constraint": null, "trainable": true, "axis": -1, "scale": true, "gamma_constraint": null, "moving_variance_initializer": {"class_name": "Ones", "config": {}}}}, {"class_name": "Activation", "inbound_nodes": [[["conv4_19_1x1_reduce_bn", 0, 0, {}]]], "name": "activation_80", "config": {"activation": "relu", "name": "activation_80", "trainable": true}}, {"class_name": "ZeroPadding2D", "inbound_nodes": [[["activation_80", 0, 0, {}]]], "name": "zero_padding2d_26", "config": {"padding": [[2, 2], [2, 2]], "name": "zero_padding2d_26", "trainable": true, "data_format": "channels_last"}}, {"class_name": "Conv2D", "inbound_nodes": [[["zero_padding2d_26", 0, 0, {}]]], "name": "conv4_19_3x3", "config": {"filters": 256, "name": "conv4_19_3x3", "data_format": "channels_last", "activation": "linear", "bias_regularizer": null, "dilation_rate": [2, 2], "use_bias": false, "kernel_constraint": null, "strides": [1, 1], "padding": "valid", "bias_constraint": null, "trainable": true, "bias_initializer": {"class_name": "Zeros", "config": {}}, "activity_regularizer": null, "kernel_regularizer": null, "kernel_size": [3, 3], "kernel_initializer": {"class_name": "VarianceScaling", "config": {"scale": 1.0, "mode": "fan_avg", "seed": null, "distribution": "uniform"}}}}, {"class_name": "BatchNormalization", "inbound_nodes": [[["conv4_19_3x3", 0, 0, {}]]], "name": "conv4_19_3x3_bn", "config": {"moving_mean_initializer": {"class_name": "Zeros", "config": {}}, "name": "conv4_19_3x3_bn", "beta_regularizer": null, "beta_initializer": {"class_name": "Zeros", "config": {}}, "center": true, "gamma_regularizer": null, "epsilon": 1e-05, "momentum": 0.95, "gamma_initializer": {"class_name": "Ones", "config": {}}, "beta_constraint": null, "trainable": true, "axis": -1, "scale": true, "gamma_constraint": null, "moving_variance_initializer": {"class_name": "Ones", "config": {}}}}, {"class_name": "Activation", "inbound_nodes": [[["conv4_19_3x3_bn", 0, 0, {}]]], "name": "activation_81", "config": {"activation": "relu", "name": "activation_81", "trainable": true}}, {"class_name": "Conv2D", "inbound_nodes": [[["activation_81", 0, 0, {}]]], "name": "conv4_19_1x1_increase", "config": {"filters": 1024, "name": "conv4_19_1x1_increase", "data_format": "channels_last", "activation": "linear", "bias_regularizer": null, "dilation_rate": [1, 1], "use_bias": false, "kernel_constraint": null, "strides": [1, 1], "padding": "valid", "bias_constraint": null, "trainable": true, "bias_initializer": {"class_name": "Zeros", "config": {}}, "activity_regularizer": null, "kernel_regularizer": null, "kernel_size": [1, 1], "kernel_initializer": {"class_name": "VarianceScaling", "config": {"scale": 1.0, "mode": "fan_avg", "seed": null, "distribution": "uniform"}}}}, {"class_name": "BatchNormalization", "inbound_nodes": [[["conv4_19_1x1_increase", 0, 0, {}]]], "name": "conv4_19_1x1_increase_bn", "config": {"moving_mean_initializer": {"class_name": "Zeros", "config": {}}, "name": "conv4_19_1x1_increase_bn", "beta_regularizer": null, "beta_initializer": {"class_name": "Zeros", "config": {}}, "center": true, "gamma_regularizer": null, "epsilon": 1e-05, "momentum": 0.95, "gamma_initializer": {"class_name": "Ones", "config": {}}, "beta_constraint": null, "trainable": true, "axis": -1, "scale": true, "gamma_constraint": null, "moving_variance_initializer": {"class_name": "Ones", "config": {}}}}, {"class_name": "Add", "inbound_nodes": [[["conv4_19_1x1_increase_bn", 0, 0, {}], ["activation_79", 0, 0, {}]]], "name": "add_26", "config": {"name": "add_26", "trainable": true}}, {"class_name": "Activation", "inbound_nodes": [[["add_26", 0, 0, {}]]], "name": "activation_82", "config": {"activation": "relu", "name": "activation_82", "trainable": true}}, {"class_name": "Conv2D", "inbound_nodes": [[["activation_82", 0, 0, {}]]], "name": "conv4_20_1x1_reduce", "config": {"filters": 256, "name": "conv4_20_1x1_reduce", "data_format": "channels_last", "activation": "linear", "bias_regularizer": null, "dilation_rate": [1, 1], "use_bias": false, "kernel_constraint": null, "strides": [1, 1], "padding": "valid", "bias_constraint": null, "trainable": true, "bias_initializer": {"class_name": "Zeros", "config": {}}, "activity_regularizer": null, "kernel_regularizer": null, "kernel_size": [1, 1], "kernel_initializer": {"class_name": "VarianceScaling", "config": {"scale": 1.0, "mode": "fan_avg", "seed": null, "distribution": "uniform"}}}}, {"class_name": "BatchNormalization", "inbound_nodes": [[["conv4_20_1x1_reduce", 0, 0, {}]]], "name": "conv4_20_1x1_reduce_bn", "config": {"moving_mean_initializer": {"class_name": "Zeros", "config": {}}, "name": "conv4_20_1x1_reduce_bn", "beta_regularizer": null, "beta_initializer": {"class_name": "Zeros", "config": {}}, "center": true, "gamma_regularizer": null, "epsilon": 1e-05, "momentum": 0.95, "gamma_initializer": {"class_name": "Ones", "config": {}}, "beta_constraint": null, "trainable": true, "axis": -1, "scale": true, "gamma_constraint": null, "moving_variance_initializer": {"class_name": "Ones", "config": {}}}}, {"class_name": "Activation", "inbound_nodes": [[["conv4_20_1x1_reduce_bn", 0, 0, {}]]], "name": "activation_83", "config": {"activation": "relu", "name": "activation_83", "trainable": true}}, {"class_name": "ZeroPadding2D", "inbound_nodes": [[["activation_83", 0, 0, {}]]], "name": "zero_padding2d_27", "config": {"padding": [[2, 2], [2, 2]], "name": "zero_padding2d_27", "trainable": true, "data_format": "channels_last"}}, {"class_name": "Conv2D", "inbound_nodes": [[["zero_padding2d_27", 0, 0, {}]]], "name": "conv4_20_3x3", "config": {"filters": 256, "name": "conv4_20_3x3", "data_format": "channels_last", "activation": "linear", "bias_regularizer": null, "dilation_rate": [2, 2], "use_bias": false, "kernel_constraint": null, "strides": [1, 1], "padding": "valid", "bias_constraint": null, "trainable": true, "bias_initializer": {"class_name": "Zeros", "config": {}}, "activity_regularizer": null, "kernel_regularizer": null, "kernel_size": [3, 3], "kernel_initializer": {"class_name": "VarianceScaling", "config": {"scale": 1.0, "mode": "fan_avg", "seed": null, "distribution": "uniform"}}}}, {"class_name": "BatchNormalization", "inbound_nodes": [[["conv4_20_3x3", 0, 0, {}]]], "name": "conv4_20_3x3_bn", "config": {"moving_mean_initializer": {"class_name": "Zeros", "config": {}}, "name": "conv4_20_3x3_bn", "beta_regularizer": null, "beta_initializer": {"class_name": "Zeros", "config": {}}, "center": true, "gamma_regularizer": null, "epsilon": 1e-05, "momentum": 0.95, "gamma_initializer": {"class_name": "Ones", "config": {}}, "beta_constraint": null, "trainable": true, "axis": -1, "scale": true, "gamma_constraint": null, "moving_variance_initializer": {"class_name": "Ones", "config": {}}}}, {"class_name": "Activation", "inbound_nodes": [[["conv4_20_3x3_bn", 0, 0, {}]]], "name": "activation_84", "config": {"activation": "relu", "name": "activation_84", "trainable": true}}, {"class_name": "Conv2D", "inbound_nodes": [[["activation_84", 0, 0, {}]]], "name": "conv4_20_1x1_increase", "config": {"filters": 1024, "name": "conv4_20_1x1_increase", "data_format": "channels_last", "activation": "linear", "bias_regularizer": null, "dilation_rate": [1, 1], "use_bias": false, "kernel_constraint": null, "strides": [1, 1], "padding": "valid", "bias_constraint": null, "trainable": true, "bias_initializer": {"class_name": "Zeros", "config": {}}, "activity_regularizer": null, "kernel_regularizer": null, "kernel_size": [1, 1], "kernel_initializer": {"class_name": "VarianceScaling", "config": {"scale": 1.0, "mode": "fan_avg", "seed": null, "distribution": "uniform"}}}}, {"class_name": "BatchNormalization", "inbound_nodes": [[["conv4_20_1x1_increase", 0, 0, {}]]], "name": "conv4_20_1x1_increase_bn", "config": {"moving_mean_initializer": {"class_name": "Zeros", "config": {}}, "name": "conv4_20_1x1_increase_bn", "beta_regularizer": null, "beta_initializer": {"class_name": "Zeros", "config": {}}, "center": true, "gamma_regularizer": null, "epsilon": 1e-05, "momentum": 0.95, "gamma_initializer": {"class_name": "Ones", "config": {}}, "beta_constraint": null, "trainable": true, "axis": -1, "scale": true, "gamma_constraint": null, "moving_variance_initializer": {"class_name": "Ones", "config": {}}}}, {"class_name": "Add", "inbound_nodes": [[["conv4_20_1x1_increase_bn", 0, 0, {}], ["activation_82", 0, 0, {}]]], "name": "add_27", "config": {"name": "add_27", "trainable": true}}, {"class_name": "Activation", "inbound_nodes": [[["add_27", 0, 0, {}]]], "name": "activation_85", "config": {"activation": "relu", "name": "activation_85", "trainable": true}}, {"class_name": "Conv2D", "inbound_nodes": [[["activation_85", 0, 0, {}]]], "name": "conv4_21_1x1_reduce", "config": {"filters": 256, "name": "conv4_21_1x1_reduce", "data_format": "channels_last", "activation": "linear", "bias_regularizer": null, "dilation_rate": [1, 1], "use_bias": false, "kernel_constraint": null, "strides": [1, 1], "padding": "valid", "bias_constraint": null, "trainable": true, "bias_initializer": {"class_name": "Zeros", "config": {}}, "activity_regularizer": null, "kernel_regularizer": null, "kernel_size": [1, 1], "kernel_initializer": {"class_name": "VarianceScaling", "config": {"scale": 1.0, "mode": "fan_avg", "seed": null, "distribution": "uniform"}}}}, {"class_name": "BatchNormalization", "inbound_nodes": [[["conv4_21_1x1_reduce", 0, 0, {}]]], "name": "conv4_21_1x1_reduce_bn", "config": {"moving_mean_initializer": {"class_name": "Zeros", "config": {}}, "name": "conv4_21_1x1_reduce_bn", "beta_regularizer": null, "beta_initializer": {"class_name": "Zeros", "config": {}}, "center": true, "gamma_regularizer": null, "epsilon": 1e-05, "momentum": 0.95, "gamma_initializer": {"class_name": "Ones", "config": {}}, "beta_constraint": null, "trainable": true, "axis": -1, "scale": true, "gamma_constraint": null, "moving_variance_initializer": {"class_name": "Ones", "config": {}}}}, {"class_name": "Activation", "inbound_nodes": [[["conv4_21_1x1_reduce_bn", 0, 0, {}]]], "name": "activation_86", "config": {"activation": "relu", "name": "activation_86", "trainable": true}}, {"class_name": "ZeroPadding2D", "inbound_nodes": [[["activation_86", 0, 0, {}]]], "name": "zero_padding2d_28", "config": {"padding": [[2, 2], [2, 2]], "name": "zero_padding2d_28", "trainable": true, "data_format": "channels_last"}}, {"class_name": "Conv2D", "inbound_nodes": [[["zero_padding2d_28", 0, 0, {}]]], "name": "conv4_21_3x3", "config": {"filters": 256, "name": "conv4_21_3x3", "data_format": "channels_last", "activation": "linear", "bias_regularizer": null, "dilation_rate": [2, 2], "use_bias": false, "kernel_constraint": null, "strides": [1, 1], "padding": "valid", "bias_constraint": null, "trainable": true, "bias_initializer": {"class_name": "Zeros", "config": {}}, "activity_regularizer": null, "kernel_regularizer": null, "kernel_size": [3, 3], "kernel_initializer": {"class_name": "VarianceScaling", "config": {"scale": 1.0, "mode": "fan_avg", "seed": null, "distribution": "uniform"}}}}, {"class_name": "BatchNormalization", "inbound_nodes": [[["conv4_21_3x3", 0, 0, {}]]], "name": "conv4_21_3x3_bn", "config": {"moving_mean_initializer": {"class_name": "Zeros", "config": {}}, "name": "conv4_21_3x3_bn", "beta_regularizer": null, "beta_initializer": {"class_name": "Zeros", "config": {}}, "center": true, "gamma_regularizer": null, "epsilon": 1e-05, "momentum": 0.95, "gamma_initializer": {"class_name": "Ones", "config": {}}, "beta_constraint": null, "trainable": true, "axis": -1, "scale": true, "gamma_constraint": null, "moving_variance_initializer": {"class_name": "Ones", "config": {}}}}, {"class_name": "Activation", "inbound_nodes": [[["conv4_21_3x3_bn", 0, 0, {}]]], "name": "activation_87", "config": {"activation": "relu", "name": "activation_87", "trainable": true}}, {"class_name": "Conv2D", "inbound_nodes": [[["activation_87", 0, 0, {}]]], "name": "conv4_21_1x1_increase", "config": {"filters": 1024, "name": "conv4_21_1x1_increase", "data_format": "channels_last", "activation": "linear", "bias_regularizer": null, "dilation_rate": [1, 1], "use_bias": false, "kernel_constraint": null, "strides": [1, 1], "padding": "valid", "bias_constraint": null, "trainable": true, "bias_initializer": {"class_name": "Zeros", "config": {}}, "activity_regularizer": null, "kernel_regularizer": null, "kernel_size": [1, 1], "kernel_initializer": {"class_name": "VarianceScaling", "config": {"scale": 1.0, "mode": "fan_avg", "seed": null, "distribution": "uniform"}}}}, {"class_name": "BatchNormalization", "inbound_nodes": [[["conv4_21_1x1_increase", 0, 0, {}]]], "name": "conv4_21_1x1_increase_bn", "config": {"moving_mean_initializer": {"class_name": "Zeros", "config": {}}, "name": "conv4_21_1x1_increase_bn", "beta_regularizer": null, "beta_initializer": {"class_name": "Zeros", "config": {}}, "center": true, "gamma_regularizer": null, "epsilon": 1e-05, "momentum": 0.95, "gamma_initializer": {"class_name": "Ones", "config": {}}, "beta_constraint": null, "trainable": true, "axis": -1, "scale": true, "gamma_constraint": null, "moving_variance_initializer": {"class_name": "Ones", "config": {}}}}, {"class_name": "Add", "inbound_nodes": [[["conv4_21_1x1_increase_bn", 0, 0, {}], ["activation_85", 0, 0, {}]]], "name": "add_28", "config": {"name": "add_28", "trainable": true}}, {"class_name": "Activation", "inbound_nodes": [[["add_28", 0, 0, {}]]], "name": "activation_88", "config": {"activation": "relu", "name": "activation_88", "trainable": true}}, {"class_name": "Conv2D", "inbound_nodes": [[["activation_88", 0, 0, {}]]], "name": "conv4_22_1x1_reduce", "config": {"filters": 256, "name": "conv4_22_1x1_reduce", "data_format": "channels_last", "activation": "linear", "bias_regularizer": null, "dilation_rate": [1, 1], "use_bias": false, "kernel_constraint": null, "strides": [1, 1], "padding": "valid", "bias_constraint": null, "trainable": true, "bias_initializer": {"class_name": "Zeros", "config": {}}, "activity_regularizer": null, "kernel_regularizer": null, "kernel_size": [1, 1], "kernel_initializer": {"class_name": "VarianceScaling", "config": {"scale": 1.0, "mode": "fan_avg", "seed": null, "distribution": "uniform"}}}}, {"class_name": "BatchNormalization", "inbound_nodes": [[["conv4_22_1x1_reduce", 0, 0, {}]]], "name": "conv4_22_1x1_reduce_bn", "config": {"moving_mean_initializer": {"class_name": "Zeros", "config": {}}, "name": "conv4_22_1x1_reduce_bn", "beta_regularizer": null, "beta_initializer": {"class_name": "Zeros", "config": {}}, "center": true, "gamma_regularizer": null, "epsilon": 1e-05, "momentum": 0.95, "gamma_initializer": {"class_name": "Ones", "config": {}}, "beta_constraint": null, "trainable": true, "axis": -1, "scale": true, "gamma_constraint": null, "moving_variance_initializer": {"class_name": "Ones", "config": {}}}}, {"class_name": "Activation", "inbound_nodes": [[["conv4_22_1x1_reduce_bn", 0, 0, {}]]], "name": "activation_89", "config": {"activation": "relu", "name": "activation_89", "trainable": true}}, {"class_name": "ZeroPadding2D", "inbound_nodes": [[["activation_89", 0, 0, {}]]], "name": "zero_padding2d_29", "config": {"padding": [[2, 2], [2, 2]], "name": "zero_padding2d_29", "trainable": true, "data_format": "channels_last"}}, {"class_name": "Conv2D", "inbound_nodes": [[["zero_padding2d_29", 0, 0, {}]]], "name": "conv4_22_3x3", "config": {"filters": 256, "name": "conv4_22_3x3", "data_format": "channels_last", "activation": "linear", "bias_regularizer": null, "dilation_rate": [2, 2], "use_bias": false, "kernel_constraint": null, "strides": [1, 1], "padding": "valid", "bias_constraint": null, "trainable": true, "bias_initializer": {"class_name": "Zeros", "config": {}}, "activity_regularizer": null, "kernel_regularizer": null, "kernel_size": [3, 3], "kernel_initializer": {"class_name": "VarianceScaling", "config": {"scale": 1.0, "mode": "fan_avg", "seed": null, "distribution": "uniform"}}}}, {"class_name": "BatchNormalization", "inbound_nodes": [[["conv4_22_3x3", 0, 0, {}]]], "name": "conv4_22_3x3_bn", "config": {"moving_mean_initializer": {"class_name": "Zeros", "config": {}}, "name": "conv4_22_3x3_bn", "beta_regularizer": null, "beta_initializer": {"class_name": "Zeros", "config": {}}, "center": true, "gamma_regularizer": null, "epsilon": 1e-05, "momentum": 0.95, "gamma_initializer": {"class_name": "Ones", "config": {}}, "beta_constraint": null, "trainable": true, "axis": -1, "scale": true, "gamma_constraint": null, "moving_variance_initializer": {"class_name": "Ones", "config": {}}}}, {"class_name": "Activation", "inbound_nodes": [[["conv4_22_3x3_bn", 0, 0, {}]]], "name": "activation_90", "config": {"activation": "relu", "name": "activation_90", "trainable": true}}, {"class_name": "Conv2D", "inbound_nodes": [[["activation_90", 0, 0, {}]]], "name": "conv4_22_1x1_increase", "config": {"filters": 1024, "name": "conv4_22_1x1_increase", "data_format": "channels_last", "activation": "linear", "bias_regularizer": null, "dilation_rate": [1, 1], "use_bias": false, "kernel_constraint": null, "strides": [1, 1], "padding": "valid", "bias_constraint": null, "trainable": true, "bias_initializer": {"class_name": "Zeros", "config": {}}, "activity_regularizer": null, "kernel_regularizer": null, "kernel_size": [1, 1], "kernel_initializer": {"class_name": "VarianceScaling", "config": {"scale": 1.0, "mode": "fan_avg", "seed": null, "distribution": "uniform"}}}}, {"class_name": "BatchNormalization", "inbound_nodes": [[["conv4_22_1x1_increase", 0, 0, {}]]], "name": "conv4_22_1x1_increase_bn", "config": {"moving_mean_initializer": {"class_name": "Zeros", "config": {}}, "name": "conv4_22_1x1_increase_bn", "beta_regularizer": null, "beta_initializer": {"class_name": "Zeros", "config": {}}, "center": true, "gamma_regularizer": null, "epsilon": 1e-05, "momentum": 0.95, "gamma_initializer": {"class_name": "Ones", "config": {}}, "beta_constraint": null, "trainable": true, "axis": -1, "scale": true, "gamma_constraint": null, "moving_variance_initializer": {"class_name": "Ones", "config": {}}}}, {"class_name": "Add", "inbound_nodes": [[["conv4_22_1x1_increase_bn", 0, 0, {}], ["activation_88", 0, 0, {}]]], "name": "add_29", "config": {"name": "add_29", "trainable": true}}, {"class_name": "Activation", "inbound_nodes": [[["add_29", 0, 0, {}]]], "name": "activation_91", "config": {"activation": "relu", "name": "activation_91", "trainable": true}}, {"class_name": "Conv2D", "inbound_nodes": [[["activation_91", 0, 0, {}]]], "name": "conv4_23_1x1_reduce", "config": {"filters": 256, "name": "conv4_23_1x1_reduce", "data_format": "channels_last", "activation": "linear", "bias_regularizer": null, "dilation_rate": [1, 1], "use_bias": false, "kernel_constraint": null, "strides": [1, 1], "padding": "valid", "bias_constraint": null, "trainable": true, "bias_initializer": {"class_name": "Zeros", "config": {}}, "activity_regularizer": null, "kernel_regularizer": null, "kernel_size": [1, 1], "kernel_initializer": {"class_name": "VarianceScaling", "config": {"scale": 1.0, "mode": "fan_avg", "seed": null, "distribution": "uniform"}}}}, {"class_name": "BatchNormalization", "inbound_nodes": [[["conv4_23_1x1_reduce", 0, 0, {}]]], "name": "conv4_23_1x1_reduce_bn", "config": {"moving_mean_initializer": {"class_name": "Zeros", "config": {}}, "name": "conv4_23_1x1_reduce_bn", "beta_regularizer": null, "beta_initializer": {"class_name": "Zeros", "config": {}}, "center": true, "gamma_regularizer": null, "epsilon": 1e-05, "momentum": 0.95, "gamma_initializer": {"class_name": "Ones", "config": {}}, "beta_constraint": null, "trainable": true, "axis": -1, "scale": true, "gamma_constraint": null, "moving_variance_initializer": {"class_name": "Ones", "config": {}}}}, {"class_name": "Activation", "inbound_nodes": [[["conv4_23_1x1_reduce_bn", 0, 0, {}]]], "name": "activation_92", "config": {"activation": "relu", "name": "activation_92", "trainable": true}}, {"class_name": "ZeroPadding2D", "inbound_nodes": [[["activation_92", 0, 0, {}]]], "name": "zero_padding2d_30", "config": {"padding": [[2, 2], [2, 2]], "name": "zero_padding2d_30", "trainable": true, "data_format": "channels_last"}}, {"class_name": "Conv2D", "inbound_nodes": [[["zero_padding2d_30", 0, 0, {}]]], "name": "conv4_23_3x3", "config": {"filters": 256, "name": "conv4_23_3x3", "data_format": "channels_last", "activation": "linear", "bias_regularizer": null, "dilation_rate": [2, 2], "use_bias": false, "kernel_constraint": null, "strides": [1, 1], "padding": "valid", "bias_constraint": null, "trainable": true, "bias_initializer": {"class_name": "Zeros", "config": {}}, "activity_regularizer": null, "kernel_regularizer": null, "kernel_size": [3, 3], "kernel_initializer": {"class_name": "VarianceScaling", "config": {"scale": 1.0, "mode": "fan_avg", "seed": null, "distribution": "uniform"}}}}, {"class_name": "BatchNormalization", "inbound_nodes": [[["conv4_23_3x3", 0, 0, {}]]], "name": "conv4_23_3x3_bn", "config": {"moving_mean_initializer": {"class_name": "Zeros", "config": {}}, "name": "conv4_23_3x3_bn", "beta_regularizer": null, "beta_initializer": {"class_name": "Zeros", "config": {}}, "center": true, "gamma_regularizer": null, "epsilon": 1e-05, "momentum": 0.95, "gamma_initializer": {"class_name": "Ones", "config": {}}, "beta_constraint": null, "trainable": true, "axis": -1, "scale": true, "gamma_constraint": null, "moving_variance_initializer": {"class_name": "Ones", "config": {}}}}, {"class_name": "Activation", "inbound_nodes": [[["conv4_23_3x3_bn", 0, 0, {}]]], "name": "activation_93", "config": {"activation": "relu", "name": "activation_93", "trainable": true}}, {"class_name": "Conv2D", "inbound_nodes": [[["activation_93", 0, 0, {}]]], "name": "conv4_23_1x1_increase", "config": {"filters": 1024, "name": "conv4_23_1x1_increase", "data_format": "channels_last", "activation": "linear", "bias_regularizer": null, "dilation_rate": [1, 1], "use_bias": false, "kernel_constraint": null, "strides": [1, 1], "padding": "valid", "bias_constraint": null, "trainable": true, "bias_initializer": {"class_name": "Zeros", "config": {}}, "activity_regularizer": null, "kernel_regularizer": null, "kernel_size": [1, 1], "kernel_initializer": {"class_name": "VarianceScaling", "config": {"scale": 1.0, "mode": "fan_avg", "seed": null, "distribution": "uniform"}}}}, {"class_name": "BatchNormalization", "inbound_nodes": [[["conv4_23_1x1_increase", 0, 0, {}]]], "name": "conv4_23_1x1_increase_bn", "config": {"moving_mean_initializer": {"class_name": "Zeros", "config": {}}, "name": "conv4_23_1x1_increase_bn", "beta_regularizer": null, "beta_initializer": {"class_name": "Zeros", "config": {}}, "center": true, "gamma_regularizer": null, "epsilon": 1e-05, "momentum": 0.95, "gamma_initializer": {"class_name": "Ones", "config": {}}, "beta_constraint": null, "trainable": true, "axis": -1, "scale": true, "gamma_constraint": null, "moving_variance_initializer": {"class_name": "Ones", "config": {}}}}, {"class_name": "Add", "inbound_nodes": [[["conv4_23_1x1_increase_bn", 0, 0, {}], ["activation_91", 0, 0, {}]]], "name": "add_30", "config": {"name": "add_30", "trainable": true}}, {"class_name": "Activation", "inbound_nodes": [[["add_30", 0, 0, {}]]], "name": "activation_94", "config": {"activation": "relu", "name": "activation_94", "trainable": true}}, {"class_name": "Conv2D", "inbound_nodes": [[["activation_94", 0, 0, {}]]], "name": "conv5_1_1x1_reduce", "config": {"filters": 512, "name": "conv5_1_1x1_reduce", "data_format": "channels_last", "activation": "linear", "bias_regularizer": null, "dilation_rate": [1, 1], "use_bias": false, "kernel_constraint": null, "strides": [1, 1], "padding": "valid", "bias_constraint": null, "trainable": true, "bias_initializer": {"class_name": "Zeros", "config": {}}, "activity_regularizer": null, "kernel_regularizer": null, "kernel_size": [1, 1], "kernel_initializer": {"class_name": "VarianceScaling", "config": {"scale": 1.0, "mode": "fan_avg", "seed": null, "distribution": "uniform"}}}}, {"class_name": "BatchNormalization", "inbound_nodes": [[["conv5_1_1x1_reduce", 0, 0, {}]]], "name": "conv5_1_1x1_reduce_bn", "config": {"moving_mean_initializer": {"class_name": "Zeros", "config": {}}, "name": "conv5_1_1x1_reduce_bn", "beta_regularizer": null, "beta_initializer": {"class_name": "Zeros", "config": {}}, "center": true, "gamma_regularizer": null, "epsilon": 1e-05, "momentum": 0.95, "gamma_initializer": {"class_name": "Ones", "config": {}}, "beta_constraint": null, "trainable": true, "axis": -1, "scale": true, "gamma_constraint": null, "moving_variance_initializer": {"class_name": "Ones", "config": {}}}}, {"class_name": "Activation", "inbound_nodes": [[["conv5_1_1x1_reduce_bn", 0, 0, {}]]], "name": "activation_95", "config": {"activation": "relu", "name": "activation_95", "trainable": true}}, {"class_name": "ZeroPadding2D", "inbound_nodes": [[["activation_95", 0, 0, {}]]], "name": "zero_padding2d_31", "config": {"padding": [[4, 4], [4, 4]], "name": "zero_padding2d_31", "trainable": true, "data_format": "channels_last"}}, {"class_name": "Conv2D", "inbound_nodes": [[["zero_padding2d_31", 0, 0, {}]]], "name": "conv5_1_3x3", "config": {"filters": 512, "name": "conv5_1_3x3", "data_format": "channels_last", "activation": "linear", "bias_regularizer": null, "dilation_rate": [4, 4], "use_bias": false, "kernel_constraint": null, "strides": [1, 1], "padding": "valid", "bias_constraint": null, "trainable": true, "bias_initializer": {"class_name": "Zeros", "config": {}}, "activity_regularizer": null, "kernel_regularizer": null, "kernel_size": [3, 3], "kernel_initializer": {"class_name": "VarianceScaling", "config": {"scale": 1.0, "mode": "fan_avg", "seed": null, "distribution": "uniform"}}}}, {"class_name": "BatchNormalization", "inbound_nodes": [[["conv5_1_3x3", 0, 0, {}]]], "name": "conv5_1_3x3_bn", "config": {"moving_mean_initializer": {"class_name": "Zeros", "config": {}}, "name": "conv5_1_3x3_bn", "beta_regularizer": null, "beta_initializer": {"class_name": "Zeros", "config": {}}, "center": true, "gamma_regularizer": null, "epsilon": 1e-05, "momentum": 0.95, "gamma_initializer": {"class_name": "Ones", "config": {}}, "beta_constraint": null, "trainable": true, "axis": -1, "scale": true, "gamma_constraint": null, "moving_variance_initializer": {"class_name": "Ones", "config": {}}}}, {"class_name": "Activation", "inbound_nodes": [[["conv5_1_3x3_bn", 0, 0, {}]]], "name": "activation_96", "config": {"activation": "relu", "name": "activation_96", "trainable": true}}, {"class_name": "Conv2D", "inbound_nodes": [[["activation_96", 0, 0, {}]]], "name": "conv5_1_1x1_increase", "config": {"filters": 2048, "name": "conv5_1_1x1_increase", "data_format": "channels_last", "activation": "linear", "bias_regularizer": null, "dilation_rate": [1, 1], "use_bias": false, "kernel_constraint": null, "strides": [1, 1], "padding": "valid", "bias_constraint": null, "trainable": true, "bias_initializer": {"class_name": "Zeros", "config": {}}, "activity_regularizer": null, "kernel_regularizer": null, "kernel_size": [1, 1], "kernel_initializer": {"class_name": "VarianceScaling", "config": {"scale": 1.0, "mode": "fan_avg", "seed": null, "distribution": "uniform"}}}}, {"class_name": "Conv2D", "inbound_nodes": [[["activation_94", 0, 0, {}]]], "name": "conv5_1_1x1_proj", "config": {"filters": 2048, "name": "conv5_1_1x1_proj", "data_format": "channels_last", "activation": "linear", "bias_regularizer": null, "dilation_rate": [1, 1], "use_bias": false, "kernel_constraint": null, "strides": [1, 1], "padding": "valid", "bias_constraint": null, "trainable": true, "bias_initializer": {"class_name": "Zeros", "config": {}}, "activity_regularizer": null, "kernel_regularizer": null, "kernel_size": [1, 1], "kernel_initializer": {"class_name": "VarianceScaling", "config": {"scale": 1.0, "mode": "fan_avg", "seed": null, "distribution": "uniform"}}}}, {"class_name": "BatchNormalization", "inbound_nodes": [[["conv5_1_1x1_increase", 0, 0, {}]]], "name": "conv5_1_1x1_increase_bn", "config": {"moving_mean_initializer": {"class_name": "Zeros", "config": {}}, "name": "conv5_1_1x1_increase_bn", "beta_regularizer": null, "beta_initializer": {"class_name": "Zeros", "config": {}}, "center": true, "gamma_regularizer": null, "epsilon": 1e-05, "momentum": 0.95, "gamma_initializer": {"class_name": "Ones", "config": {}}, "beta_constraint": null, "trainable": true, "axis": -1, "scale": true, "gamma_constraint": null, "moving_variance_initializer": {"class_name": "Ones", "config": {}}}}, {"class_name": "BatchNormalization", "inbound_nodes": [[["conv5_1_1x1_proj", 0, 0, {}]]], "name": "conv5_1_1x1_proj_bn", "config": {"moving_mean_initializer": {"class_name": "Zeros", "config": {}}, "name": "conv5_1_1x1_proj_bn", "beta_regularizer": null, "beta_initializer": {"class_name": "Zeros", "config": {}}, "center": true, "gamma_regularizer": null, "epsilon": 1e-05, "momentum": 0.95, "gamma_initializer": {"class_name": "Ones", "config": {}}, "beta_constraint": null, "trainable": true, "axis": -1, "scale": true, "gamma_constraint": null, "moving_variance_initializer": {"class_name": "Ones", "config": {}}}}, {"class_name": "Add", "inbound_nodes": [[["conv5_1_1x1_increase_bn", 0, 0, {}], ["conv5_1_1x1_proj_bn", 0, 0, {}]]], "name": "add_31", "config": {"name": "add_31", "trainable": true}}, {"class_name": "Activation", "inbound_nodes": [[["add_31", 0, 0, {}]]], "name": "activation_97", "config": {"activation": "relu", "name": "activation_97", "trainable": true}}, {"class_name": "Conv2D", "inbound_nodes": [[["activation_97", 0, 0, {}]]], "name": "conv5_2_1x1_reduce", "config": {"filters": 512, "name": "conv5_2_1x1_reduce", "data_format": "channels_last", "activation": "linear", "bias_regularizer": null, "dilation_rate": [1, 1], "use_bias": false, "kernel_constraint": null, "strides": [1, 1], "padding": "valid", "bias_constraint": null, "trainable": true, "bias_initializer": {"class_name": "Zeros", "config": {}}, "activity_regularizer": null, "kernel_regularizer": null, "kernel_size": [1, 1], "kernel_initializer": {"class_name": "VarianceScaling", "config": {"scale": 1.0, "mode": "fan_avg", "seed": null, "distribution": "uniform"}}}}, {"class_name": "BatchNormalization", "inbound_nodes": [[["conv5_2_1x1_reduce", 0, 0, {}]]], "name": "conv5_2_1x1_reduce_bn", "config": {"moving_mean_initializer": {"class_name": "Zeros", "config": {}}, "name": "conv5_2_1x1_reduce_bn", "beta_regularizer": null, "beta_initializer": {"class_name": "Zeros", "config": {}}, "center": true, "gamma_regularizer": null, "epsilon": 1e-05, "momentum": 0.95, "gamma_initializer": {"class_name": "Ones", "config": {}}, "beta_constraint": null, "trainable": true, "axis": -1, "scale": true, "gamma_constraint": null, "moving_variance_initializer": {"class_name": "Ones", "config": {}}}}, {"class_name": "Activation", "inbound_nodes": [[["conv5_2_1x1_reduce_bn", 0, 0, {}]]], "name": "activation_98", "config": {"activation": "relu", "name": "activation_98", "trainable": true}}, {"class_name": "ZeroPadding2D", "inbound_nodes": [[["activation_98", 0, 0, {}]]], "name": "zero_padding2d_32", "config": {"padding": [[4, 4], [4, 4]], "name": "zero_padding2d_32", "trainable": true, "data_format": "channels_last"}}, {"class_name": "Conv2D", "inbound_nodes": [[["zero_padding2d_32", 0, 0, {}]]], "name": "conv5_2_3x3", "config": {"filters": 512, "name": "conv5_2_3x3", "data_format": "channels_last", "activation": "linear", "bias_regularizer": null, "dilation_rate": [4, 4], "use_bias": false, "kernel_constraint": null, "strides": [1, 1], "padding": "valid", "bias_constraint": null, "trainable": true, "bias_initializer": {"class_name": "Zeros", "config": {}}, "activity_regularizer": null, "kernel_regularizer": null, "kernel_size": [3, 3], "kernel_initializer": {"class_name": "VarianceScaling", "config": {"scale": 1.0, "mode": "fan_avg", "seed": null, "distribution": "uniform"}}}}, {"class_name": "BatchNormalization", "inbound_nodes": [[["conv5_2_3x3", 0, 0, {}]]], "name": "conv5_2_3x3_bn", "config": {"moving_mean_initializer": {"class_name": "Zeros", "config": {}}, "name": "conv5_2_3x3_bn", "beta_regularizer": null, "beta_initializer": {"class_name": "Zeros", "config": {}}, "center": true, "gamma_regularizer": null, "epsilon": 1e-05, "momentum": 0.95, "gamma_initializer": {"class_name": "Ones", "config": {}}, "beta_constraint": null, "trainable": true, "axis": -1, "scale": true, "gamma_constraint": null, "moving_variance_initializer": {"class_name": "Ones", "config": {}}}}, {"class_name": "Activation", "inbound_nodes": [[["conv5_2_3x3_bn", 0, 0, {}]]], "name": "activation_99", "config": {"activation": "relu", "name": "activation_99", "trainable": true}}, {"class_name": "Conv2D", "inbound_nodes": [[["activation_99", 0, 0, {}]]], "name": "conv5_2_1x1_increase", "config": {"filters": 2048, "name": "conv5_2_1x1_increase", "data_format": "channels_last", "activation": "linear", "bias_regularizer": null, "dilation_rate": [1, 1], "use_bias": false, "kernel_constraint": null, "strides": [1, 1], "padding": "valid", "bias_constraint": null, "trainable": true, "bias_initializer": {"class_name": "Zeros", "config": {}}, "activity_regularizer": null, "kernel_regularizer": null, "kernel_size": [1, 1], "kernel_initializer": {"class_name": "VarianceScaling", "config": {"scale": 1.0, "mode": "fan_avg", "seed": null, "distribution": "uniform"}}}}, {"class_name": "BatchNormalization", "inbound_nodes": [[["conv5_2_1x1_increase", 0, 0, {}]]], "name": "conv5_2_1x1_increase_bn", "config": {"moving_mean_initializer": {"class_name": "Zeros", "config": {}}, "name": "conv5_2_1x1_increase_bn", "beta_regularizer": null, "beta_initializer": {"class_name": "Zeros", "config": {}}, "center": true, "gamma_regularizer": null, "epsilon": 1e-05, "momentum": 0.95, "gamma_initializer": {"class_name": "Ones", "config": {}}, "beta_constraint": null, "trainable": true, "axis": -1, "scale": true, "gamma_constraint": null, "moving_variance_initializer": {"class_name": "Ones", "config": {}}}}, {"class_name": "Add", "inbound_nodes": [[["conv5_2_1x1_increase_bn", 0, 0, {}], ["activation_97", 0, 0, {}]]], "name": "add_32", "config": {"name": "add_32", "trainable": true}}, {"class_name": "Activation", "inbound_nodes": [[["add_32", 0, 0, {}]]], "name": "activation_100", "config": {"activation": "relu", "name": "activation_100", "trainable": true}}, {"class_name": "Conv2D", "inbound_nodes": [[["activation_100", 0, 0, {}]]], "name": "conv5_3_1x1_reduce", "config": {"filters": 512, "name": "conv5_3_1x1_reduce", "data_format": "channels_last", "activation": "linear", "bias_regularizer": null, "dilation_rate": [1, 1], "use_bias": false, "kernel_constraint": null, "strides": [1, 1], "padding": "valid", "bias_constraint": null, "trainable": true, "bias_initializer": {"class_name": "Zeros", "config": {}}, "activity_regularizer": null, "kernel_regularizer": null, "kernel_size": [1, 1], "kernel_initializer": {"class_name": "VarianceScaling", "config": {"scale": 1.0, "mode": "fan_avg", "seed": null, "distribution": "uniform"}}}}, {"class_name": "BatchNormalization", "inbound_nodes": [[["conv5_3_1x1_reduce", 0, 0, {}]]], "name": "conv5_3_1x1_reduce_bn", "config": {"moving_mean_initializer": {"class_name": "Zeros", "config": {}}, "name": "conv5_3_1x1_reduce_bn", "beta_regularizer": null, "beta_initializer": {"class_name": "Zeros", "config": {}}, "center": true, "gamma_regularizer": null, "epsilon": 1e-05, "momentum": 0.95, "gamma_initializer": {"class_name": "Ones", "config": {}}, "beta_constraint": null, "trainable": true, "axis": -1, "scale": true, "gamma_constraint": null, "moving_variance_initializer": {"class_name": "Ones", "config": {}}}}, {"class_name": "Activation", "inbound_nodes": [[["conv5_3_1x1_reduce_bn", 0, 0, {}]]], "name": "activation_101", "config": {"activation": "relu", "name": "activation_101", "trainable": true}}, {"class_name": "ZeroPadding2D", "inbound_nodes": [[["activation_101", 0, 0, {}]]], "name": "zero_padding2d_33", "config": {"padding": [[4, 4], [4, 4]], "name": "zero_padding2d_33", "trainable": true, "data_format": "channels_last"}}, {"class_name": "Conv2D", "inbound_nodes": [[["zero_padding2d_33", 0, 0, {}]]], "name": "conv5_3_3x3", "config": {"filters": 512, "name": "conv5_3_3x3", "data_format": "channels_last", "activation": "linear", "bias_regularizer": null, "dilation_rate": [4, 4], "use_bias": false, "kernel_constraint": null, "strides": [1, 1], "padding": "valid", "bias_constraint": null, "trainable": true, "bias_initializer": {"class_name": "Zeros", "config": {}}, "activity_regularizer": null, "kernel_regularizer": null, "kernel_size": [3, 3], "kernel_initializer": {"class_name": "VarianceScaling", "config": {"scale": 1.0, "mode": "fan_avg", "seed": null, "distribution": "uniform"}}}}, {"class_name": "BatchNormalization", "inbound_nodes": [[["conv5_3_3x3", 0, 0, {}]]], "name": "conv5_3_3x3_bn", "config": {"moving_mean_initializer": {"class_name": "Zeros", "config": {}}, "name": "conv5_3_3x3_bn", "beta_regularizer": null, "beta_initializer": {"class_name": "Zeros", "config": {}}, "center": true, "gamma_regularizer": null, "epsilon": 1e-05, "momentum": 0.95, "gamma_initializer": {"class_name": "Ones", "config": {}}, "beta_constraint": null, "trainable": true, "axis": -1, "scale": true, "gamma_constraint": null, "moving_variance_initializer": {"class_name": "Ones", "config": {}}}}, {"class_name": "Activation", "inbound_nodes": [[["conv5_3_3x3_bn", 0, 0, {}]]], "name": "activation_102", "config": {"activation": "relu", "name": "activation_102", "trainable": true}}, {"class_name": "Conv2D", "inbound_nodes": [[["activation_102", 0, 0, {}]]], "name": "conv5_3_1x1_increase", "config": {"filters": 2048, "name": "conv5_3_1x1_increase", "data_format": "channels_last", "activation": "linear", "bias_regularizer": null, "dilation_rate": [1, 1], "use_bias": false, "kernel_constraint": null, "strides": [1, 1], "padding": "valid", "bias_constraint": null, "trainable": true, "bias_initializer": {"class_name": "Zeros", "config": {}}, "activity_regularizer": null, "kernel_regularizer": null, "kernel_size": [1, 1], "kernel_initializer": {"class_name": "VarianceScaling", "config": {"scale": 1.0, "mode": "fan_avg", "seed": null, "distribution": "uniform"}}}}, {"class_name": "BatchNormalization", "inbound_nodes": [[["conv5_3_1x1_increase", 0, 0, {}]]], "name": "conv5_3_1x1_increase_bn", "config": {"moving_mean_initializer": {"class_name": "Zeros", "config": {}}, "name": "conv5_3_1x1_increase_bn", "beta_regularizer": null, "beta_initializer": {"class_name": "Zeros", "config": {}}, "center": true, "gamma_regularizer": null, "epsilon": 1e-05, "momentum": 0.95, "gamma_initializer": {"class_name": "Ones", "config": {}}, "beta_constraint": null, "trainable": true, "axis": -1, "scale": true, "gamma_constraint": null, "moving_variance_initializer": {"class_name": "Ones", "config": {}}}}, {"class_name": "Add", "inbound_nodes": [[["conv5_3_1x1_increase_bn", 0, 0, {}], ["activation_100", 0, 0, {}]]], "name": "add_33", "config": {"name": "add_33", "trainable": true}}, {"class_name": "Activation", "inbound_nodes": [[["add_33", 0, 0, {}]]], "name": "activation_103", "config": {"activation": "relu", "name": "activation_103", "trainable": true}}, {"class_name": "AveragePooling2D", "inbound_nodes": [[["activation_103", 0, 0, {}]]], "name": "average_pooling2d_4", "config": {"pool_size": [10, 10], "name": "average_pooling2d_4", "data_format": "channels_last", "padding": "valid", "trainable": true, "strides": [10, 10]}}, {"class_name": "AveragePooling2D", "inbound_nodes": [[["activation_103", 0, 0, {}]]], "name": "average_pooling2d_3", "config": {"pool_size": [20, 20], "name": "average_pooling2d_3", "data_format": "channels_last", "padding": "valid", "trainable": true, "strides": [20, 20]}}, {"class_name": "AveragePooling2D", "inbound_nodes": [[["activation_103", 0, 0, {}]]], "name": "average_pooling2d_2", "config": {"pool_size": [30, 30], "name": "average_pooling2d_2", "data_format": "channels_last", "padding": "valid", "trainable": true, "strides": [30, 30]}}, {"class_name": "AveragePooling2D", "inbound_nodes": [[["activation_103", 0, 0, {}]]], "name": "average_pooling2d_1", "config": {"pool_size": [60, 60], "name": "average_pooling2d_1", "data_format": "channels_last", "padding": "valid", "trainable": true, "strides": [60, 60]}}, {"class_name": "Conv2D", "inbound_nodes": [[["average_pooling2d_4", 0, 0, {}]]], "name": "conv5_3_pool6_conv", "config": {"filters": 512, "name": "conv5_3_pool6_conv", "data_format": "channels_last", "activation": "linear", "bias_regularizer": null, "dilation_rate": [1, 1], "use_bias": false, "kernel_constraint": null, "strides": [1, 1], "padding": "valid", "bias_constraint": null, "trainable": true, "bias_initializer": {"class_name": "Zeros", "config": {}}, "activity_regularizer": null, "kernel_regularizer": null, "kernel_size": [1, 1], "kernel_initializer": {"class_name": "VarianceScaling", "config": {"scale": 1.0, "mode": "fan_avg", "seed": null, "distribution": "uniform"}}}}, {"class_name": "Conv2D", "inbound_nodes": [[["average_pooling2d_3", 0, 0, {}]]], "name": "conv5_3_pool3_conv", "config": {"filters": 512, "name": "conv5_3_pool3_conv", "data_format": "channels_last", "activation": "linear", "bias_regularizer": null, "dilation_rate": [1, 1], "use_bias": false, "kernel_constraint": null, "strides": [1, 1], "padding": "valid", "bias_constraint": null, "trainable": true, "bias_initializer": {"class_name": "Zeros", "config": {}}, "activity_regularizer": null, "kernel_regularizer": null, "kernel_size": [1, 1], "kernel_initializer": {"class_name": "VarianceScaling", "config": {"scale": 1.0, "mode": "fan_avg", "seed": null, "distribution": "uniform"}}}}, {"class_name": "Conv2D", "inbound_nodes": [[["average_pooling2d_2", 0, 0, {}]]], "name": "conv5_3_pool2_conv", "config": {"filters": 512, "name": "conv5_3_pool2_conv", "data_format": "channels_last", "activation": "linear", "bias_regularizer": null, "dilation_rate": [1, 1], "use_bias": false, "kernel_constraint": null, "strides": [1, 1], "padding": "valid", "bias_constraint": null, "trainable": true, "bias_initializer": {"class_name": "Zeros", "config": {}}, "activity_regularizer": null, "kernel_regularizer": null, "kernel_size": [1, 1], "kernel_initializer": {"class_name": "VarianceScaling", "config": {"scale": 1.0, "mode": "fan_avg", "seed": null, "distribution": "uniform"}}}}, {"class_name": "Conv2D", "inbound_nodes": [[["average_pooling2d_1", 0, 0, {}]]], "name": "conv5_3_pool1_conv", "config": {"filters": 512, "name": "conv5_3_pool1_conv", "data_format": "channels_last", "activation": "linear", "bias_regularizer": null, "dilation_rate": [1, 1], "use_bias": false, "kernel_constraint": null, "strides": [1, 1], "padding": "valid", "bias_constraint": null, "trainable": true, "bias_initializer": {"class_name": "Zeros", "config": {}}, "activity_regularizer": null, "kernel_regularizer": null, "kernel_size": [1, 1], "kernel_initializer": {"class_name": "VarianceScaling", "config": {"scale": 1.0, "mode": "fan_avg", "seed": null, "distribution": "uniform"}}}}, {"class_name": "BatchNormalization", "inbound_nodes": [[["conv5_3_pool6_conv", 0, 0, {}]]], "name": "conv5_3_pool6_conv_bn", "config": {"moving_mean_initializer": {"class_name": "Zeros", "config": {}}, "name": "conv5_3_pool6_conv_bn", "beta_regularizer": null, "beta_initializer": {"class_name": "Zeros", "config": {}}, "center": true, "gamma_regularizer": null, "epsilon": 1e-05, "momentum": 0.95, "gamma_initializer": {"class_name": "Ones", "config": {}}, "beta_constraint": null, "trainable": true, "axis": -1, "scale": true, "gamma_constraint": null, "moving_variance_initializer": {"class_name": "Ones", "config": {}}}}, {"class_name": "BatchNormalization", "inbound_nodes": [[["conv5_3_pool3_conv", 0, 0, {}]]], "name": "conv5_3_pool3_conv_bn", "config": {"moving_mean_initializer": {"class_name": "Zeros", "config": {}}, "name": "conv5_3_pool3_conv_bn", "beta_regularizer": null, "beta_initializer": {"class_name": "Zeros", "config": {}}, "center": true, "gamma_regularizer": null, "epsilon": 1e-05, "momentum": 0.95, "gamma_initializer": {"class_name": "Ones", "config": {}}, "beta_constraint": null, "trainable": true, "axis": -1, "scale": true, "gamma_constraint": null, "moving_variance_initializer": {"class_name": "Ones", "config": {}}}}, {"class_name": "BatchNormalization", "inbound_nodes": [[["conv5_3_pool2_conv", 0, 0, {}]]], "name": "conv5_3_pool2_conv_bn", "config": {"moving_mean_initializer": {"class_name": "Zeros", "config": {}}, "name": "conv5_3_pool2_conv_bn", "beta_regularizer": null, "beta_initializer": {"class_name": "Zeros", "config": {}}, "center": true, "gamma_regularizer": null, "epsilon": 1e-05, "momentum": 0.95, "gamma_initializer": {"class_name": "Ones", "config": {}}, "beta_constraint": null, "trainable": true, "axis": -1, "scale": true, "gamma_constraint": null, "moving_variance_initializer": {"class_name": "Ones", "config": {}}}}, {"class_name": "BatchNormalization", "inbound_nodes": [[["conv5_3_pool1_conv", 0, 0, {}]]], "name": "conv5_3_pool1_conv_bn", "config": {"moving_mean_initializer": {"class_name": "Zeros", "config": {}}, "name": "conv5_3_pool1_conv_bn", "beta_regularizer": null, "beta_initializer": {"class_name": "Zeros", "config": {}}, "center": true, "gamma_regularizer": null, "epsilon": 1e-05, "momentum": 0.95, "gamma_initializer": {"class_name": "Ones", "config": {}}, "beta_constraint": null, "trainable": true, "axis": -1, "scale": true, "gamma_constraint": null, "moving_variance_initializer": {"class_name": "Ones", "config": {}}}}, {"class_name": "Activation", "inbound_nodes": [[["conv5_3_pool6_conv_bn", 0, 0, {}]]], "name": "activation_107", "config": {"activation": "relu", "name": "activation_107", "trainable": true}}, {"class_name": "Activation", "inbound_nodes": [[["conv5_3_pool3_conv_bn", 0, 0, {}]]], "name": "activation_106", "config": {"activation": "relu", "name": "activation_106", "trainable": true}}, {"class_name": "Activation", "inbound_nodes": [[["conv5_3_pool2_conv_bn", 0, 0, {}]]], "name": "activation_105", "config": {"activation": "relu", "name": "activation_105", "trainable": true}}, {"class_name": "Activation", "inbound_nodes": [[["conv5_3_pool1_conv_bn", 0, 0, {}]]], "name": "activation_104", "config": {"activation": "relu", "name": "activation_104", "trainable": true}}, {"class_name": "Lambda", "inbound_nodes": [[["activation_107", 0, 0, {}]]], "name": "lambda_4", "config": {"output_shape_type": "raw", "function": ["\u00e3\u0002\u0000\u0000\u0000\u0000\u0000\u0000\u0000\u0006\u0000\u0000\u0000\u0005\u0000\u0000\u0000C\u0000\u0000\u0000sA\u0000\u0000\u0000d\u0001\u0000d\u0002\u0000l\u0000\u0000m\u0001\u0000}\u0002\u0000\u0001|\u0001\u0000\\\u0002\u0000}\u0003\u0000}\u0004\u0000|\u0002\u0000j\u0002\u0000j\u0003\u0000|\u0000\u0000|\u0003\u0000|\u0004\u0000g\u0002\u0000d\u0003\u0000d\u0004\u0000\u0083\u0002\u0001}\u0005\u0000|\u0005\u0000S)\u0005N\u00e9\u0000\u0000\u0000\u0000)\u0001\u00da\u0002tf\u00da\ralign_cornersT)\u0004Z\rkeras.backendr\u0002\u0000\u0000\u0000\u00da\u0005image\u00da\rresize_images)\u0006\u00da\u0001x\u00da\u0005shapeZ\u0003ktfZ\nnew_heightZ\tnew_width\u00da\u0007resized\u00a9\u0000r\t\u0000\u0000\u0000\u00faR/home/c-use/research/segmentation/pspnet/PSPNet-Keras-tensorflow/layers_builder.py\u00da\u0006Interp\u0011\u0000\u0000\u0000s\n\u0000\u0000\u0000\u0000\u0001\u0010\u0001\f\u0001\u0018\u0001\t\u0001", null, null], "trainable": true, "function_type": "lambda", "output_shape": null, "name": "lambda_4", "arguments": {"shape": [90, 90]}}}, {"class_name": "Lambda", "inbound_nodes": [[["activation_106", 0, 0, {}]]], "name": "lambda_3", "config": {"output_shape_type": "raw", "function": ["\u00e3\u0002\u0000\u0000\u0000\u0000\u0000\u0000\u0000\u0006\u0000\u0000\u0000\u0005\u0000\u0000\u0000C\u0000\u0000\u0000sA\u0000\u0000\u0000d\u0001\u0000d\u0002\u0000l\u0000\u0000m\u0001\u0000}\u0002\u0000\u0001|\u0001\u0000\\\u0002\u0000}\u0003\u0000}\u0004\u0000|\u0002\u0000j\u0002\u0000j\u0003\u0000|\u0000\u0000|\u0003\u0000|\u0004\u0000g\u0002\u0000d\u0003\u0000d\u0004\u0000\u0083\u0002\u0001}\u0005\u0000|\u0005\u0000S)\u0005N\u00e9\u0000\u0000\u0000\u0000)\u0001\u00da\u0002tf\u00da\ralign_cornersT)\u0004Z\rkeras.backendr\u0002\u0000\u0000\u0000\u00da\u0005image\u00da\rresize_images)\u0006\u00da\u0001x\u00da\u0005shapeZ\u0003ktfZ\nnew_heightZ\tnew_width\u00da\u0007resized\u00a9\u0000r\t\u0000\u0000\u0000\u00faR/home/c-use/research/segmentation/pspnet/PSPNet-Keras-tensorflow/layers_builder.py\u00da\u0006Interp\u0011\u0000\u0000\u0000s\n\u0000\u0000\u0000\u0000\u0001\u0010\u0001\f\u0001\u0018\u0001\t\u0001", null, null], "trainable": true, "function_type": "lambda", "output_shape": null, "name": "lambda_3", "arguments": {"shape": [90, 90]}}}, {"class_name": "Lambda", "inbound_nodes": [[["activation_105", 0, 0, {}]]], "name": "lambda_2", "config": {"output_shape_type": "raw", "function": ["\u00e3\u0002\u0000\u0000\u0000\u0000\u0000\u0000\u0000\u0006\u0000\u0000\u0000\u0005\u0000\u0000\u0000C\u0000\u0000\u0000sA\u0000\u0000\u0000d\u0001\u0000d\u0002\u0000l\u0000\u0000m\u0001\u0000}\u0002\u0000\u0001|\u0001\u0000\\\u0002\u0000}\u0003\u0000}\u0004\u0000|\u0002\u0000j\u0002\u0000j\u0003\u0000|\u0000\u0000|\u0003\u0000|\u0004\u0000g\u0002\u0000d\u0003\u0000d\u0004\u0000\u0083\u0002\u0001}\u0005\u0000|\u0005\u0000S)\u0005N\u00e9\u0000\u0000\u0000\u0000)\u0001\u00da\u0002tf\u00da\ralign_cornersT)\u0004Z\rkeras.backendr\u0002\u0000\u0000\u0000\u00da\u0005image\u00da\rresize_images)\u0006\u00da\u0001x\u00da\u0005shapeZ\u0003ktfZ\nnew_heightZ\tnew_width\u00da\u0007resized\u00a9\u0000r\t\u0000\u0000\u0000\u00faR/home/c-use/research/segmentation/pspnet/PSPNet-Keras-tensorflow/layers_builder.py\u00da\u0006Interp\u0011\u0000\u0000\u0000s\n\u0000\u0000\u0000\u0000\u0001\u0010\u0001\f\u0001\u0018\u0001\t\u0001", null, null], "trainable": true, "function_type": "lambda", "output_shape": null, "name": "lambda_2", "arguments": {"shape": [90, 90]}}}, {"class_name": "Lambda", "inbound_nodes": [[["activation_104", 0, 0, {}]]], "name": "lambda_1", "config": {"output_shape_type": "raw", "function": ["\u00e3\u0002\u0000\u0000\u0000\u0000\u0000\u0000\u0000\u0006\u0000\u0000\u0000\u0005\u0000\u0000\u0000C\u0000\u0000\u0000sA\u0000\u0000\u0000d\u0001\u0000d\u0002\u0000l\u0000\u0000m\u0001\u0000}\u0002\u0000\u0001|\u0001\u0000\\\u0002\u0000}\u0003\u0000}\u0004\u0000|\u0002\u0000j\u0002\u0000j\u0003\u0000|\u0000\u0000|\u0003\u0000|\u0004\u0000g\u0002\u0000d\u0003\u0000d\u0004\u0000\u0083\u0002\u0001}\u0005\u0000|\u0005\u0000S)\u0005N\u00e9\u0000\u0000\u0000\u0000)\u0001\u00da\u0002tf\u00da\ralign_cornersT)\u0004Z\rkeras.backendr\u0002\u0000\u0000\u0000\u00da\u0005image\u00da\rresize_images)\u0006\u00da\u0001x\u00da\u0005shapeZ\u0003ktfZ\nnew_heightZ\tnew_width\u00da\u0007resized\u00a9\u0000r\t\u0000\u0000\u0000\u00faR/home/c-use/research/segmentation/pspnet/PSPNet-Keras-tensorflow/layers_builder.py\u00da\u0006Interp\u0011\u0000\u0000\u0000s\n\u0000\u0000\u0000\u0000\u0001\u0010\u0001\f\u0001\u0018\u0001\t\u0001", null, null], "trainable": true, "function_type": "lambda", "output_shape": null, "name": "lambda_1", "arguments": {"shape": [90, 90]}}}, {"class_name": "Concatenate", "inbound_nodes": [[["activation_103", 0, 0, {}], ["lambda_4", 0, 0, {}], ["lambda_3", 0, 0, {}], ["lambda_2", 0, 0, {}], ["lambda_1", 0, 0, {}]]], "name": "concatenate_1", "config": {"axis": -1, "name": "concatenate_1", "trainable": true}}, {"class_name": "Conv2D", "inbound_nodes": [[["concatenate_1", 0, 0, {}]]], "name": "conv5_4", "config": {"filters": 512, "name": "conv5_4", "data_format": "channels_last", "activation": "linear", "bias_regularizer": null, "dilation_rate": [1, 1], "use_bias": false, "kernel_constraint": null, "strides": [1, 1], "padding": "same", "bias_constraint": null, "trainable": true, "bias_initializer": {"class_name": "Zeros", "config": {}}, "activity_regularizer": null, "kernel_regularizer": null, "kernel_size": [3, 3], "kernel_initializer": {"class_name": "VarianceScaling", "config": {"scale": 1.0, "mode": "fan_avg", "seed": null, "distribution": "uniform"}}}}, {"class_name": "BatchNormalization", "inbound_nodes": [[["conv5_4", 0, 0, {}]]], "name": "conv5_4_bn", "config": {"moving_mean_initializer": {"class_name": "Zeros", "config": {}}, "name": "conv5_4_bn", "beta_regularizer": null, "beta_initializer": {"class_name": "Zeros", "config": {}}, "center": true, "gamma_regularizer": null, "epsilon": 1e-05, "momentum": 0.95, "gamma_initializer": {"class_name": "Ones", "config": {}}, "beta_constraint": null, "trainable": true, "axis": -1, "scale": true, "gamma_constraint": null, "moving_variance_initializer": {"class_name": "Ones", "config": {}}}}, {"class_name": "Activation", "inbound_nodes": [[["conv5_4_bn", 0, 0, {}]]], "name": "activation_108", "config": {"activation": "relu", "name": "activation_108", "trainable": true}}, {"class_name": "Dropout", "inbound_nodes": [[["activation_108", 0, 0, {}]]], "name": "dropout_1", "config": {"name": "dropout_1", "trainable": true, "rate": 0.1}}, {"class_name": "Conv2D", "inbound_nodes": [[["dropout_1", 0, 0, {}]]], "name": "conv6", "config": {"filters": 19, "name": "conv6", "data_format": "channels_last", "activation": "linear", "bias_regularizer": null, "dilation_rate": [1, 1], "use_bias": true, "kernel_constraint": null, "strides": [1, 1], "padding": "valid", "bias_constraint": null, "trainable": true, "bias_initializer": {"class_name": "Zeros", "config": {}}, "activity_regularizer": null, "kernel_regularizer": null, "kernel_size": [1, 1], "kernel_initializer": {"class_name": "VarianceScaling", "config": {"scale": 1.0, "mode": "fan_avg", "seed": null, "distribution": "uniform"}}}}, {"class_name": "Lambda", "inbound_nodes": [[["conv6", 0, 0, {}]]], "name": "lambda_5", "config": {"output_shape_type": "raw", "function": ["\u00e3\u0002\u0000\u0000\u0000\u0000\u0000\u0000\u0000\u0006\u0000\u0000\u0000\u0005\u0000\u0000\u0000C\u0000\u0000\u0000sA\u0000\u0000\u0000d\u0001\u0000d\u0002\u0000l\u0000\u0000m\u0001\u0000}\u0002\u0000\u0001|\u0001\u0000\\\u0002\u0000}\u0003\u0000}\u0004\u0000|\u0002\u0000j\u0002\u0000j\u0003\u0000|\u0000\u0000|\u0003\u0000|\u0004\u0000g\u0002\u0000d\u0003\u0000d\u0004\u0000\u0083\u0002\u0001}\u0005\u0000|\u0005\u0000S)\u0005N\u00e9\u0000\u0000\u0000\u0000)\u0001\u00da\u0002tf\u00da\ralign_cornersT)\u0004Z\rkeras.backendr\u0002\u0000\u0000\u0000\u00da\u0005image\u00da\rresize_images)\u0006\u00da\u0001x\u00da\u0005shapeZ\u0003ktfZ\nnew_heightZ\tnew_width\u00da\u0007resized\u00a9\u0000r\t\u0000\u0000\u0000\u00faR/home/c-use/research/segmentation/pspnet/PSPNet-Keras-tensorflow/layers_builder.py\u00da\u0006Interp\u0011\u0000\u0000\u0000s\n\u0000\u0000\u0000\u0000\u0001\u0010\u0001\f\u0001\u0018\u0001\t\u0001", null, null], "trainable": true, "function_type": "lambda", "output_shape": null, "name": "lambda_5", "arguments": {"shape": [713, 713]}}}, {"class_name": "Activation", "inbound_nodes": [[["lambda_5", 0, 0, {}]]], "name": "activation_109", "config": {"activation": "softmax", "name": "activation_109", "trainable": true}}]}, "class_name": "Model"}