{"keras_version": "2.2.0", "backend": "tensorflow", "config": {"layers": [{"inbound_nodes": [], "config": {"sparse": false, "batch_input_shape": [null, 473, 473, 3], "dtype": "float32", "name": "input_1"}, "name": "input_1", "class_name": "InputLayer"}, {"inbound_nodes": [[["input_1", 0, 0, {}]]], "config": {"kernel_size": [3, 3], "use_bias": false, "kernel_regularizer": null, "activity_regularizer": null, "kernel_constraint": null, "padding": "same", "bias_regularizer": null, "strides": [2, 2], "kernel_initializer": {"config": {"scale": 1.0, "seed": null, "mode": "fan_avg", "distribution": "uniform"}, "class_name": "VarianceScaling"}, "dilation_rate": [1, 1], "trainable": true, "name": "conv1_1_3x3_s2", "filters": 64, "data_format": "channels_last", "bias_initializer": {"config": {}, "class_name": "Zeros"}, "activation": "linear", "bias_constraint": null}, "name": "conv1_1_3x3_s2", "class_name": "Conv2D"}, {"inbound_nodes": [[["conv1_1_3x3_s2", 0, 0, {}]]], "config": {"moving_mean_initializer": {"config": {}, "class_name": "Zeros"}, "center": true, "gamma_regularizer": null, "gamma_initializer": {"config": {}, "class_name": "Ones"}, "beta_constraint": null, "name": "conv1_1_3x3_s2_bn", "axis": -1, "epsilon": 1e-05, "beta_initializer": {"config": {}, "class_name": "Zeros"}, "trainable": true, "beta_regularizer": null, "scale": true, "gamma_constraint": null, "momentum": 0.95, "moving_variance_initializer": {"config": {}, "class_name": "Ones"}}, "name": "conv1_1_3x3_s2_bn", "class_name": "BatchNormalization"}, {"inbound_nodes": [[["conv1_1_3x3_s2_bn", 0, 0, {}]]], "config": {"trainable": true, "activation": "relu", "name": "activation_1"}, "name": "activation_1", "class_name": "Activation"}, {"inbound_nodes": [[["activation_1", 0, 0, {}]]], "config": {"kernel_size": [3, 3], "use_bias": false, "kernel_regularizer": null, "activity_regularizer": null, "kernel_constraint": null, "padding": "same", "bias_regularizer": null, "strides": [1, 1], "kernel_initializer": {"config": {"scale": 1.0, "seed": null, "mode": "fan_avg", "distribution": "uniform"}, "class_name": "VarianceScaling"}, "dilation_rate": [1, 1], "trainable": true, "name": "conv1_2_3x3", "filters": 64, "data_format": "channels_last", "bias_initializer": {"config": {}, "class_name": "Zeros"}, "activation": "linear", "bias_constraint": null}, "name": "conv1_2_3x3", "class_name": "Conv2D"}, {"inbound_nodes": [[["conv1_2_3x3", 0, 0, {}]]], "config": {"moving_mean_initializer": {"config": {}, "class_name": "Zeros"}, "center": true, "gamma_regularizer": null, "gamma_initializer": {"config": {}, "class_name": "Ones"}, "beta_constraint": null, "name": "conv1_2_3x3_bn", "axis": -1, "epsilon": 1e-05, "beta_initializer": {"config": {}, "class_name": "Zeros"}, "trainable": true, "beta_regularizer": null, "scale": true, "gamma_constraint": null, "momentum": 0.95, "moving_variance_initializer": {"config": {}, "class_name": "Ones"}}, "name": "conv1_2_3x3_bn", "class_name": "BatchNormalization"}, {"inbound_nodes": [[["conv1_2_3x3_bn", 0, 0, {}]]], "config": {"trainable": true, "activation": "relu", "name": "activation_2"}, "name": "activation_2", "class_name": "Activation"}, {"inbound_nodes": [[["activation_2", 0, 0, {}]]], "config": {"kernel_size": [3, 3], "use_bias": false, "kernel_regularizer": null, "activity_regularizer": null, "kernel_constraint": null, "padding": "same", "bias_regularizer": null, "strides": [1, 1], "kernel_initializer": {"config": {"scale": 1.0, "seed": null, "mode": "fan_avg", "distribution": "uniform"}, "class_name": "VarianceScaling"}, "dilation_rate": [1, 1], "trainable": true, "name": "conv1_3_3x3", "filters": 128, "data_format": "channels_last", "bias_initializer": {"config": {}, "class_name": "Zeros"}, "activation": "linear", "bias_constraint": null}, "name": "conv1_3_3x3", "class_name": "Conv2D"}, {"inbound_nodes": [[["conv1_3_3x3", 0, 0, {}]]], "config": {"moving_mean_initializer": {"config": {}, "class_name": "Zeros"}, "center": true, "gamma_regularizer": null, "gamma_initializer": {"config": {}, "class_name": "Ones"}, "beta_constraint": null, "name": "conv1_3_3x3_bn", "axis": -1, "epsilon": 1e-05, "beta_initializer": {"config": {}, "class_name": "Zeros"}, "trainable": true, "beta_regularizer": null, "scale": true, "gamma_constraint": null, "momentum": 0.95, "moving_variance_initializer": {"config": {}, "class_name": "Ones"}}, "name": "conv1_3_3x3_bn", "class_name": "BatchNormalization"}, {"inbound_nodes": [[["conv1_3_3x3_bn", 0, 0, {}]]], "config": {"trainable": true, "activation": "relu", "name": "activation_3"}, "name": "activation_3", "class_name": "Activation"}, {"inbound_nodes": [[["activation_3", 0, 0, {}]]], "config": {"strides": [2, 2], "trainable": true, "name": "max_pooling2d_1", "data_format": "channels_last", "pool_size": [3, 3], "padding": "same"}, "name": "max_pooling2d_1", "class_name": "MaxPooling2D"}, {"inbound_nodes": [[["max_pooling2d_1", 0, 0, {}]]], "config": {"trainable": true, "activation": "relu", "name": "activation_4"}, "name": "activation_4", "class_name": "Activation"}, {"inbound_nodes": [[["activation_4", 0, 0, {}]]], "config": {"kernel_size": [1, 1], "use_bias": false, "kernel_regularizer": null, "activity_regularizer": null, "kernel_constraint": null, "padding": "valid", "bias_regularizer": null, "strides": [1, 1], "kernel_initializer": {"config": {"scale": 1.0, "seed": null, "mode": "fan_avg", "distribution": "uniform"}, "class_name": "VarianceScaling"}, "dilation_rate": [1, 1], "trainable": true, "name": "conv2_1_1x1_reduce", "filters": 64, "data_format": "channels_last", "bias_initializer": {"config": {}, "class_name": "Zeros"}, "activation": "linear", "bias_constraint": null}, "name": "conv2_1_1x1_reduce", "class_name": "Conv2D"}, {"inbound_nodes": [[["conv2_1_1x1_reduce", 0, 0, {}]]], "config": {"moving_mean_initializer": {"config": {}, "class_name": "Zeros"}, "center": true, "gamma_regularizer": null, "gamma_initializer": {"config": {}, "class_name": "Ones"}, "beta_constraint": null, "name": "conv2_1_1x1_reduce_bn", "axis": -1, "epsilon": 1e-05, "beta_initializer": {"config": {}, "class_name": "Zeros"}, "trainable": true, "beta_regularizer": null, "scale": true, "gamma_constraint": null, "momentum": 0.95, "moving_variance_initializer": {"config": {}, "class_name": "Ones"}}, "name": "conv2_1_1x1_reduce_bn", "class_name": "BatchNormalization"}, {"inbound_nodes": [[["conv2_1_1x1_reduce_bn", 0, 0, {}]]], "config": {"trainable": true, "activation": "relu", "name": "activation_5"}, "name": "activation_5", "class_name": "Activation"}, {"inbound_nodes": [[["activation_5", 0, 0, {}]]], "config": {"data_format": "channels_last", "trainable": true, "name": "zero_padding2d_1", "padding": [[1, 1], [1, 1]]}, "name": "zero_padding2d_1", "class_name": "ZeroPadding2D"}, {"inbound_nodes": [[["zero_padding2d_1", 0, 0, {}]]], "config": {"kernel_size": [3, 3], "use_bias": false, "kernel_regularizer": null, "activity_regularizer": null, "kernel_constraint": null, "padding": "valid", "bias_regularizer": null, "strides": [1, 1], "kernel_initializer": {"config": {"scale": 1.0, "seed": null, "mode": "fan_avg", "distribution": "uniform"}, "class_name": "VarianceScaling"}, "dilation_rate": [1, 1], "trainable": true, "name": "conv2_1_3x3", "filters": 64, "data_format": "channels_last", "bias_initializer": {"config": {}, "class_name": "Zeros"}, "activation": "linear", "bias_constraint": null}, "name": "conv2_1_3x3", "class_name": "Conv2D"}, {"inbound_nodes": [[["conv2_1_3x3", 0, 0, {}]]], "config": {"moving_mean_initializer": {"config": {}, "class_name": "Zeros"}, "center": true, "gamma_regularizer": null, "gamma_initializer": {"config": {}, "class_name": "Ones"}, "beta_constraint": null, "name": "conv2_1_3x3_bn", "axis": -1, "epsilon": 1e-05, "beta_initializer": {"config": {}, "class_name": "Zeros"}, "trainable": true, "beta_regularizer": null, "scale": true, "gamma_constraint": null, "momentum": 0.95, "moving_variance_initializer": {"config": {}, "class_name": "Ones"}}, "name": "conv2_1_3x3_bn", "class_name": "BatchNormalization"}, {"inbound_nodes": [[["conv2_1_3x3_bn", 0, 0, {}]]], "config": {"trainable": true, "activation": "relu", "name": "activation_6"}, "name": "activation_6", "class_name": "Activation"}, {"inbound_nodes": [[["activation_6", 0, 0, {}]]], "config": {"kernel_size": [1, 1], "use_bias": false, "kernel_regularizer": null, "activity_regularizer": null, "kernel_constraint": null, "padding": "valid", "bias_regularizer": null, "strides": [1, 1], "kernel_initializer": {"config": {"scale": 1.0, "seed": null, "mode": "fan_avg", "distribution": "uniform"}, "class_name": "VarianceScaling"}, "dilation_rate": [1, 1], "trainable": true, "name": "conv2_1_1x1_increase", "filters": 256, "data_format": "channels_last", "bias_initializer": {"config": {}, "class_name": "Zeros"}, "activation": "linear", "bias_constraint": null}, "name": "conv2_1_1x1_increase", "class_name": "Conv2D"}, {"inbound_nodes": [[["activation_4", 0, 0, {}]]], "config": {"kernel_size": [1, 1], "use_bias": false, "kernel_regularizer": null, "activity_regularizer": null, "kernel_constraint": null, "padding": "valid", "bias_regularizer": null, "strides": [1, 1], "kernel_initializer": {"config": {"scale": 1.0, "seed": null, "mode": "fan_avg", "distribution": "uniform"}, "class_name": "VarianceScaling"}, "dilation_rate": [1, 1], "trainable": true, "name": "conv2_1_1x1_proj", "filters": 256, "data_format": "channels_last", "bias_initializer": {"config": {}, "class_name": "Zeros"}, "activation": "linear", "bias_constraint": null}, "name": "conv2_1_1x1_proj", "class_name": "Conv2D"}, {"inbound_nodes": [[["conv2_1_1x1_increase", 0, 0, {}]]], "config": {"moving_mean_initializer": {"config": {}, "class_name": "Zeros"}, "center": true, "gamma_regularizer": null, "gamma_initializer": {"config": {}, "class_name": "Ones"}, "beta_constraint": null, "name": "conv2_1_1x1_increase_bn", "axis": -1, "epsilon": 1e-05, "beta_initializer": {"config": {}, "class_name": "Zeros"}, "trainable": true, "beta_regularizer": null, "scale": true, "gamma_constraint": null, "momentum": 0.95, "moving_variance_initializer": {"config": {}, "class_name": "Ones"}}, "name": "conv2_1_1x1_increase_bn", "class_name": "BatchNormalization"}, {"inbound_nodes": [[["conv2_1_1x1_proj", 0, 0, {}]]], "config": {"moving_mean_initializer": {"config": {}, "class_name": "Zeros"}, "center": true, "gamma_regularizer": null, "gamma_initializer": {"config": {}, "class_name": "Ones"}, "beta_constraint": null, "name": "conv2_1_1x1_proj_bn", "axis": -1, "epsilon": 1e-05, "beta_initializer": {"config": {}, "class_name": "Zeros"}, "trainable": true, "beta_regularizer": null, "scale": true, "gamma_constraint": null, "momentum": 0.95, "moving_variance_initializer": {"config": {}, "class_name": "Ones"}}, "name": "conv2_1_1x1_proj_bn", "class_name": "BatchNormalization"}, {"inbound_nodes": [[["conv2_1_1x1_increase_bn", 0, 0, {}], ["conv2_1_1x1_proj_bn", 0, 0, {}]]], "config": {"trainable": true, "name": "add_1"}, "name": "add_1", "class_name": "Add"}, {"inbound_nodes": [[["add_1", 0, 0, {}]]], "config": {"trainable": true, "activation": "relu", "name": "activation_7"}, "name": "activation_7", "class_name": "Activation"}, {"inbound_nodes": [[["activation_7", 0, 0, {}]]], "config": {"kernel_size": [1, 1], "use_bias": false, "kernel_regularizer": null, "activity_regularizer": null, "kernel_constraint": null, "padding": "valid", "bias_regularizer": null, "strides": [1, 1], "kernel_initializer": {"config": {"scale": 1.0, "seed": null, "mode": "fan_avg", "distribution": "uniform"}, "class_name": "VarianceScaling"}, "dilation_rate": [1, 1], "trainable": true, "name": "conv2_2_1x1_reduce", "filters": 64, "data_format": "channels_last", "bias_initializer": {"config": {}, "class_name": "Zeros"}, "activation": "linear", "bias_constraint": null}, "name": "conv2_2_1x1_reduce", "class_name": "Conv2D"}, {"inbound_nodes": [[["conv2_2_1x1_reduce", 0, 0, {}]]], "config": {"moving_mean_initializer": {"config": {}, "class_name": "Zeros"}, "center": true, "gamma_regularizer": null, "gamma_initializer": {"config": {}, "class_name": "Ones"}, "beta_constraint": null, "name": "conv2_2_1x1_reduce_bn", "axis": -1, "epsilon": 1e-05, "beta_initializer": {"config": {}, "class_name": "Zeros"}, "trainable": true, "beta_regularizer": null, "scale": true, "gamma_constraint": null, "momentum": 0.95, "moving_variance_initializer": {"config": {}, "class_name": "Ones"}}, "name": "conv2_2_1x1_reduce_bn", "class_name": "BatchNormalization"}, {"inbound_nodes": [[["conv2_2_1x1_reduce_bn", 0, 0, {}]]], "config": {"trainable": true, "activation": "relu", "name": "activation_8"}, "name": "activation_8", "class_name": "Activation"}, {"inbound_nodes": [[["activation_8", 0, 0, {}]]], "config": {"data_format": "channels_last", "trainable": true, "name": "zero_padding2d_2", "padding": [[1, 1], [1, 1]]}, "name": "zero_padding2d_2", "class_name": "ZeroPadding2D"}, {"inbound_nodes": [[["zero_padding2d_2", 0, 0, {}]]], "config": {"kernel_size": [3, 3], "use_bias": false, "kernel_regularizer": null, "activity_regularizer": null, "kernel_constraint": null, "padding": "valid", "bias_regularizer": null, "strides": [1, 1], "kernel_initializer": {"config": {"scale": 1.0, "seed": null, "mode": "fan_avg", "distribution": "uniform"}, "class_name": "VarianceScaling"}, "dilation_rate": [1, 1], "trainable": true, "name": "conv2_2_3x3", "filters": 64, "data_format": "channels_last", "bias_initializer": {"config": {}, "class_name": "Zeros"}, "activation": "linear", "bias_constraint": null}, "name": "conv2_2_3x3", "class_name": "Conv2D"}, {"inbound_nodes": [[["conv2_2_3x3", 0, 0, {}]]], "config": {"moving_mean_initializer": {"config": {}, "class_name": "Zeros"}, "center": true, "gamma_regularizer": null, "gamma_initializer": {"config": {}, "class_name": "Ones"}, "beta_constraint": null, "name": "conv2_2_3x3_bn", "axis": -1, "epsilon": 1e-05, "beta_initializer": {"config": {}, "class_name": "Zeros"}, "trainable": true, "beta_regularizer": null, "scale": true, "gamma_constraint": null, "momentum": 0.95, "moving_variance_initializer": {"config": {}, "class_name": "Ones"}}, "name": "conv2_2_3x3_bn", "class_name": "BatchNormalization"}, {"inbound_nodes": [[["conv2_2_3x3_bn", 0, 0, {}]]], "config": {"trainable": true, "activation": "relu", "name": "activation_9"}, "name": "activation_9", "class_name": "Activation"}, {"inbound_nodes": [[["activation_9", 0, 0, {}]]], "config": {"kernel_size": [1, 1], "use_bias": false, "kernel_regularizer": null, "activity_regularizer": null, "kernel_constraint": null, "padding": "valid", "bias_regularizer": null, "strides": [1, 1], "kernel_initializer": {"config": {"scale": 1.0, "seed": null, "mode": "fan_avg", "distribution": "uniform"}, "class_name": "VarianceScaling"}, "dilation_rate": [1, 1], "trainable": true, "name": "conv2_2_1x1_increase", "filters": 256, "data_format": "channels_last", "bias_initializer": {"config": {}, "class_name": "Zeros"}, "activation": "linear", "bias_constraint": null}, "name": "conv2_2_1x1_increase", "class_name": "Conv2D"}, {"inbound_nodes": [[["conv2_2_1x1_increase", 0, 0, {}]]], "config": {"moving_mean_initializer": {"config": {}, "class_name": "Zeros"}, "center": true, "gamma_regularizer": null, "gamma_initializer": {"config": {}, "class_name": "Ones"}, "beta_constraint": null, "name": "conv2_2_1x1_increase_bn", "axis": -1, "epsilon": 1e-05, "beta_initializer": {"config": {}, "class_name": "Zeros"}, "trainable": true, "beta_regularizer": null, "scale": true, "gamma_constraint": null, "momentum": 0.95, "moving_variance_initializer": {"config": {}, "class_name": "Ones"}}, "name": "conv2_2_1x1_increase_bn", "class_name": "BatchNormalization"}, {"inbound_nodes": [[["conv2_2_1x1_increase_bn", 0, 0, {}], ["activation_7", 0, 0, {}]]], "config": {"trainable": true, "name": "add_2"}, "name": "add_2", "class_name": "Add"}, {"inbound_nodes": [[["add_2", 0, 0, {}]]], "config": {"trainable": true, "activation": "relu", "name": "activation_10"}, "name": "activation_10", "class_name": "Activation"}, {"inbound_nodes": [[["activation_10", 0, 0, {}]]], "config": {"kernel_size": [1, 1], "use_bias": false, "kernel_regularizer": null, "activity_regularizer": null, "kernel_constraint": null, "padding": "valid", "bias_regularizer": null, "strides": [1, 1], "kernel_initializer": {"config": {"scale": 1.0, "seed": null, "mode": "fan_avg", "distribution": "uniform"}, "class_name": "VarianceScaling"}, "dilation_rate": [1, 1], "trainable": true, "name": "conv2_3_1x1_reduce", "filters": 64, "data_format": "channels_last", "bias_initializer": {"config": {}, "class_name": "Zeros"}, "activation": "linear", "bias_constraint": null}, "name": "conv2_3_1x1_reduce", "class_name": "Conv2D"}, {"inbound_nodes": [[["conv2_3_1x1_reduce", 0, 0, {}]]], "config": {"moving_mean_initializer": {"config": {}, "class_name": "Zeros"}, "center": true, "gamma_regularizer": null, "gamma_initializer": {"config": {}, "class_name": "Ones"}, "beta_constraint": null, "name": "conv2_3_1x1_reduce_bn", "axis": -1, "epsilon": 1e-05, "beta_initializer": {"config": {}, "class_name": "Zeros"}, "trainable": true, "beta_regularizer": null, "scale": true, "gamma_constraint": null, "momentum": 0.95, "moving_variance_initializer": {"config": {}, "class_name": "Ones"}}, "name": "conv2_3_1x1_reduce_bn", "class_name": "BatchNormalization"}, {"inbound_nodes": [[["conv2_3_1x1_reduce_bn", 0, 0, {}]]], "config": {"trainable": true, "activation": "relu", "name": "activation_11"}, "name": "activation_11", "class_name": "Activation"}, {"inbound_nodes": [[["activation_11", 0, 0, {}]]], "config": {"data_format": "channels_last", "trainable": true, "name": "zero_padding2d_3", "padding": [[1, 1], [1, 1]]}, "name": "zero_padding2d_3", "class_name": "ZeroPadding2D"}, {"inbound_nodes": [[["zero_padding2d_3", 0, 0, {}]]], "config": {"kernel_size": [3, 3], "use_bias": false, "kernel_regularizer": null, "activity_regularizer": null, "kernel_constraint": null, "padding": "valid", "bias_regularizer": null, "strides": [1, 1], "kernel_initializer": {"config": {"scale": 1.0, "seed": null, "mode": "fan_avg", "distribution": "uniform"}, "class_name": "VarianceScaling"}, "dilation_rate": [1, 1], "trainable": true, "name": "conv2_3_3x3", "filters": 64, "data_format": "channels_last", "bias_initializer": {"config": {}, "class_name": "Zeros"}, "activation": "linear", "bias_constraint": null}, "name": "conv2_3_3x3", "class_name": "Conv2D"}, {"inbound_nodes": [[["conv2_3_3x3", 0, 0, {}]]], "config": {"moving_mean_initializer": {"config": {}, "class_name": "Zeros"}, "center": true, "gamma_regularizer": null, "gamma_initializer": {"config": {}, "class_name": "Ones"}, "beta_constraint": null, "name": "conv2_3_3x3_bn", "axis": -1, "epsilon": 1e-05, "beta_initializer": {"config": {}, "class_name": "Zeros"}, "trainable": true, "beta_regularizer": null, "scale": true, "gamma_constraint": null, "momentum": 0.95, "moving_variance_initializer": {"config": {}, "class_name": "Ones"}}, "name": "conv2_3_3x3_bn", "class_name": "BatchNormalization"}, {"inbound_nodes": [[["conv2_3_3x3_bn", 0, 0, {}]]], "config": {"trainable": true, "activation": "relu", "name": "activation_12"}, "name": "activation_12", "class_name": "Activation"}, {"inbound_nodes": [[["activation_12", 0, 0, {}]]], "config": {"kernel_size": [1, 1], "use_bias": false, "kernel_regularizer": null, "activity_regularizer": null, "kernel_constraint": null, "padding": "valid", "bias_regularizer": null, "strides": [1, 1], "kernel_initializer": {"config": {"scale": 1.0, "seed": null, "mode": "fan_avg", "distribution": "uniform"}, "class_name": "VarianceScaling"}, "dilation_rate": [1, 1], "trainable": true, "name": "conv2_3_1x1_increase", "filters": 256, "data_format": "channels_last", "bias_initializer": {"config": {}, "class_name": "Zeros"}, "activation": "linear", "bias_constraint": null}, "name": "conv2_3_1x1_increase", "class_name": "Conv2D"}, {"inbound_nodes": [[["conv2_3_1x1_increase", 0, 0, {}]]], "config": {"moving_mean_initializer": {"config": {}, "class_name": "Zeros"}, "center": true, "gamma_regularizer": null, "gamma_initializer": {"config": {}, "class_name": "Ones"}, "beta_constraint": null, "name": "conv2_3_1x1_increase_bn", "axis": -1, "epsilon": 1e-05, "beta_initializer": {"config": {}, "class_name": "Zeros"}, "trainable": true, "beta_regularizer": null, "scale": true, "gamma_constraint": null, "momentum": 0.95, "moving_variance_initializer": {"config": {}, "class_name": "Ones"}}, "name": "conv2_3_1x1_increase_bn", "class_name": "BatchNormalization"}, {"inbound_nodes": [[["conv2_3_1x1_increase_bn", 0, 0, {}], ["activation_10", 0, 0, {}]]], "config": {"trainable": true, "name": "add_3"}, "name": "add_3", "class_name": "Add"}, {"inbound_nodes": [[["add_3", 0, 0, {}]]], "config": {"trainable": true, "activation": "relu", "name": "activation_13"}, "name": "activation_13", "class_name": "Activation"}, {"inbound_nodes": [[["activation_13", 0, 0, {}]]], "config": {"kernel_size": [1, 1], "use_bias": false, "kernel_regularizer": null, "activity_regularizer": null, "kernel_constraint": null, "padding": "valid", "bias_regularizer": null, "strides": [2, 2], "kernel_initializer": {"config": {"scale": 1.0, "seed": null, "mode": "fan_avg", "distribution": "uniform"}, "class_name": "VarianceScaling"}, "dilation_rate": [1, 1], "trainable": true, "name": "conv3_1_1x1_reduce", "filters": 128, "data_format": "channels_last", "bias_initializer": {"config": {}, "class_name": "Zeros"}, "activation": "linear", "bias_constraint": null}, "name": "conv3_1_1x1_reduce", "class_name": "Conv2D"}, {"inbound_nodes": [[["conv3_1_1x1_reduce", 0, 0, {}]]], "config": {"moving_mean_initializer": {"config": {}, "class_name": "Zeros"}, "center": true, "gamma_regularizer": null, "gamma_initializer": {"config": {}, "class_name": "Ones"}, "beta_constraint": null, "name": "conv3_1_1x1_reduce_bn", "axis": -1, "epsilon": 1e-05, "beta_initializer": {"config": {}, "class_name": "Zeros"}, "trainable": true, "beta_regularizer": null, "scale": true, "gamma_constraint": null, "momentum": 0.95, "moving_variance_initializer": {"config": {}, "class_name": "Ones"}}, "name": "conv3_1_1x1_reduce_bn", "class_name": "BatchNormalization"}, {"inbound_nodes": [[["conv3_1_1x1_reduce_bn", 0, 0, {}]]], "config": {"trainable": true, "activation": "relu", "name": "activation_14"}, "name": "activation_14", "class_name": "Activation"}, {"inbound_nodes": [[["activation_14", 0, 0, {}]]], "config": {"data_format": "channels_last", "trainable": true, "name": "zero_padding2d_4", "padding": [[1, 1], [1, 1]]}, "name": "zero_padding2d_4", "class_name": "ZeroPadding2D"}, {"inbound_nodes": [[["zero_padding2d_4", 0, 0, {}]]], "config": {"kernel_size": [3, 3], "use_bias": false, "kernel_regularizer": null, "activity_regularizer": null, "kernel_constraint": null, "padding": "valid", "bias_regularizer": null, "strides": [1, 1], "kernel_initializer": {"config": {"scale": 1.0, "seed": null, "mode": "fan_avg", "distribution": "uniform"}, "class_name": "VarianceScaling"}, "dilation_rate": [1, 1], "trainable": true, "name": "conv3_1_3x3", "filters": 128, "data_format": "channels_last", "bias_initializer": {"config": {}, "class_name": "Zeros"}, "activation": "linear", "bias_constraint": null}, "name": "conv3_1_3x3", "class_name": "Conv2D"}, {"inbound_nodes": [[["conv3_1_3x3", 0, 0, {}]]], "config": {"moving_mean_initializer": {"config": {}, "class_name": "Zeros"}, "center": true, "gamma_regularizer": null, "gamma_initializer": {"config": {}, "class_name": "Ones"}, "beta_constraint": null, "name": "conv3_1_3x3_bn", "axis": -1, "epsilon": 1e-05, "beta_initializer": {"config": {}, "class_name": "Zeros"}, "trainable": true, "beta_regularizer": null, "scale": true, "gamma_constraint": null, "momentum": 0.95, "moving_variance_initializer": {"config": {}, "class_name": "Ones"}}, "name": "conv3_1_3x3_bn", "class_name": "BatchNormalization"}, {"inbound_nodes": [[["conv3_1_3x3_bn", 0, 0, {}]]], "config": {"trainable": true, "activation": "relu", "name": "activation_15"}, "name": "activation_15", "class_name": "Activation"}, {"inbound_nodes": [[["activation_15", 0, 0, {}]]], "config": {"kernel_size": [1, 1], "use_bias": false, "kernel_regularizer": null, "activity_regularizer": null, "kernel_constraint": null, "padding": "valid", "bias_regularizer": null, "strides": [1, 1], "kernel_initializer": {"config": {"scale": 1.0, "seed": null, "mode": "fan_avg", "distribution": "uniform"}, "class_name": "VarianceScaling"}, "dilation_rate": [1, 1], "trainable": true, "name": "conv3_1_1x1_increase", "filters": 512, "data_format": "channels_last", "bias_initializer": {"config": {}, "class_name": "Zeros"}, "activation": "linear", "bias_constraint": null}, "name": "conv3_1_1x1_increase", "class_name": "Conv2D"}, {"inbound_nodes": [[["activation_13", 0, 0, {}]]], "config": {"kernel_size": [1, 1], "use_bias": false, "kernel_regularizer": null, "activity_regularizer": null, "kernel_constraint": null, "padding": "valid", "bias_regularizer": null, "strides": [2, 2], "kernel_initializer": {"config": {"scale": 1.0, "seed": null, "mode": "fan_avg", "distribution": "uniform"}, "class_name": "VarianceScaling"}, "dilation_rate": [1, 1], "trainable": true, "name": "conv3_1_1x1_proj", "filters": 512, "data_format": "channels_last", "bias_initializer": {"config": {}, "class_name": "Zeros"}, "activation": "linear", "bias_constraint": null}, "name": "conv3_1_1x1_proj", "class_name": "Conv2D"}, {"inbound_nodes": [[["conv3_1_1x1_increase", 0, 0, {}]]], "config": {"moving_mean_initializer": {"config": {}, "class_name": "Zeros"}, "center": true, "gamma_regularizer": null, "gamma_initializer": {"config": {}, "class_name": "Ones"}, "beta_constraint": null, "name": "conv3_1_1x1_increase_bn", "axis": -1, "epsilon": 1e-05, "beta_initializer": {"config": {}, "class_name": "Zeros"}, "trainable": true, "beta_regularizer": null, "scale": true, "gamma_constraint": null, "momentum": 0.95, "moving_variance_initializer": {"config": {}, "class_name": "Ones"}}, "name": "conv3_1_1x1_increase_bn", "class_name": "BatchNormalization"}, {"inbound_nodes": [[["conv3_1_1x1_proj", 0, 0, {}]]], "config": {"moving_mean_initializer": {"config": {}, "class_name": "Zeros"}, "center": true, "gamma_regularizer": null, "gamma_initializer": {"config": {}, "class_name": "Ones"}, "beta_constraint": null, "name": "conv3_1_1x1_proj_bn", "axis": -1, "epsilon": 1e-05, "beta_initializer": {"config": {}, "class_name": "Zeros"}, "trainable": true, "beta_regularizer": null, "scale": true, "gamma_constraint": null, "momentum": 0.95, "moving_variance_initializer": {"config": {}, "class_name": "Ones"}}, "name": "conv3_1_1x1_proj_bn", "class_name": "BatchNormalization"}, {"inbound_nodes": [[["conv3_1_1x1_increase_bn", 0, 0, {}], ["conv3_1_1x1_proj_bn", 0, 0, {}]]], "config": {"trainable": true, "name": "add_4"}, "name": "add_4", "class_name": "Add"}, {"inbound_nodes": [[["add_4", 0, 0, {}]]], "config": {"trainable": true, "activation": "relu", "name": "activation_16"}, "name": "activation_16", "class_name": "Activation"}, {"inbound_nodes": [[["activation_16", 0, 0, {}]]], "config": {"kernel_size": [1, 1], "use_bias": false, "kernel_regularizer": null, "activity_regularizer": null, "kernel_constraint": null, "padding": "valid", "bias_regularizer": null, "strides": [1, 1], "kernel_initializer": {"config": {"scale": 1.0, "seed": null, "mode": "fan_avg", "distribution": "uniform"}, "class_name": "VarianceScaling"}, "dilation_rate": [1, 1], "trainable": true, "name": "conv3_2_1x1_reduce", "filters": 128, "data_format": "channels_last", "bias_initializer": {"config": {}, "class_name": "Zeros"}, "activation": "linear", "bias_constraint": null}, "name": "conv3_2_1x1_reduce", "class_name": "Conv2D"}, {"inbound_nodes": [[["conv3_2_1x1_reduce", 0, 0, {}]]], "config": {"moving_mean_initializer": {"config": {}, "class_name": "Zeros"}, "center": true, "gamma_regularizer": null, "gamma_initializer": {"config": {}, "class_name": "Ones"}, "beta_constraint": null, "name": "conv3_2_1x1_reduce_bn", "axis": -1, "epsilon": 1e-05, "beta_initializer": {"config": {}, "class_name": "Zeros"}, "trainable": true, "beta_regularizer": null, "scale": true, "gamma_constraint": null, "momentum": 0.95, "moving_variance_initializer": {"config": {}, "class_name": "Ones"}}, "name": "conv3_2_1x1_reduce_bn", "class_name": "BatchNormalization"}, {"inbound_nodes": [[["conv3_2_1x1_reduce_bn", 0, 0, {}]]], "config": {"trainable": true, "activation": "relu", "name": "activation_17"}, "name": "activation_17", "class_name": "Activation"}, {"inbound_nodes": [[["activation_17", 0, 0, {}]]], "config": {"data_format": "channels_last", "trainable": true, "name": "zero_padding2d_5", "padding": [[1, 1], [1, 1]]}, "name": "zero_padding2d_5", "class_name": "ZeroPadding2D"}, {"inbound_nodes": [[["zero_padding2d_5", 0, 0, {}]]], "config": {"kernel_size": [3, 3], "use_bias": false, "kernel_regularizer": null, "activity_regularizer": null, "kernel_constraint": null, "padding": "valid", "bias_regularizer": null, "strides": [1, 1], "kernel_initializer": {"config": {"scale": 1.0, "seed": null, "mode": "fan_avg", "distribution": "uniform"}, "class_name": "VarianceScaling"}, "dilation_rate": [1, 1], "trainable": true, "name": "conv3_2_3x3", "filters": 128, "data_format": "channels_last", "bias_initializer": {"config": {}, "class_name": "Zeros"}, "activation": "linear", "bias_constraint": null}, "name": "conv3_2_3x3", "class_name": "Conv2D"}, {"inbound_nodes": [[["conv3_2_3x3", 0, 0, {}]]], "config": {"moving_mean_initializer": {"config": {}, "class_name": "Zeros"}, "center": true, "gamma_regularizer": null, "gamma_initializer": {"config": {}, "class_name": "Ones"}, "beta_constraint": null, "name": "conv3_2_3x3_bn", "axis": -1, "epsilon": 1e-05, "beta_initializer": {"config": {}, "class_name": "Zeros"}, "trainable": true, "beta_regularizer": null, "scale": true, "gamma_constraint": null, "momentum": 0.95, "moving_variance_initializer": {"config": {}, "class_name": "Ones"}}, "name": "conv3_2_3x3_bn", "class_name": "BatchNormalization"}, {"inbound_nodes": [[["conv3_2_3x3_bn", 0, 0, {}]]], "config": {"trainable": true, "activation": "relu", "name": "activation_18"}, "name": "activation_18", "class_name": "Activation"}, {"inbound_nodes": [[["activation_18", 0, 0, {}]]], "config": {"kernel_size": [1, 1], "use_bias": false, "kernel_regularizer": null, "activity_regularizer": null, "kernel_constraint": null, "padding": "valid", "bias_regularizer": null, "strides": [1, 1], "kernel_initializer": {"config": {"scale": 1.0, "seed": null, "mode": "fan_avg", "distribution": "uniform"}, "class_name": "VarianceScaling"}, "dilation_rate": [1, 1], "trainable": true, "name": "conv3_2_1x1_increase", "filters": 512, "data_format": "channels_last", "bias_initializer": {"config": {}, "class_name": "Zeros"}, "activation": "linear", "bias_constraint": null}, "name": "conv3_2_1x1_increase", "class_name": "Conv2D"}, {"inbound_nodes": [[["conv3_2_1x1_increase", 0, 0, {}]]], "config": {"moving_mean_initializer": {"config": {}, "class_name": "Zeros"}, "center": true, "gamma_regularizer": null, "gamma_initializer": {"config": {}, "class_name": "Ones"}, "beta_constraint": null, "name": "conv3_2_1x1_increase_bn", "axis": -1, "epsilon": 1e-05, "beta_initializer": {"config": {}, "class_name": "Zeros"}, "trainable": true, "beta_regularizer": null, "scale": true, "gamma_constraint": null, "momentum": 0.95, "moving_variance_initializer": {"config": {}, "class_name": "Ones"}}, "name": "conv3_2_1x1_increase_bn", "class_name": "BatchNormalization"}, {"inbound_nodes": [[["conv3_2_1x1_increase_bn", 0, 0, {}], ["activation_16", 0, 0, {}]]], "config": {"trainable": true, "name": "add_5"}, "name": "add_5", "class_name": "Add"}, {"inbound_nodes": [[["add_5", 0, 0, {}]]], "config": {"trainable": true, "activation": "relu", "name": "activation_19"}, "name": "activation_19", "class_name": "Activation"}, {"inbound_nodes": [[["activation_19", 0, 0, {}]]], "config": {"kernel_size": [1, 1], "use_bias": false, "kernel_regularizer": null, "activity_regularizer": null, "kernel_constraint": null, "padding": "valid", "bias_regularizer": null, "strides": [1, 1], "kernel_initializer": {"config": {"scale": 1.0, "seed": null, "mode": "fan_avg", "distribution": "uniform"}, "class_name": "VarianceScaling"}, "dilation_rate": [1, 1], "trainable": true, "name": "conv3_3_1x1_reduce", "filters": 128, "data_format": "channels_last", "bias_initializer": {"config": {}, "class_name": "Zeros"}, "activation": "linear", "bias_constraint": null}, "name": "conv3_3_1x1_reduce", "class_name": "Conv2D"}, {"inbound_nodes": [[["conv3_3_1x1_reduce", 0, 0, {}]]], "config": {"moving_mean_initializer": {"config": {}, "class_name": "Zeros"}, "center": true, "gamma_regularizer": null, "gamma_initializer": {"config": {}, "class_name": "Ones"}, "beta_constraint": null, "name": "conv3_3_1x1_reduce_bn", "axis": -1, "epsilon": 1e-05, "beta_initializer": {"config": {}, "class_name": "Zeros"}, "trainable": true, "beta_regularizer": null, "scale": true, "gamma_constraint": null, "momentum": 0.95, "moving_variance_initializer": {"config": {}, "class_name": "Ones"}}, "name": "conv3_3_1x1_reduce_bn", "class_name": "BatchNormalization"}, {"inbound_nodes": [[["conv3_3_1x1_reduce_bn", 0, 0, {}]]], "config": {"trainable": true, "activation": "relu", "name": "activation_20"}, "name": "activation_20", "class_name": "Activation"}, {"inbound_nodes": [[["activation_20", 0, 0, {}]]], "config": {"data_format": "channels_last", "trainable": true, "name": "zero_padding2d_6", "padding": [[1, 1], [1, 1]]}, "name": "zero_padding2d_6", "class_name": "ZeroPadding2D"}, {"inbound_nodes": [[["zero_padding2d_6", 0, 0, {}]]], "config": {"kernel_size": [3, 3], "use_bias": false, "kernel_regularizer": null, "activity_regularizer": null, "kernel_constraint": null, "padding": "valid", "bias_regularizer": null, "strides": [1, 1], "kernel_initializer": {"config": {"scale": 1.0, "seed": null, "mode": "fan_avg", "distribution": "uniform"}, "class_name": "VarianceScaling"}, "dilation_rate": [1, 1], "trainable": true, "name": "conv3_3_3x3", "filters": 128, "data_format": "channels_last", "bias_initializer": {"config": {}, "class_name": "Zeros"}, "activation": "linear", "bias_constraint": null}, "name": "conv3_3_3x3", "class_name": "Conv2D"}, {"inbound_nodes": [[["conv3_3_3x3", 0, 0, {}]]], "config": {"moving_mean_initializer": {"config": {}, "class_name": "Zeros"}, "center": true, "gamma_regularizer": null, "gamma_initializer": {"config": {}, "class_name": "Ones"}, "beta_constraint": null, "name": "conv3_3_3x3_bn", "axis": -1, "epsilon": 1e-05, "beta_initializer": {"config": {}, "class_name": "Zeros"}, "trainable": true, "beta_regularizer": null, "scale": true, "gamma_constraint": null, "momentum": 0.95, "moving_variance_initializer": {"config": {}, "class_name": "Ones"}}, "name": "conv3_3_3x3_bn", "class_name": "BatchNormalization"}, {"inbound_nodes": [[["conv3_3_3x3_bn", 0, 0, {}]]], "config": {"trainable": true, "activation": "relu", "name": "activation_21"}, "name": "activation_21", "class_name": "Activation"}, {"inbound_nodes": [[["activation_21", 0, 0, {}]]], "config": {"kernel_size": [1, 1], "use_bias": false, "kernel_regularizer": null, "activity_regularizer": null, "kernel_constraint": null, "padding": "valid", "bias_regularizer": null, "strides": [1, 1], "kernel_initializer": {"config": {"scale": 1.0, "seed": null, "mode": "fan_avg", "distribution": "uniform"}, "class_name": "VarianceScaling"}, "dilation_rate": [1, 1], "trainable": true, "name": "conv3_3_1x1_increase", "filters": 512, "data_format": "channels_last", "bias_initializer": {"config": {}, "class_name": "Zeros"}, "activation": "linear", "bias_constraint": null}, "name": "conv3_3_1x1_increase", "class_name": "Conv2D"}, {"inbound_nodes": [[["conv3_3_1x1_increase", 0, 0, {}]]], "config": {"moving_mean_initializer": {"config": {}, "class_name": "Zeros"}, "center": true, "gamma_regularizer": null, "gamma_initializer": {"config": {}, "class_name": "Ones"}, "beta_constraint": null, "name": "conv3_3_1x1_increase_bn", "axis": -1, "epsilon": 1e-05, "beta_initializer": {"config": {}, "class_name": "Zeros"}, "trainable": true, "beta_regularizer": null, "scale": true, "gamma_constraint": null, "momentum": 0.95, "moving_variance_initializer": {"config": {}, "class_name": "Ones"}}, "name": "conv3_3_1x1_increase_bn", "class_name": "BatchNormalization"}, {"inbound_nodes": [[["conv3_3_1x1_increase_bn", 0, 0, {}], ["activation_19", 0, 0, {}]]], "config": {"trainable": true, "name": "add_6"}, "name": "add_6", "class_name": "Add"}, {"inbound_nodes": [[["add_6", 0, 0, {}]]], "config": {"trainable": true, "activation": "relu", "name": "activation_22"}, "name": "activation_22", "class_name": "Activation"}, {"inbound_nodes": [[["activation_22", 0, 0, {}]]], "config": {"kernel_size": [1, 1], "use_bias": false, "kernel_regularizer": null, "activity_regularizer": null, "kernel_constraint": null, "padding": "valid", "bias_regularizer": null, "strides": [1, 1], "kernel_initializer": {"config": {"scale": 1.0, "seed": null, "mode": "fan_avg", "distribution": "uniform"}, "class_name": "VarianceScaling"}, "dilation_rate": [1, 1], "trainable": true, "name": "conv3_4_1x1_reduce", "filters": 128, "data_format": "channels_last", "bias_initializer": {"config": {}, "class_name": "Zeros"}, "activation": "linear", "bias_constraint": null}, "name": "conv3_4_1x1_reduce", "class_name": "Conv2D"}, {"inbound_nodes": [[["conv3_4_1x1_reduce", 0, 0, {}]]], "config": {"moving_mean_initializer": {"config": {}, "class_name": "Zeros"}, "center": true, "gamma_regularizer": null, "gamma_initializer": {"config": {}, "class_name": "Ones"}, "beta_constraint": null, "name": "conv3_4_1x1_reduce_bn", "axis": -1, "epsilon": 1e-05, "beta_initializer": {"config": {}, "class_name": "Zeros"}, "trainable": true, "beta_regularizer": null, "scale": true, "gamma_constraint": null, "momentum": 0.95, "moving_variance_initializer": {"config": {}, "class_name": "Ones"}}, "name": "conv3_4_1x1_reduce_bn", "class_name": "BatchNormalization"}, {"inbound_nodes": [[["conv3_4_1x1_reduce_bn", 0, 0, {}]]], "config": {"trainable": true, "activation": "relu", "name": "activation_23"}, "name": "activation_23", "class_name": "Activation"}, {"inbound_nodes": [[["activation_23", 0, 0, {}]]], "config": {"data_format": "channels_last", "trainable": true, "name": "zero_padding2d_7", "padding": [[1, 1], [1, 1]]}, "name": "zero_padding2d_7", "class_name": "ZeroPadding2D"}, {"inbound_nodes": [[["zero_padding2d_7", 0, 0, {}]]], "config": {"kernel_size": [3, 3], "use_bias": false, "kernel_regularizer": null, "activity_regularizer": null, "kernel_constraint": null, "padding": "valid", "bias_regularizer": null, "strides": [1, 1], "kernel_initializer": {"config": {"scale": 1.0, "seed": null, "mode": "fan_avg", "distribution": "uniform"}, "class_name": "VarianceScaling"}, "dilation_rate": [1, 1], "trainable": true, "name": "conv3_4_3x3", "filters": 128, "data_format": "channels_last", "bias_initializer": {"config": {}, "class_name": "Zeros"}, "activation": "linear", "bias_constraint": null}, "name": "conv3_4_3x3", "class_name": "Conv2D"}, {"inbound_nodes": [[["conv3_4_3x3", 0, 0, {}]]], "config": {"moving_mean_initializer": {"config": {}, "class_name": "Zeros"}, "center": true, "gamma_regularizer": null, "gamma_initializer": {"config": {}, "class_name": "Ones"}, "beta_constraint": null, "name": "conv3_4_3x3_bn", "axis": -1, "epsilon": 1e-05, "beta_initializer": {"config": {}, "class_name": "Zeros"}, "trainable": true, "beta_regularizer": null, "scale": true, "gamma_constraint": null, "momentum": 0.95, "moving_variance_initializer": {"config": {}, "class_name": "Ones"}}, "name": "conv3_4_3x3_bn", "class_name": "BatchNormalization"}, {"inbound_nodes": [[["conv3_4_3x3_bn", 0, 0, {}]]], "config": {"trainable": true, "activation": "relu", "name": "activation_24"}, "name": "activation_24", "class_name": "Activation"}, {"inbound_nodes": [[["activation_24", 0, 0, {}]]], "config": {"kernel_size": [1, 1], "use_bias": false, "kernel_regularizer": null, "activity_regularizer": null, "kernel_constraint": null, "padding": "valid", "bias_regularizer": null, "strides": [1, 1], "kernel_initializer": {"config": {"scale": 1.0, "seed": null, "mode": "fan_avg", "distribution": "uniform"}, "class_name": "VarianceScaling"}, "dilation_rate": [1, 1], "trainable": true, "name": "conv3_4_1x1_increase", "filters": 512, "data_format": "channels_last", "bias_initializer": {"config": {}, "class_name": "Zeros"}, "activation": "linear", "bias_constraint": null}, "name": "conv3_4_1x1_increase", "class_name": "Conv2D"}, {"inbound_nodes": [[["conv3_4_1x1_increase", 0, 0, {}]]], "config": {"moving_mean_initializer": {"config": {}, "class_name": "Zeros"}, "center": true, "gamma_regularizer": null, "gamma_initializer": {"config": {}, "class_name": "Ones"}, "beta_constraint": null, "name": "conv3_4_1x1_increase_bn", "axis": -1, "epsilon": 1e-05, "beta_initializer": {"config": {}, "class_name": "Zeros"}, "trainable": true, "beta_regularizer": null, "scale": true, "gamma_constraint": null, "momentum": 0.95, "moving_variance_initializer": {"config": {}, "class_name": "Ones"}}, "name": "conv3_4_1x1_increase_bn", "class_name": "BatchNormalization"}, {"inbound_nodes": [[["conv3_4_1x1_increase_bn", 0, 0, {}], ["activation_22", 0, 0, {}]]], "config": {"trainable": true, "name": "add_7"}, "name": "add_7", "class_name": "Add"}, {"inbound_nodes": [[["add_7", 0, 0, {}]]], "config": {"trainable": true, "activation": "relu", "name": "activation_25"}, "name": "activation_25", "class_name": "Activation"}, {"inbound_nodes": [[["activation_25", 0, 0, {}]]], "config": {"kernel_size": [1, 1], "use_bias": false, "kernel_regularizer": null, "activity_regularizer": null, "kernel_constraint": null, "padding": "valid", "bias_regularizer": null, "strides": [1, 1], "kernel_initializer": {"config": {"scale": 1.0, "seed": null, "mode": "fan_avg", "distribution": "uniform"}, "class_name": "VarianceScaling"}, "dilation_rate": [1, 1], "trainable": true, "name": "conv4_1_1x1_reduce", "filters": 256, "data_format": "channels_last", "bias_initializer": {"config": {}, "class_name": "Zeros"}, "activation": "linear", "bias_constraint": null}, "name": "conv4_1_1x1_reduce", "class_name": "Conv2D"}, {"inbound_nodes": [[["conv4_1_1x1_reduce", 0, 0, {}]]], "config": {"moving_mean_initializer": {"config": {}, "class_name": "Zeros"}, "center": true, "gamma_regularizer": null, "gamma_initializer": {"config": {}, "class_name": "Ones"}, "beta_constraint": null, "name": "conv4_1_1x1_reduce_bn", "axis": -1, "epsilon": 1e-05, "beta_initializer": {"config": {}, "class_name": "Zeros"}, "trainable": true, "beta_regularizer": null, "scale": true, "gamma_constraint": null, "momentum": 0.95, "moving_variance_initializer": {"config": {}, "class_name": "Ones"}}, "name": "conv4_1_1x1_reduce_bn", "class_name": "BatchNormalization"}, {"inbound_nodes": [[["conv4_1_1x1_reduce_bn", 0, 0, {}]]], "config": {"trainable": true, "activation": "relu", "name": "activation_26"}, "name": "activation_26", "class_name": "Activation"}, {"inbound_nodes": [[["activation_26", 0, 0, {}]]], "config": {"data_format": "channels_last", "trainable": true, "name": "zero_padding2d_8", "padding": [[2, 2], [2, 2]]}, "name": "zero_padding2d_8", "class_name": "ZeroPadding2D"}, {"inbound_nodes": [[["zero_padding2d_8", 0, 0, {}]]], "config": {"kernel_size": [3, 3], "use_bias": false, "kernel_regularizer": null, "activity_regularizer": null, "kernel_constraint": null, "padding": "valid", "bias_regularizer": null, "strides": [1, 1], "kernel_initializer": {"config": {"scale": 1.0, "seed": null, "mode": "fan_avg", "distribution": "uniform"}, "class_name": "VarianceScaling"}, "dilation_rate": [2, 2], "trainable": true, "name": "conv4_1_3x3", "filters": 256, "data_format": "channels_last", "bias_initializer": {"config": {}, "class_name": "Zeros"}, "activation": "linear", "bias_constraint": null}, "name": "conv4_1_3x3", "class_name": "Conv2D"}, {"inbound_nodes": [[["conv4_1_3x3", 0, 0, {}]]], "config": {"moving_mean_initializer": {"config": {}, "class_name": "Zeros"}, "center": true, "gamma_regularizer": null, "gamma_initializer": {"config": {}, "class_name": "Ones"}, "beta_constraint": null, "name": "conv4_1_3x3_bn", "axis": -1, "epsilon": 1e-05, "beta_initializer": {"config": {}, "class_name": "Zeros"}, "trainable": true, "beta_regularizer": null, "scale": true, "gamma_constraint": null, "momentum": 0.95, "moving_variance_initializer": {"config": {}, "class_name": "Ones"}}, "name": "conv4_1_3x3_bn", "class_name": "BatchNormalization"}, {"inbound_nodes": [[["conv4_1_3x3_bn", 0, 0, {}]]], "config": {"trainable": true, "activation": "relu", "name": "activation_27"}, "name": "activation_27", "class_name": "Activation"}, {"inbound_nodes": [[["activation_27", 0, 0, {}]]], "config": {"kernel_size": [1, 1], "use_bias": false, "kernel_regularizer": null, "activity_regularizer": null, "kernel_constraint": null, "padding": "valid", "bias_regularizer": null, "strides": [1, 1], "kernel_initializer": {"config": {"scale": 1.0, "seed": null, "mode": "fan_avg", "distribution": "uniform"}, "class_name": "VarianceScaling"}, "dilation_rate": [1, 1], "trainable": true, "name": "conv4_1_1x1_increase", "filters": 1024, "data_format": "channels_last", "bias_initializer": {"config": {}, "class_name": "Zeros"}, "activation": "linear", "bias_constraint": null}, "name": "conv4_1_1x1_increase", "class_name": "Conv2D"}, {"inbound_nodes": [[["activation_25", 0, 0, {}]]], "config": {"kernel_size": [1, 1], "use_bias": false, "kernel_regularizer": null, "activity_regularizer": null, "kernel_constraint": null, "padding": "valid", "bias_regularizer": null, "strides": [1, 1], "kernel_initializer": {"config": {"scale": 1.0, "seed": null, "mode": "fan_avg", "distribution": "uniform"}, "class_name": "VarianceScaling"}, "dilation_rate": [1, 1], "trainable": true, "name": "conv4_1_1x1_proj", "filters": 1024, "data_format": "channels_last", "bias_initializer": {"config": {}, "class_name": "Zeros"}, "activation": "linear", "bias_constraint": null}, "name": "conv4_1_1x1_proj", "class_name": "Conv2D"}, {"inbound_nodes": [[["conv4_1_1x1_increase", 0, 0, {}]]], "config": {"moving_mean_initializer": {"config": {}, "class_name": "Zeros"}, "center": true, "gamma_regularizer": null, "gamma_initializer": {"config": {}, "class_name": "Ones"}, "beta_constraint": null, "name": "conv4_1_1x1_increase_bn", "axis": -1, "epsilon": 1e-05, "beta_initializer": {"config": {}, "class_name": "Zeros"}, "trainable": true, "beta_regularizer": null, "scale": true, "gamma_constraint": null, "momentum": 0.95, "moving_variance_initializer": {"config": {}, "class_name": "Ones"}}, "name": "conv4_1_1x1_increase_bn", "class_name": "BatchNormalization"}, {"inbound_nodes": [[["conv4_1_1x1_proj", 0, 0, {}]]], "config": {"moving_mean_initializer": {"config": {}, "class_name": "Zeros"}, "center": true, "gamma_regularizer": null, "gamma_initializer": {"config": {}, "class_name": "Ones"}, "beta_constraint": null, "name": "conv4_1_1x1_proj_bn", "axis": -1, "epsilon": 1e-05, "beta_initializer": {"config": {}, "class_name": "Zeros"}, "trainable": true, "beta_regularizer": null, "scale": true, "gamma_constraint": null, "momentum": 0.95, "moving_variance_initializer": {"config": {}, "class_name": "Ones"}}, "name": "conv4_1_1x1_proj_bn", "class_name": "BatchNormalization"}, {"inbound_nodes": [[["conv4_1_1x1_increase_bn", 0, 0, {}], ["conv4_1_1x1_proj_bn", 0, 0, {}]]], "config": {"trainable": true, "name": "add_8"}, "name": "add_8", "class_name": "Add"}, {"inbound_nodes": [[["add_8", 0, 0, {}]]], "config": {"trainable": true, "activation": "relu", "name": "activation_28"}, "name": "activation_28", "class_name": "Activation"}, {"inbound_nodes": [[["activation_28", 0, 0, {}]]], "config": {"kernel_size": [1, 1], "use_bias": false, "kernel_regularizer": null, "activity_regularizer": null, "kernel_constraint": null, "padding": "valid", "bias_regularizer": null, "strides": [1, 1], "kernel_initializer": {"config": {"scale": 1.0, "seed": null, "mode": "fan_avg", "distribution": "uniform"}, "class_name": "VarianceScaling"}, "dilation_rate": [1, 1], "trainable": true, "name": "conv4_2_1x1_reduce", "filters": 256, "data_format": "channels_last", "bias_initializer": {"config": {}, "class_name": "Zeros"}, "activation": "linear", "bias_constraint": null}, "name": "conv4_2_1x1_reduce", "class_name": "Conv2D"}, {"inbound_nodes": [[["conv4_2_1x1_reduce", 0, 0, {}]]], "config": {"moving_mean_initializer": {"config": {}, "class_name": "Zeros"}, "center": true, "gamma_regularizer": null, "gamma_initializer": {"config": {}, "class_name": "Ones"}, "beta_constraint": null, "name": "conv4_2_1x1_reduce_bn", "axis": -1, "epsilon": 1e-05, "beta_initializer": {"config": {}, "class_name": "Zeros"}, "trainable": true, "beta_regularizer": null, "scale": true, "gamma_constraint": null, "momentum": 0.95, "moving_variance_initializer": {"config": {}, "class_name": "Ones"}}, "name": "conv4_2_1x1_reduce_bn", "class_name": "BatchNormalization"}, {"inbound_nodes": [[["conv4_2_1x1_reduce_bn", 0, 0, {}]]], "config": {"trainable": true, "activation": "relu", "name": "activation_29"}, "name": "activation_29", "class_name": "Activation"}, {"inbound_nodes": [[["activation_29", 0, 0, {}]]], "config": {"data_format": "channels_last", "trainable": true, "name": "zero_padding2d_9", "padding": [[2, 2], [2, 2]]}, "name": "zero_padding2d_9", "class_name": "ZeroPadding2D"}, {"inbound_nodes": [[["zero_padding2d_9", 0, 0, {}]]], "config": {"kernel_size": [3, 3], "use_bias": false, "kernel_regularizer": null, "activity_regularizer": null, "kernel_constraint": null, "padding": "valid", "bias_regularizer": null, "strides": [1, 1], "kernel_initializer": {"config": {"scale": 1.0, "seed": null, "mode": "fan_avg", "distribution": "uniform"}, "class_name": "VarianceScaling"}, "dilation_rate": [2, 2], "trainable": true, "name": "conv4_2_3x3", "filters": 256, "data_format": "channels_last", "bias_initializer": {"config": {}, "class_name": "Zeros"}, "activation": "linear", "bias_constraint": null}, "name": "conv4_2_3x3", "class_name": "Conv2D"}, {"inbound_nodes": [[["conv4_2_3x3", 0, 0, {}]]], "config": {"moving_mean_initializer": {"config": {}, "class_name": "Zeros"}, "center": true, "gamma_regularizer": null, "gamma_initializer": {"config": {}, "class_name": "Ones"}, "beta_constraint": null, "name": "conv4_2_3x3_bn", "axis": -1, "epsilon": 1e-05, "beta_initializer": {"config": {}, "class_name": "Zeros"}, "trainable": true, "beta_regularizer": null, "scale": true, "gamma_constraint": null, "momentum": 0.95, "moving_variance_initializer": {"config": {}, "class_name": "Ones"}}, "name": "conv4_2_3x3_bn", "class_name": "BatchNormalization"}, {"inbound_nodes": [[["conv4_2_3x3_bn", 0, 0, {}]]], "config": {"trainable": true, "activation": "relu", "name": "activation_30"}, "name": "activation_30", "class_name": "Activation"}, {"inbound_nodes": [[["activation_30", 0, 0, {}]]], "config": {"kernel_size": [1, 1], "use_bias": false, "kernel_regularizer": null, "activity_regularizer": null, "kernel_constraint": null, "padding": "valid", "bias_regularizer": null, "strides": [1, 1], "kernel_initializer": {"config": {"scale": 1.0, "seed": null, "mode": "fan_avg", "distribution": "uniform"}, "class_name": "VarianceScaling"}, "dilation_rate": [1, 1], "trainable": true, "name": "conv4_2_1x1_increase", "filters": 1024, "data_format": "channels_last", "bias_initializer": {"config": {}, "class_name": "Zeros"}, "activation": "linear", "bias_constraint": null}, "name": "conv4_2_1x1_increase", "class_name": "Conv2D"}, {"inbound_nodes": [[["conv4_2_1x1_increase", 0, 0, {}]]], "config": {"moving_mean_initializer": {"config": {}, "class_name": "Zeros"}, "center": true, "gamma_regularizer": null, "gamma_initializer": {"config": {}, "class_name": "Ones"}, "beta_constraint": null, "name": "conv4_2_1x1_increase_bn", "axis": -1, "epsilon": 1e-05, "beta_initializer": {"config": {}, "class_name": "Zeros"}, "trainable": true, "beta_regularizer": null, "scale": true, "gamma_constraint": null, "momentum": 0.95, "moving_variance_initializer": {"config": {}, "class_name": "Ones"}}, "name": "conv4_2_1x1_increase_bn", "class_name": "BatchNormalization"}, {"inbound_nodes": [[["conv4_2_1x1_increase_bn", 0, 0, {}], ["activation_28", 0, 0, {}]]], "config": {"trainable": true, "name": "add_9"}, "name": "add_9", "class_name": "Add"}, {"inbound_nodes": [[["add_9", 0, 0, {}]]], "config": {"trainable": true, "activation": "relu", "name": "activation_31"}, "name": "activation_31", "class_name": "Activation"}, {"inbound_nodes": [[["activation_31", 0, 0, {}]]], "config": {"kernel_size": [1, 1], "use_bias": false, "kernel_regularizer": null, "activity_regularizer": null, "kernel_constraint": null, "padding": "valid", "bias_regularizer": null, "strides": [1, 1], "kernel_initializer": {"config": {"scale": 1.0, "seed": null, "mode": "fan_avg", "distribution": "uniform"}, "class_name": "VarianceScaling"}, "dilation_rate": [1, 1], "trainable": true, "name": "conv4_3_1x1_reduce", "filters": 256, "data_format": "channels_last", "bias_initializer": {"config": {}, "class_name": "Zeros"}, "activation": "linear", "bias_constraint": null}, "name": "conv4_3_1x1_reduce", "class_name": "Conv2D"}, {"inbound_nodes": [[["conv4_3_1x1_reduce", 0, 0, {}]]], "config": {"moving_mean_initializer": {"config": {}, "class_name": "Zeros"}, "center": true, "gamma_regularizer": null, "gamma_initializer": {"config": {}, "class_name": "Ones"}, "beta_constraint": null, "name": "conv4_3_1x1_reduce_bn", "axis": -1, "epsilon": 1e-05, "beta_initializer": {"config": {}, "class_name": "Zeros"}, "trainable": true, "beta_regularizer": null, "scale": true, "gamma_constraint": null, "momentum": 0.95, "moving_variance_initializer": {"config": {}, "class_name": "Ones"}}, "name": "conv4_3_1x1_reduce_bn", "class_name": "BatchNormalization"}, {"inbound_nodes": [[["conv4_3_1x1_reduce_bn", 0, 0, {}]]], "config": {"trainable": true, "activation": "relu", "name": "activation_32"}, "name": "activation_32", "class_name": "Activation"}, {"inbound_nodes": [[["activation_32", 0, 0, {}]]], "config": {"data_format": "channels_last", "trainable": true, "name": "zero_padding2d_10", "padding": [[2, 2], [2, 2]]}, "name": "zero_padding2d_10", "class_name": "ZeroPadding2D"}, {"inbound_nodes": [[["zero_padding2d_10", 0, 0, {}]]], "config": {"kernel_size": [3, 3], "use_bias": false, "kernel_regularizer": null, "activity_regularizer": null, "kernel_constraint": null, "padding": "valid", "bias_regularizer": null, "strides": [1, 1], "kernel_initializer": {"config": {"scale": 1.0, "seed": null, "mode": "fan_avg", "distribution": "uniform"}, "class_name": "VarianceScaling"}, "dilation_rate": [2, 2], "trainable": true, "name": "conv4_3_3x3", "filters": 256, "data_format": "channels_last", "bias_initializer": {"config": {}, "class_name": "Zeros"}, "activation": "linear", "bias_constraint": null}, "name": "conv4_3_3x3", "class_name": "Conv2D"}, {"inbound_nodes": [[["conv4_3_3x3", 0, 0, {}]]], "config": {"moving_mean_initializer": {"config": {}, "class_name": "Zeros"}, "center": true, "gamma_regularizer": null, "gamma_initializer": {"config": {}, "class_name": "Ones"}, "beta_constraint": null, "name": "conv4_3_3x3_bn", "axis": -1, "epsilon": 1e-05, "beta_initializer": {"config": {}, "class_name": "Zeros"}, "trainable": true, "beta_regularizer": null, "scale": true, "gamma_constraint": null, "momentum": 0.95, "moving_variance_initializer": {"config": {}, "class_name": "Ones"}}, "name": "conv4_3_3x3_bn", "class_name": "BatchNormalization"}, {"inbound_nodes": [[["conv4_3_3x3_bn", 0, 0, {}]]], "config": {"trainable": true, "activation": "relu", "name": "activation_33"}, "name": "activation_33", "class_name": "Activation"}, {"inbound_nodes": [[["activation_33", 0, 0, {}]]], "config": {"kernel_size": [1, 1], "use_bias": false, "kernel_regularizer": null, "activity_regularizer": null, "kernel_constraint": null, "padding": "valid", "bias_regularizer": null, "strides": [1, 1], "kernel_initializer": {"config": {"scale": 1.0, "seed": null, "mode": "fan_avg", "distribution": "uniform"}, "class_name": "VarianceScaling"}, "dilation_rate": [1, 1], "trainable": true, "name": "conv4_3_1x1_increase", "filters": 1024, "data_format": "channels_last", "bias_initializer": {"config": {}, "class_name": "Zeros"}, "activation": "linear", "bias_constraint": null}, "name": "conv4_3_1x1_increase", "class_name": "Conv2D"}, {"inbound_nodes": [[["conv4_3_1x1_increase", 0, 0, {}]]], "config": {"moving_mean_initializer": {"config": {}, "class_name": "Zeros"}, "center": true, "gamma_regularizer": null, "gamma_initializer": {"config": {}, "class_name": "Ones"}, "beta_constraint": null, "name": "conv4_3_1x1_increase_bn", "axis": -1, "epsilon": 1e-05, "beta_initializer": {"config": {}, "class_name": "Zeros"}, "trainable": true, "beta_regularizer": null, "scale": true, "gamma_constraint": null, "momentum": 0.95, "moving_variance_initializer": {"config": {}, "class_name": "Ones"}}, "name": "conv4_3_1x1_increase_bn", "class_name": "BatchNormalization"}, {"inbound_nodes": [[["conv4_3_1x1_increase_bn", 0, 0, {}], ["activation_31", 0, 0, {}]]], "config": {"trainable": true, "name": "add_10"}, "name": "add_10", "class_name": "Add"}, {"inbound_nodes": [[["add_10", 0, 0, {}]]], "config": {"trainable": true, "activation": "relu", "name": "activation_34"}, "name": "activation_34", "class_name": "Activation"}, {"inbound_nodes": [[["activation_34", 0, 0, {}]]], "config": {"kernel_size": [1, 1], "use_bias": false, "kernel_regularizer": null, "activity_regularizer": null, "kernel_constraint": null, "padding": "valid", "bias_regularizer": null, "strides": [1, 1], "kernel_initializer": {"config": {"scale": 1.0, "seed": null, "mode": "fan_avg", "distribution": "uniform"}, "class_name": "VarianceScaling"}, "dilation_rate": [1, 1], "trainable": true, "name": "conv4_4_1x1_reduce", "filters": 256, "data_format": "channels_last", "bias_initializer": {"config": {}, "class_name": "Zeros"}, "activation": "linear", "bias_constraint": null}, "name": "conv4_4_1x1_reduce", "class_name": "Conv2D"}, {"inbound_nodes": [[["conv4_4_1x1_reduce", 0, 0, {}]]], "config": {"moving_mean_initializer": {"config": {}, "class_name": "Zeros"}, "center": true, "gamma_regularizer": null, "gamma_initializer": {"config": {}, "class_name": "Ones"}, "beta_constraint": null, "name": "conv4_4_1x1_reduce_bn", "axis": -1, "epsilon": 1e-05, "beta_initializer": {"config": {}, "class_name": "Zeros"}, "trainable": true, "beta_regularizer": null, "scale": true, "gamma_constraint": null, "momentum": 0.95, "moving_variance_initializer": {"config": {}, "class_name": "Ones"}}, "name": "conv4_4_1x1_reduce_bn", "class_name": "BatchNormalization"}, {"inbound_nodes": [[["conv4_4_1x1_reduce_bn", 0, 0, {}]]], "config": {"trainable": true, "activation": "relu", "name": "activation_35"}, "name": "activation_35", "class_name": "Activation"}, {"inbound_nodes": [[["activation_35", 0, 0, {}]]], "config": {"data_format": "channels_last", "trainable": true, "name": "zero_padding2d_11", "padding": [[2, 2], [2, 2]]}, "name": "zero_padding2d_11", "class_name": "ZeroPadding2D"}, {"inbound_nodes": [[["zero_padding2d_11", 0, 0, {}]]], "config": {"kernel_size": [3, 3], "use_bias": false, "kernel_regularizer": null, "activity_regularizer": null, "kernel_constraint": null, "padding": "valid", "bias_regularizer": null, "strides": [1, 1], "kernel_initializer": {"config": {"scale": 1.0, "seed": null, "mode": "fan_avg", "distribution": "uniform"}, "class_name": "VarianceScaling"}, "dilation_rate": [2, 2], "trainable": true, "name": "conv4_4_3x3", "filters": 256, "data_format": "channels_last", "bias_initializer": {"config": {}, "class_name": "Zeros"}, "activation": "linear", "bias_constraint": null}, "name": "conv4_4_3x3", "class_name": "Conv2D"}, {"inbound_nodes": [[["conv4_4_3x3", 0, 0, {}]]], "config": {"moving_mean_initializer": {"config": {}, "class_name": "Zeros"}, "center": true, "gamma_regularizer": null, "gamma_initializer": {"config": {}, "class_name": "Ones"}, "beta_constraint": null, "name": "conv4_4_3x3_bn", "axis": -1, "epsilon": 1e-05, "beta_initializer": {"config": {}, "class_name": "Zeros"}, "trainable": true, "beta_regularizer": null, "scale": true, "gamma_constraint": null, "momentum": 0.95, "moving_variance_initializer": {"config": {}, "class_name": "Ones"}}, "name": "conv4_4_3x3_bn", "class_name": "BatchNormalization"}, {"inbound_nodes": [[["conv4_4_3x3_bn", 0, 0, {}]]], "config": {"trainable": true, "activation": "relu", "name": "activation_36"}, "name": "activation_36", "class_name": "Activation"}, {"inbound_nodes": [[["activation_36", 0, 0, {}]]], "config": {"kernel_size": [1, 1], "use_bias": false, "kernel_regularizer": null, "activity_regularizer": null, "kernel_constraint": null, "padding": "valid", "bias_regularizer": null, "strides": [1, 1], "kernel_initializer": {"config": {"scale": 1.0, "seed": null, "mode": "fan_avg", "distribution": "uniform"}, "class_name": "VarianceScaling"}, "dilation_rate": [1, 1], "trainable": true, "name": "conv4_4_1x1_increase", "filters": 1024, "data_format": "channels_last", "bias_initializer": {"config": {}, "class_name": "Zeros"}, "activation": "linear", "bias_constraint": null}, "name": "conv4_4_1x1_increase", "class_name": "Conv2D"}, {"inbound_nodes": [[["conv4_4_1x1_increase", 0, 0, {}]]], "config": {"moving_mean_initializer": {"config": {}, "class_name": "Zeros"}, "center": true, "gamma_regularizer": null, "gamma_initializer": {"config": {}, "class_name": "Ones"}, "beta_constraint": null, "name": "conv4_4_1x1_increase_bn", "axis": -1, "epsilon": 1e-05, "beta_initializer": {"config": {}, "class_name": "Zeros"}, "trainable": true, "beta_regularizer": null, "scale": true, "gamma_constraint": null, "momentum": 0.95, "moving_variance_initializer": {"config": {}, "class_name": "Ones"}}, "name": "conv4_4_1x1_increase_bn", "class_name": "BatchNormalization"}, {"inbound_nodes": [[["conv4_4_1x1_increase_bn", 0, 0, {}], ["activation_34", 0, 0, {}]]], "config": {"trainable": true, "name": "add_11"}, "name": "add_11", "class_name": "Add"}, {"inbound_nodes": [[["add_11", 0, 0, {}]]], "config": {"trainable": true, "activation": "relu", "name": "activation_37"}, "name": "activation_37", "class_name": "Activation"}, {"inbound_nodes": [[["activation_37", 0, 0, {}]]], "config": {"kernel_size": [1, 1], "use_bias": false, "kernel_regularizer": null, "activity_regularizer": null, "kernel_constraint": null, "padding": "valid", "bias_regularizer": null, "strides": [1, 1], "kernel_initializer": {"config": {"scale": 1.0, "seed": null, "mode": "fan_avg", "distribution": "uniform"}, "class_name": "VarianceScaling"}, "dilation_rate": [1, 1], "trainable": true, "name": "conv4_5_1x1_reduce", "filters": 256, "data_format": "channels_last", "bias_initializer": {"config": {}, "class_name": "Zeros"}, "activation": "linear", "bias_constraint": null}, "name": "conv4_5_1x1_reduce", "class_name": "Conv2D"}, {"inbound_nodes": [[["conv4_5_1x1_reduce", 0, 0, {}]]], "config": {"moving_mean_initializer": {"config": {}, "class_name": "Zeros"}, "center": true, "gamma_regularizer": null, "gamma_initializer": {"config": {}, "class_name": "Ones"}, "beta_constraint": null, "name": "conv4_5_1x1_reduce_bn", "axis": -1, "epsilon": 1e-05, "beta_initializer": {"config": {}, "class_name": "Zeros"}, "trainable": true, "beta_regularizer": null, "scale": true, "gamma_constraint": null, "momentum": 0.95, "moving_variance_initializer": {"config": {}, "class_name": "Ones"}}, "name": "conv4_5_1x1_reduce_bn", "class_name": "BatchNormalization"}, {"inbound_nodes": [[["conv4_5_1x1_reduce_bn", 0, 0, {}]]], "config": {"trainable": true, "activation": "relu", "name": "activation_38"}, "name": "activation_38", "class_name": "Activation"}, {"inbound_nodes": [[["activation_38", 0, 0, {}]]], "config": {"data_format": "channels_last", "trainable": true, "name": "zero_padding2d_12", "padding": [[2, 2], [2, 2]]}, "name": "zero_padding2d_12", "class_name": "ZeroPadding2D"}, {"inbound_nodes": [[["zero_padding2d_12", 0, 0, {}]]], "config": {"kernel_size": [3, 3], "use_bias": false, "kernel_regularizer": null, "activity_regularizer": null, "kernel_constraint": null, "padding": "valid", "bias_regularizer": null, "strides": [1, 1], "kernel_initializer": {"config": {"scale": 1.0, "seed": null, "mode": "fan_avg", "distribution": "uniform"}, "class_name": "VarianceScaling"}, "dilation_rate": [2, 2], "trainable": true, "name": "conv4_5_3x3", "filters": 256, "data_format": "channels_last", "bias_initializer": {"config": {}, "class_name": "Zeros"}, "activation": "linear", "bias_constraint": null}, "name": "conv4_5_3x3", "class_name": "Conv2D"}, {"inbound_nodes": [[["conv4_5_3x3", 0, 0, {}]]], "config": {"moving_mean_initializer": {"config": {}, "class_name": "Zeros"}, "center": true, "gamma_regularizer": null, "gamma_initializer": {"config": {}, "class_name": "Ones"}, "beta_constraint": null, "name": "conv4_5_3x3_bn", "axis": -1, "epsilon": 1e-05, "beta_initializer": {"config": {}, "class_name": "Zeros"}, "trainable": true, "beta_regularizer": null, "scale": true, "gamma_constraint": null, "momentum": 0.95, "moving_variance_initializer": {"config": {}, "class_name": "Ones"}}, "name": "conv4_5_3x3_bn", "class_name": "BatchNormalization"}, {"inbound_nodes": [[["conv4_5_3x3_bn", 0, 0, {}]]], "config": {"trainable": true, "activation": "relu", "name": "activation_39"}, "name": "activation_39", "class_name": "Activation"}, {"inbound_nodes": [[["activation_39", 0, 0, {}]]], "config": {"kernel_size": [1, 1], "use_bias": false, "kernel_regularizer": null, "activity_regularizer": null, "kernel_constraint": null, "padding": "valid", "bias_regularizer": null, "strides": [1, 1], "kernel_initializer": {"config": {"scale": 1.0, "seed": null, "mode": "fan_avg", "distribution": "uniform"}, "class_name": "VarianceScaling"}, "dilation_rate": [1, 1], "trainable": true, "name": "conv4_5_1x1_increase", "filters": 1024, "data_format": "channels_last", "bias_initializer": {"config": {}, "class_name": "Zeros"}, "activation": "linear", "bias_constraint": null}, "name": "conv4_5_1x1_increase", "class_name": "Conv2D"}, {"inbound_nodes": [[["conv4_5_1x1_increase", 0, 0, {}]]], "config": {"moving_mean_initializer": {"config": {}, "class_name": "Zeros"}, "center": true, "gamma_regularizer": null, "gamma_initializer": {"config": {}, "class_name": "Ones"}, "beta_constraint": null, "name": "conv4_5_1x1_increase_bn", "axis": -1, "epsilon": 1e-05, "beta_initializer": {"config": {}, "class_name": "Zeros"}, "trainable": true, "beta_regularizer": null, "scale": true, "gamma_constraint": null, "momentum": 0.95, "moving_variance_initializer": {"config": {}, "class_name": "Ones"}}, "name": "conv4_5_1x1_increase_bn", "class_name": "BatchNormalization"}, {"inbound_nodes": [[["conv4_5_1x1_increase_bn", 0, 0, {}], ["activation_37", 0, 0, {}]]], "config": {"trainable": true, "name": "add_12"}, "name": "add_12", "class_name": "Add"}, {"inbound_nodes": [[["add_12", 0, 0, {}]]], "config": {"trainable": true, "activation": "relu", "name": "activation_40"}, "name": "activation_40", "class_name": "Activation"}, {"inbound_nodes": [[["activation_40", 0, 0, {}]]], "config": {"kernel_size": [1, 1], "use_bias": false, "kernel_regularizer": null, "activity_regularizer": null, "kernel_constraint": null, "padding": "valid", "bias_regularizer": null, "strides": [1, 1], "kernel_initializer": {"config": {"scale": 1.0, "seed": null, "mode": "fan_avg", "distribution": "uniform"}, "class_name": "VarianceScaling"}, "dilation_rate": [1, 1], "trainable": true, "name": "conv4_6_1x1_reduce", "filters": 256, "data_format": "channels_last", "bias_initializer": {"config": {}, "class_name": "Zeros"}, "activation": "linear", "bias_constraint": null}, "name": "conv4_6_1x1_reduce", "class_name": "Conv2D"}, {"inbound_nodes": [[["conv4_6_1x1_reduce", 0, 0, {}]]], "config": {"moving_mean_initializer": {"config": {}, "class_name": "Zeros"}, "center": true, "gamma_regularizer": null, "gamma_initializer": {"config": {}, "class_name": "Ones"}, "beta_constraint": null, "name": "conv4_6_1x1_reduce_bn", "axis": -1, "epsilon": 1e-05, "beta_initializer": {"config": {}, "class_name": "Zeros"}, "trainable": true, "beta_regularizer": null, "scale": true, "gamma_constraint": null, "momentum": 0.95, "moving_variance_initializer": {"config": {}, "class_name": "Ones"}}, "name": "conv4_6_1x1_reduce_bn", "class_name": "BatchNormalization"}, {"inbound_nodes": [[["conv4_6_1x1_reduce_bn", 0, 0, {}]]], "config": {"trainable": true, "activation": "relu", "name": "activation_41"}, "name": "activation_41", "class_name": "Activation"}, {"inbound_nodes": [[["activation_41", 0, 0, {}]]], "config": {"data_format": "channels_last", "trainable": true, "name": "zero_padding2d_13", "padding": [[2, 2], [2, 2]]}, "name": "zero_padding2d_13", "class_name": "ZeroPadding2D"}, {"inbound_nodes": [[["zero_padding2d_13", 0, 0, {}]]], "config": {"kernel_size": [3, 3], "use_bias": false, "kernel_regularizer": null, "activity_regularizer": null, "kernel_constraint": null, "padding": "valid", "bias_regularizer": null, "strides": [1, 1], "kernel_initializer": {"config": {"scale": 1.0, "seed": null, "mode": "fan_avg", "distribution": "uniform"}, "class_name": "VarianceScaling"}, "dilation_rate": [2, 2], "trainable": true, "name": "conv4_6_3x3", "filters": 256, "data_format": "channels_last", "bias_initializer": {"config": {}, "class_name": "Zeros"}, "activation": "linear", "bias_constraint": null}, "name": "conv4_6_3x3", "class_name": "Conv2D"}, {"inbound_nodes": [[["conv4_6_3x3", 0, 0, {}]]], "config": {"moving_mean_initializer": {"config": {}, "class_name": "Zeros"}, "center": true, "gamma_regularizer": null, "gamma_initializer": {"config": {}, "class_name": "Ones"}, "beta_constraint": null, "name": "conv4_6_3x3_bn", "axis": -1, "epsilon": 1e-05, "beta_initializer": {"config": {}, "class_name": "Zeros"}, "trainable": true, "beta_regularizer": null, "scale": true, "gamma_constraint": null, "momentum": 0.95, "moving_variance_initializer": {"config": {}, "class_name": "Ones"}}, "name": "conv4_6_3x3_bn", "class_name": "BatchNormalization"}, {"inbound_nodes": [[["conv4_6_3x3_bn", 0, 0, {}]]], "config": {"trainable": true, "activation": "relu", "name": "activation_42"}, "name": "activation_42", "class_name": "Activation"}, {"inbound_nodes": [[["activation_42", 0, 0, {}]]], "config": {"kernel_size": [1, 1], "use_bias": false, "kernel_regularizer": null, "activity_regularizer": null, "kernel_constraint": null, "padding": "valid", "bias_regularizer": null, "strides": [1, 1], "kernel_initializer": {"config": {"scale": 1.0, "seed": null, "mode": "fan_avg", "distribution": "uniform"}, "class_name": "VarianceScaling"}, "dilation_rate": [1, 1], "trainable": true, "name": "conv4_6_1x1_increase", "filters": 1024, "data_format": "channels_last", "bias_initializer": {"config": {}, "class_name": "Zeros"}, "activation": "linear", "bias_constraint": null}, "name": "conv4_6_1x1_increase", "class_name": "Conv2D"}, {"inbound_nodes": [[["conv4_6_1x1_increase", 0, 0, {}]]], "config": {"moving_mean_initializer": {"config": {}, "class_name": "Zeros"}, "center": true, "gamma_regularizer": null, "gamma_initializer": {"config": {}, "class_name": "Ones"}, "beta_constraint": null, "name": "conv4_6_1x1_increase_bn", "axis": -1, "epsilon": 1e-05, "beta_initializer": {"config": {}, "class_name": "Zeros"}, "trainable": true, "beta_regularizer": null, "scale": true, "gamma_constraint": null, "momentum": 0.95, "moving_variance_initializer": {"config": {}, "class_name": "Ones"}}, "name": "conv4_6_1x1_increase_bn", "class_name": "BatchNormalization"}, {"inbound_nodes": [[["conv4_6_1x1_increase_bn", 0, 0, {}], ["activation_40", 0, 0, {}]]], "config": {"trainable": true, "name": "add_13"}, "name": "add_13", "class_name": "Add"}, {"inbound_nodes": [[["add_13", 0, 0, {}]]], "config": {"trainable": true, "activation": "relu", "name": "activation_43"}, "name": "activation_43", "class_name": "Activation"}, {"inbound_nodes": [[["activation_43", 0, 0, {}]]], "config": {"kernel_size": [1, 1], "use_bias": false, "kernel_regularizer": null, "activity_regularizer": null, "kernel_constraint": null, "padding": "valid", "bias_regularizer": null, "strides": [1, 1], "kernel_initializer": {"config": {"scale": 1.0, "seed": null, "mode": "fan_avg", "distribution": "uniform"}, "class_name": "VarianceScaling"}, "dilation_rate": [1, 1], "trainable": true, "name": "conv5_1_1x1_reduce", "filters": 512, "data_format": "channels_last", "bias_initializer": {"config": {}, "class_name": "Zeros"}, "activation": "linear", "bias_constraint": null}, "name": "conv5_1_1x1_reduce", "class_name": "Conv2D"}, {"inbound_nodes": [[["conv5_1_1x1_reduce", 0, 0, {}]]], "config": {"moving_mean_initializer": {"config": {}, "class_name": "Zeros"}, "center": true, "gamma_regularizer": null, "gamma_initializer": {"config": {}, "class_name": "Ones"}, "beta_constraint": null, "name": "conv5_1_1x1_reduce_bn", "axis": -1, "epsilon": 1e-05, "beta_initializer": {"config": {}, "class_name": "Zeros"}, "trainable": true, "beta_regularizer": null, "scale": true, "gamma_constraint": null, "momentum": 0.95, "moving_variance_initializer": {"config": {}, "class_name": "Ones"}}, "name": "conv5_1_1x1_reduce_bn", "class_name": "BatchNormalization"}, {"inbound_nodes": [[["conv5_1_1x1_reduce_bn", 0, 0, {}]]], "config": {"trainable": true, "activation": "relu", "name": "activation_44"}, "name": "activation_44", "class_name": "Activation"}, {"inbound_nodes": [[["activation_44", 0, 0, {}]]], "config": {"data_format": "channels_last", "trainable": true, "name": "zero_padding2d_14", "padding": [[4, 4], [4, 4]]}, "name": "zero_padding2d_14", "class_name": "ZeroPadding2D"}, {"inbound_nodes": [[["zero_padding2d_14", 0, 0, {}]]], "config": {"kernel_size": [3, 3], "use_bias": false, "kernel_regularizer": null, "activity_regularizer": null, "kernel_constraint": null, "padding": "valid", "bias_regularizer": null, "strides": [1, 1], "kernel_initializer": {"config": {"scale": 1.0, "seed": null, "mode": "fan_avg", "distribution": "uniform"}, "class_name": "VarianceScaling"}, "dilation_rate": [4, 4], "trainable": true, "name": "conv5_1_3x3", "filters": 512, "data_format": "channels_last", "bias_initializer": {"config": {}, "class_name": "Zeros"}, "activation": "linear", "bias_constraint": null}, "name": "conv5_1_3x3", "class_name": "Conv2D"}, {"inbound_nodes": [[["conv5_1_3x3", 0, 0, {}]]], "config": {"moving_mean_initializer": {"config": {}, "class_name": "Zeros"}, "center": true, "gamma_regularizer": null, "gamma_initializer": {"config": {}, "class_name": "Ones"}, "beta_constraint": null, "name": "conv5_1_3x3_bn", "axis": -1, "epsilon": 1e-05, "beta_initializer": {"config": {}, "class_name": "Zeros"}, "trainable": true, "beta_regularizer": null, "scale": true, "gamma_constraint": null, "momentum": 0.95, "moving_variance_initializer": {"config": {}, "class_name": "Ones"}}, "name": "conv5_1_3x3_bn", "class_name": "BatchNormalization"}, {"inbound_nodes": [[["conv5_1_3x3_bn", 0, 0, {}]]], "config": {"trainable": true, "activation": "relu", "name": "activation_45"}, "name": "activation_45", "class_name": "Activation"}, {"inbound_nodes": [[["activation_45", 0, 0, {}]]], "config": {"kernel_size": [1, 1], "use_bias": false, "kernel_regularizer": null, "activity_regularizer": null, "kernel_constraint": null, "padding": "valid", "bias_regularizer": null, "strides": [1, 1], "kernel_initializer": {"config": {"scale": 1.0, "seed": null, "mode": "fan_avg", "distribution": "uniform"}, "class_name": "VarianceScaling"}, "dilation_rate": [1, 1], "trainable": true, "name": "conv5_1_1x1_increase", "filters": 2048, "data_format": "channels_last", "bias_initializer": {"config": {}, "class_name": "Zeros"}, "activation": "linear", "bias_constraint": null}, "name": "conv5_1_1x1_increase", "class_name": "Conv2D"}, {"inbound_nodes": [[["activation_43", 0, 0, {}]]], "config": {"kernel_size": [1, 1], "use_bias": false, "kernel_regularizer": null, "activity_regularizer": null, "kernel_constraint": null, "padding": "valid", "bias_regularizer": null, "strides": [1, 1], "kernel_initializer": {"config": {"scale": 1.0, "seed": null, "mode": "fan_avg", "distribution": "uniform"}, "class_name": "VarianceScaling"}, "dilation_rate": [1, 1], "trainable": true, "name": "conv5_1_1x1_proj", "filters": 2048, "data_format": "channels_last", "bias_initializer": {"config": {}, "class_name": "Zeros"}, "activation": "linear", "bias_constraint": null}, "name": "conv5_1_1x1_proj", "class_name": "Conv2D"}, {"inbound_nodes": [[["conv5_1_1x1_increase", 0, 0, {}]]], "config": {"moving_mean_initializer": {"config": {}, "class_name": "Zeros"}, "center": true, "gamma_regularizer": null, "gamma_initializer": {"config": {}, "class_name": "Ones"}, "beta_constraint": null, "name": "conv5_1_1x1_increase_bn", "axis": -1, "epsilon": 1e-05, "beta_initializer": {"config": {}, "class_name": "Zeros"}, "trainable": true, "beta_regularizer": null, "scale": true, "gamma_constraint": null, "momentum": 0.95, "moving_variance_initializer": {"config": {}, "class_name": "Ones"}}, "name": "conv5_1_1x1_increase_bn", "class_name": "BatchNormalization"}, {"inbound_nodes": [[["conv5_1_1x1_proj", 0, 0, {}]]], "config": {"moving_mean_initializer": {"config": {}, "class_name": "Zeros"}, "center": true, "gamma_regularizer": null, "gamma_initializer": {"config": {}, "class_name": "Ones"}, "beta_constraint": null, "name": "conv5_1_1x1_proj_bn", "axis": -1, "epsilon": 1e-05, "beta_initializer": {"config": {}, "class_name": "Zeros"}, "trainable": true, "beta_regularizer": null, "scale": true, "gamma_constraint": null, "momentum": 0.95, "moving_variance_initializer": {"config": {}, "class_name": "Ones"}}, "name": "conv5_1_1x1_proj_bn", "class_name": "BatchNormalization"}, {"inbound_nodes": [[["conv5_1_1x1_increase_bn", 0, 0, {}], ["conv5_1_1x1_proj_bn", 0, 0, {}]]], "config": {"trainable": true, "name": "add_14"}, "name": "add_14", "class_name": "Add"}, {"inbound_nodes": [[["add_14", 0, 0, {}]]], "config": {"trainable": true, "activation": "relu", "name": "activation_46"}, "name": "activation_46", "class_name": "Activation"}, {"inbound_nodes": [[["activation_46", 0, 0, {}]]], "config": {"kernel_size": [1, 1], "use_bias": false, "kernel_regularizer": null, "activity_regularizer": null, "kernel_constraint": null, "padding": "valid", "bias_regularizer": null, "strides": [1, 1], "kernel_initializer": {"config": {"scale": 1.0, "seed": null, "mode": "fan_avg", "distribution": "uniform"}, "class_name": "VarianceScaling"}, "dilation_rate": [1, 1], "trainable": true, "name": "conv5_2_1x1_reduce", "filters": 512, "data_format": "channels_last", "bias_initializer": {"config": {}, "class_name": "Zeros"}, "activation": "linear", "bias_constraint": null}, "name": "conv5_2_1x1_reduce", "class_name": "Conv2D"}, {"inbound_nodes": [[["conv5_2_1x1_reduce", 0, 0, {}]]], "config": {"moving_mean_initializer": {"config": {}, "class_name": "Zeros"}, "center": true, "gamma_regularizer": null, "gamma_initializer": {"config": {}, "class_name": "Ones"}, "beta_constraint": null, "name": "conv5_2_1x1_reduce_bn", "axis": -1, "epsilon": 1e-05, "beta_initializer": {"config": {}, "class_name": "Zeros"}, "trainable": true, "beta_regularizer": null, "scale": true, "gamma_constraint": null, "momentum": 0.95, "moving_variance_initializer": {"config": {}, "class_name": "Ones"}}, "name": "conv5_2_1x1_reduce_bn", "class_name": "BatchNormalization"}, {"inbound_nodes": [[["conv5_2_1x1_reduce_bn", 0, 0, {}]]], "config": {"trainable": true, "activation": "relu", "name": "activation_47"}, "name": "activation_47", "class_name": "Activation"}, {"inbound_nodes": [[["activation_47", 0, 0, {}]]], "config": {"data_format": "channels_last", "trainable": true, "name": "zero_padding2d_15", "padding": [[4, 4], [4, 4]]}, "name": "zero_padding2d_15", "class_name": "ZeroPadding2D"}, {"inbound_nodes": [[["zero_padding2d_15", 0, 0, {}]]], "config": {"kernel_size": [3, 3], "use_bias": false, "kernel_regularizer": null, "activity_regularizer": null, "kernel_constraint": null, "padding": "valid", "bias_regularizer": null, "strides": [1, 1], "kernel_initializer": {"config": {"scale": 1.0, "seed": null, "mode": "fan_avg", "distribution": "uniform"}, "class_name": "VarianceScaling"}, "dilation_rate": [4, 4], "trainable": true, "name": "conv5_2_3x3", "filters": 512, "data_format": "channels_last", "bias_initializer": {"config": {}, "class_name": "Zeros"}, "activation": "linear", "bias_constraint": null}, "name": "conv5_2_3x3", "class_name": "Conv2D"}, {"inbound_nodes": [[["conv5_2_3x3", 0, 0, {}]]], "config": {"moving_mean_initializer": {"config": {}, "class_name": "Zeros"}, "center": true, "gamma_regularizer": null, "gamma_initializer": {"config": {}, "class_name": "Ones"}, "beta_constraint": null, "name": "conv5_2_3x3_bn", "axis": -1, "epsilon": 1e-05, "beta_initializer": {"config": {}, "class_name": "Zeros"}, "trainable": true, "beta_regularizer": null, "scale": true, "gamma_constraint": null, "momentum": 0.95, "moving_variance_initializer": {"config": {}, "class_name": "Ones"}}, "name": "conv5_2_3x3_bn", "class_name": "BatchNormalization"}, {"inbound_nodes": [[["conv5_2_3x3_bn", 0, 0, {}]]], "config": {"trainable": true, "activation": "relu", "name": "activation_48"}, "name": "activation_48", "class_name": "Activation"}, {"inbound_nodes": [[["activation_48", 0, 0, {}]]], "config": {"kernel_size": [1, 1], "use_bias": false, "kernel_regularizer": null, "activity_regularizer": null, "kernel_constraint": null, "padding": "valid", "bias_regularizer": null, "strides": [1, 1], "kernel_initializer": {"config": {"scale": 1.0, "seed": null, "mode": "fan_avg", "distribution": "uniform"}, "class_name": "VarianceScaling"}, "dilation_rate": [1, 1], "trainable": true, "name": "conv5_2_1x1_increase", "filters": 2048, "data_format": "channels_last", "bias_initializer": {"config": {}, "class_name": "Zeros"}, "activation": "linear", "bias_constraint": null}, "name": "conv5_2_1x1_increase", "class_name": "Conv2D"}, {"inbound_nodes": [[["conv5_2_1x1_increase", 0, 0, {}]]], "config": {"moving_mean_initializer": {"config": {}, "class_name": "Zeros"}, "center": true, "gamma_regularizer": null, "gamma_initializer": {"config": {}, "class_name": "Ones"}, "beta_constraint": null, "name": "conv5_2_1x1_increase_bn", "axis": -1, "epsilon": 1e-05, "beta_initializer": {"config": {}, "class_name": "Zeros"}, "trainable": true, "beta_regularizer": null, "scale": true, "gamma_constraint": null, "momentum": 0.95, "moving_variance_initializer": {"config": {}, "class_name": "Ones"}}, "name": "conv5_2_1x1_increase_bn", "class_name": "BatchNormalization"}, {"inbound_nodes": [[["conv5_2_1x1_increase_bn", 0, 0, {}], ["activation_46", 0, 0, {}]]], "config": {"trainable": true, "name": "add_15"}, "name": "add_15", "class_name": "Add"}, {"inbound_nodes": [[["add_15", 0, 0, {}]]], "config": {"trainable": true, "activation": "relu", "name": "activation_49"}, "name": "activation_49", "class_name": "Activation"}, {"inbound_nodes": [[["activation_49", 0, 0, {}]]], "config": {"kernel_size": [1, 1], "use_bias": false, "kernel_regularizer": null, "activity_regularizer": null, "kernel_constraint": null, "padding": "valid", "bias_regularizer": null, "strides": [1, 1], "kernel_initializer": {"config": {"scale": 1.0, "seed": null, "mode": "fan_avg", "distribution": "uniform"}, "class_name": "VarianceScaling"}, "dilation_rate": [1, 1], "trainable": true, "name": "conv5_3_1x1_reduce", "filters": 512, "data_format": "channels_last", "bias_initializer": {"config": {}, "class_name": "Zeros"}, "activation": "linear", "bias_constraint": null}, "name": "conv5_3_1x1_reduce", "class_name": "Conv2D"}, {"inbound_nodes": [[["conv5_3_1x1_reduce", 0, 0, {}]]], "config": {"moving_mean_initializer": {"config": {}, "class_name": "Zeros"}, "center": true, "gamma_regularizer": null, "gamma_initializer": {"config": {}, "class_name": "Ones"}, "beta_constraint": null, "name": "conv5_3_1x1_reduce_bn", "axis": -1, "epsilon": 1e-05, "beta_initializer": {"config": {}, "class_name": "Zeros"}, "trainable": true, "beta_regularizer": null, "scale": true, "gamma_constraint": null, "momentum": 0.95, "moving_variance_initializer": {"config": {}, "class_name": "Ones"}}, "name": "conv5_3_1x1_reduce_bn", "class_name": "BatchNormalization"}, {"inbound_nodes": [[["conv5_3_1x1_reduce_bn", 0, 0, {}]]], "config": {"trainable": true, "activation": "relu", "name": "activation_50"}, "name": "activation_50", "class_name": "Activation"}, {"inbound_nodes": [[["activation_50", 0, 0, {}]]], "config": {"data_format": "channels_last", "trainable": true, "name": "zero_padding2d_16", "padding": [[4, 4], [4, 4]]}, "name": "zero_padding2d_16", "class_name": "ZeroPadding2D"}, {"inbound_nodes": [[["zero_padding2d_16", 0, 0, {}]]], "config": {"kernel_size": [3, 3], "use_bias": false, "kernel_regularizer": null, "activity_regularizer": null, "kernel_constraint": null, "padding": "valid", "bias_regularizer": null, "strides": [1, 1], "kernel_initializer": {"config": {"scale": 1.0, "seed": null, "mode": "fan_avg", "distribution": "uniform"}, "class_name": "VarianceScaling"}, "dilation_rate": [4, 4], "trainable": true, "name": "conv5_3_3x3", "filters": 512, "data_format": "channels_last", "bias_initializer": {"config": {}, "class_name": "Zeros"}, "activation": "linear", "bias_constraint": null}, "name": "conv5_3_3x3", "class_name": "Conv2D"}, {"inbound_nodes": [[["conv5_3_3x3", 0, 0, {}]]], "config": {"moving_mean_initializer": {"config": {}, "class_name": "Zeros"}, "center": true, "gamma_regularizer": null, "gamma_initializer": {"config": {}, "class_name": "Ones"}, "beta_constraint": null, "name": "conv5_3_3x3_bn", "axis": -1, "epsilon": 1e-05, "beta_initializer": {"config": {}, "class_name": "Zeros"}, "trainable": true, "beta_regularizer": null, "scale": true, "gamma_constraint": null, "momentum": 0.95, "moving_variance_initializer": {"config": {}, "class_name": "Ones"}}, "name": "conv5_3_3x3_bn", "class_name": "BatchNormalization"}, {"inbound_nodes": [[["conv5_3_3x3_bn", 0, 0, {}]]], "config": {"trainable": true, "activation": "relu", "name": "activation_51"}, "name": "activation_51", "class_name": "Activation"}, {"inbound_nodes": [[["activation_51", 0, 0, {}]]], "config": {"kernel_size": [1, 1], "use_bias": false, "kernel_regularizer": null, "activity_regularizer": null, "kernel_constraint": null, "padding": "valid", "bias_regularizer": null, "strides": [1, 1], "kernel_initializer": {"config": {"scale": 1.0, "seed": null, "mode": "fan_avg", "distribution": "uniform"}, "class_name": "VarianceScaling"}, "dilation_rate": [1, 1], "trainable": true, "name": "conv5_3_1x1_increase", "filters": 2048, "data_format": "channels_last", "bias_initializer": {"config": {}, "class_name": "Zeros"}, "activation": "linear", "bias_constraint": null}, "name": "conv5_3_1x1_increase", "class_name": "Conv2D"}, {"inbound_nodes": [[["conv5_3_1x1_increase", 0, 0, {}]]], "config": {"moving_mean_initializer": {"config": {}, "class_name": "Zeros"}, "center": true, "gamma_regularizer": null, "gamma_initializer": {"config": {}, "class_name": "Ones"}, "beta_constraint": null, "name": "conv5_3_1x1_increase_bn", "axis": -1, "epsilon": 1e-05, "beta_initializer": {"config": {}, "class_name": "Zeros"}, "trainable": true, "beta_regularizer": null, "scale": true, "gamma_constraint": null, "momentum": 0.95, "moving_variance_initializer": {"config": {}, "class_name": "Ones"}}, "name": "conv5_3_1x1_increase_bn", "class_name": "BatchNormalization"}, {"inbound_nodes": [[["conv5_3_1x1_increase_bn", 0, 0, {}], ["activation_49", 0, 0, {}]]], "config": {"trainable": true, "name": "add_16"}, "name": "add_16", "class_name": "Add"}, {"inbound_nodes": [[["add_16", 0, 0, {}]]], "config": {"trainable": true, "activation": "relu", "name": "activation_52"}, "name": "activation_52", "class_name": "Activation"}, {"inbound_nodes": [[["activation_52", 0, 0, {}]]], "config": {"strides": [10, 10], "trainable": true, "name": "average_pooling2d_4", "data_format": "channels_last", "pool_size": [10, 10], "padding": "valid"}, "name": "average_pooling2d_4", "class_name": "AveragePooling2D"}, {"inbound_nodes": [[["activation_52", 0, 0, {}]]], "config": {"strides": [20, 20], "trainable": true, "name": "average_pooling2d_3", "data_format": "channels_last", "pool_size": [20, 20], "padding": "valid"}, "name": "average_pooling2d_3", "class_name": "AveragePooling2D"}, {"inbound_nodes": [[["activation_52", 0, 0, {}]]], "config": {"strides": [30, 30], "trainable": true, "name": "average_pooling2d_2", "data_format": "channels_last", "pool_size": [30, 30], "padding": "valid"}, "name": "average_pooling2d_2", "class_name": "AveragePooling2D"}, {"inbound_nodes": [[["activation_52", 0, 0, {}]]], "config": {"strides": [60, 60], "trainable": true, "name": "average_pooling2d_1", "data_format": "channels_last", "pool_size": [60, 60], "padding": "valid"}, "name": "average_pooling2d_1", "class_name": "AveragePooling2D"}, {"inbound_nodes": [[["average_pooling2d_4", 0, 0, {}]]], "config": {"kernel_size": [1, 1], "use_bias": false, "kernel_regularizer": null, "activity_regularizer": null, "kernel_constraint": null, "padding": "valid", "bias_regularizer": null, "strides": [1, 1], "kernel_initializer": {"config": {"scale": 1.0, "seed": null, "mode": "fan_avg", "distribution": "uniform"}, "class_name": "VarianceScaling"}, "dilation_rate": [1, 1], "trainable": true, "name": "conv5_3_pool6_conv", "filters": 512, "data_format": "channels_last", "bias_initializer": {"config": {}, "class_name": "Zeros"}, "activation": "linear", "bias_constraint": null}, "name": "conv5_3_pool6_conv", "class_name": "Conv2D"}, {"inbound_nodes": [[["average_pooling2d_3", 0, 0, {}]]], "config": {"kernel_size": [1, 1], "use_bias": false, "kernel_regularizer": null, "activity_regularizer": null, "kernel_constraint": null, "padding": "valid", "bias_regularizer": null, "strides": [1, 1], "kernel_initializer": {"config": {"scale": 1.0, "seed": null, "mode": "fan_avg", "distribution": "uniform"}, "class_name": "VarianceScaling"}, "dilation_rate": [1, 1], "trainable": true, "name": "conv5_3_pool3_conv", "filters": 512, "data_format": "channels_last", "bias_initializer": {"config": {}, "class_name": "Zeros"}, "activation": "linear", "bias_constraint": null}, "name": "conv5_3_pool3_conv", "class_name": "Conv2D"}, {"inbound_nodes": [[["average_pooling2d_2", 0, 0, {}]]], "config": {"kernel_size": [1, 1], "use_bias": false, "kernel_regularizer": null, "activity_regularizer": null, "kernel_constraint": null, "padding": "valid", "bias_regularizer": null, "strides": [1, 1], "kernel_initializer": {"config": {"scale": 1.0, "seed": null, "mode": "fan_avg", "distribution": "uniform"}, "class_name": "VarianceScaling"}, "dilation_rate": [1, 1], "trainable": true, "name": "conv5_3_pool2_conv", "filters": 512, "data_format": "channels_last", "bias_initializer": {"config": {}, "class_name": "Zeros"}, "activation": "linear", "bias_constraint": null}, "name": "conv5_3_pool2_conv", "class_name": "Conv2D"}, {"inbound_nodes": [[["average_pooling2d_1", 0, 0, {}]]], "config": {"kernel_size": [1, 1], "use_bias": false, "kernel_regularizer": null, "activity_regularizer": null, "kernel_constraint": null, "padding": "valid", "bias_regularizer": null, "strides": [1, 1], "kernel_initializer": {"config": {"scale": 1.0, "seed": null, "mode": "fan_avg", "distribution": "uniform"}, "class_name": "VarianceScaling"}, "dilation_rate": [1, 1], "trainable": true, "name": "conv5_3_pool1_conv", "filters": 512, "data_format": "channels_last", "bias_initializer": {"config": {}, "class_name": "Zeros"}, "activation": "linear", "bias_constraint": null}, "name": "conv5_3_pool1_conv", "class_name": "Conv2D"}, {"inbound_nodes": [[["conv5_3_pool6_conv", 0, 0, {}]]], "config": {"moving_mean_initializer": {"config": {}, "class_name": "Zeros"}, "center": true, "gamma_regularizer": null, "gamma_initializer": {"config": {}, "class_name": "Ones"}, "beta_constraint": null, "name": "conv5_3_pool6_conv_bn", "axis": -1, "epsilon": 1e-05, "beta_initializer": {"config": {}, "class_name": "Zeros"}, "trainable": true, "beta_regularizer": null, "scale": true, "gamma_constraint": null, "momentum": 0.95, "moving_variance_initializer": {"config": {}, "class_name": "Ones"}}, "name": "conv5_3_pool6_conv_bn", "class_name": "BatchNormalization"}, {"inbound_nodes": [[["conv5_3_pool3_conv", 0, 0, {}]]], "config": {"moving_mean_initializer": {"config": {}, "class_name": "Zeros"}, "center": true, "gamma_regularizer": null, "gamma_initializer": {"config": {}, "class_name": "Ones"}, "beta_constraint": null, "name": "conv5_3_pool3_conv_bn", "axis": -1, "epsilon": 1e-05, "beta_initializer": {"config": {}, "class_name": "Zeros"}, "trainable": true, "beta_regularizer": null, "scale": true, "gamma_constraint": null, "momentum": 0.95, "moving_variance_initializer": {"config": {}, "class_name": "Ones"}}, "name": "conv5_3_pool3_conv_bn", "class_name": "BatchNormalization"}, {"inbound_nodes": [[["conv5_3_pool2_conv", 0, 0, {}]]], "config": {"moving_mean_initializer": {"config": {}, "class_name": "Zeros"}, "center": true, "gamma_regularizer": null, "gamma_initializer": {"config": {}, "class_name": "Ones"}, "beta_constraint": null, "name": "conv5_3_pool2_conv_bn", "axis": -1, "epsilon": 1e-05, "beta_initializer": {"config": {}, "class_name": "Zeros"}, "trainable": true, "beta_regularizer": null, "scale": true, "gamma_constraint": null, "momentum": 0.95, "moving_variance_initializer": {"config": {}, "class_name": "Ones"}}, "name": "conv5_3_pool2_conv_bn", "class_name": "BatchNormalization"}, {"inbound_nodes": [[["conv5_3_pool1_conv", 0, 0, {}]]], "config": {"moving_mean_initializer": {"config": {}, "class_name": "Zeros"}, "center": true, "gamma_regularizer": null, "gamma_initializer": {"config": {}, "class_name": "Ones"}, "beta_constraint": null, "name": "conv5_3_pool1_conv_bn", "axis": -1, "epsilon": 1e-05, "beta_initializer": {"config": {}, "class_name": "Zeros"}, "trainable": true, "beta_regularizer": null, "scale": true, "gamma_constraint": null, "momentum": 0.95, "moving_variance_initializer": {"config": {}, "class_name": "Ones"}}, "name": "conv5_3_pool1_conv_bn", "class_name": "BatchNormalization"}, {"inbound_nodes": [[["conv5_3_pool6_conv_bn", 0, 0, {}]]], "config": {"trainable": true, "activation": "relu", "name": "activation_56"}, "name": "activation_56", "class_name": "Activation"}, {"inbound_nodes": [[["conv5_3_pool3_conv_bn", 0, 0, {}]]], "config": {"trainable": true, "activation": "relu", "name": "activation_55"}, "name": "activation_55", "class_name": "Activation"}, {"inbound_nodes": [[["conv5_3_pool2_conv_bn", 0, 0, {}]]], "config": {"trainable": true, "activation": "relu", "name": "activation_54"}, "name": "activation_54", "class_name": "Activation"}, {"inbound_nodes": [[["conv5_3_pool1_conv_bn", 0, 0, {}]]], "config": {"trainable": true, "activation": "relu", "name": "activation_53"}, "name": "activation_53", "class_name": "Activation"}, {"inbound_nodes": [[["activation_56", 0, 0, {}]]], "config": {"function_type": "lambda", "function": ["4wIAAAAAAAAABgAAAAUAAABDAAAAc0EAAABkAQBkAgBsAABtAQB9AgABfAEAXAIAfQMAfQQAfAIA\nagIAagMAfAAAfAMAfAQAZwIAZAMAZAQAgwIBfQUAfAUAUykFTukAAAAAKQHaAnRm2g1hbGlnbl9j\nb3JuZXJzVCkEWg1rZXJhcy5iYWNrZW5kcgIAAADaBWltYWdl2g1yZXNpemVfaW1hZ2VzKQbaAXja\nBXNoYXBlWgNrdGZaCm5ld19oZWlnaHRaCW5ld193aWR0aNoHcmVzaXplZKkAcgkAAAD6bi9tZWRp\nYS9kZWVwYW5rL0YwNTI2OTUxNTI2OTFFMUEvTWFjaGluZV9iYXNlZF91bmRlcnN0YW5kaW5nX2F1\nZGlvdmlzdWFsL3Zpc3VhbF9kYXRhX2FuYWx5c2lzL2xheWVyc19idWlsZGVyLnB52gZJbnRlcnAR\nAAAAcwoAAAAAARABDAEYAQkB\n", null, null], "trainable": true, "output_shape": null, "arguments": {"shape": [60, 60]}, "name": "lambda_4", "output_shape_type": "raw"}, "name": "lambda_4", "class_name": "Lambda"}, {"inbound_nodes": [[["activation_55", 0, 0, {}]]], "config": {"function_type": "lambda", "function": ["4wIAAAAAAAAABgAAAAUAAABDAAAAc0EAAABkAQBkAgBsAABtAQB9AgABfAEAXAIAfQMAfQQAfAIA\nagIAagMAfAAAfAMAfAQAZwIAZAMAZAQAgwIBfQUAfAUAUykFTukAAAAAKQHaAnRm2g1hbGlnbl9j\nb3JuZXJzVCkEWg1rZXJhcy5iYWNrZW5kcgIAAADaBWltYWdl2g1yZXNpemVfaW1hZ2VzKQbaAXja\nBXNoYXBlWgNrdGZaCm5ld19oZWlnaHRaCW5ld193aWR0aNoHcmVzaXplZKkAcgkAAAD6bi9tZWRp\nYS9kZWVwYW5rL0YwNTI2OTUxNTI2OTFFMUEvTWFjaGluZV9iYXNlZF91bmRlcnN0YW5kaW5nX2F1\nZGlvdmlzdWFsL3Zpc3VhbF9kYXRhX2FuYWx5c2lzL2xheWVyc19idWlsZGVyLnB52gZJbnRlcnAR\nAAAAcwoAAAAAARABDAEYAQkB\n", null, null], "trainable": true, "output_shape": null, "arguments": {"shape": [60, 60]}, "name": "lambda_3", "output_shape_type": "raw"}, "name": "lambda_3", "class_name": "Lambda"}, {"inbound_nodes": [[["activation_54", 0, 0, {}]]], "config": {"function_type": "lambda", "function": ["4wIAAAAAAAAABgAAAAUAAABDAAAAc0EAAABkAQBkAgBsAABtAQB9AgABfAEAXAIAfQMAfQQAfAIA\nagIAagMAfAAAfAMAfAQAZwIAZAMAZAQAgwIBfQUAfAUAUykFTukAAAAAKQHaAnRm2g1hbGlnbl9j\nb3JuZXJzVCkEWg1rZXJhcy5iYWNrZW5kcgIAAADaBWltYWdl2g1yZXNpemVfaW1hZ2VzKQbaAXja\nBXNoYXBlWgNrdGZaCm5ld19oZWlnaHRaCW5ld193aWR0aNoHcmVzaXplZKkAcgkAAAD6bi9tZWRp\nYS9kZWVwYW5rL0YwNTI2OTUxNTI2OTFFMUEvTWFjaGluZV9iYXNlZF91bmRlcnN0YW5kaW5nX2F1\nZGlvdmlzdWFsL3Zpc3VhbF9kYXRhX2FuYWx5c2lzL2xheWVyc19idWlsZGVyLnB52gZJbnRlcnAR\nAAAAcwoAAAAAARABDAEYAQkB\n", null, null], "trainable": true, "output_shape": null, "arguments": {"shape": [60, 60]}, "name": "lambda_2", "output_shape_type": "raw"}, "name": "lambda_2", "class_name": "Lambda"}, {"inbound_nodes": [[["activation_53", 0, 0, {}]]], "config": {"function_type": "lambda", "function": ["4wIAAAAAAAAABgAAAAUAAABDAAAAc0EAAABkAQBkAgBsAABtAQB9AgABfAEAXAIAfQMAfQQAfAIA\nagIAagMAfAAAfAMAfAQAZwIAZAMAZAQAgwIBfQUAfAUAUykFTukAAAAAKQHaAnRm2g1hbGlnbl9j\nb3JuZXJzVCkEWg1rZXJhcy5iYWNrZW5kcgIAAADaBWltYWdl2g1yZXNpemVfaW1hZ2VzKQbaAXja\nBXNoYXBlWgNrdGZaCm5ld19oZWlnaHRaCW5ld193aWR0aNoHcmVzaXplZKkAcgkAAAD6bi9tZWRp\nYS9kZWVwYW5rL0YwNTI2OTUxNTI2OTFFMUEvTWFjaGluZV9iYXNlZF91bmRlcnN0YW5kaW5nX2F1\nZGlvdmlzdWFsL3Zpc3VhbF9kYXRhX2FuYWx5c2lzL2xheWVyc19idWlsZGVyLnB52gZJbnRlcnAR\nAAAAcwoAAAAAARABDAEYAQkB\n", null, null], "trainable": true, "output_shape": null, "arguments": {"shape": [60, 60]}, "name": "lambda_1", "output_shape_type": "raw"}, "name": "lambda_1", "class_name": "Lambda"}, {"inbound_nodes": [[["activation_52", 0, 0, {}], ["lambda_4", 0, 0, {}], ["lambda_3", 0, 0, {}], ["lambda_2", 0, 0, {}], ["lambda_1", 0, 0, {}]]], "config": {"trainable": true, "name": "concatenate_1", "axis": -1}, "name": "concatenate_1", "class_name": "Concatenate"}, {"inbound_nodes": [[["concatenate_1", 0, 0, {}]]], "config": {"kernel_size": [3, 3], "use_bias": false, "kernel_regularizer": null, "activity_regularizer": null, "kernel_constraint": null, "padding": "same", "bias_regularizer": null, "strides": [1, 1], "kernel_initializer": {"config": {"scale": 1.0, "seed": null, "mode": "fan_avg", "distribution": "uniform"}, "class_name": "VarianceScaling"}, "dilation_rate": [1, 1], "trainable": true, "name": "conv5_4", "filters": 512, "data_format": "channels_last", "bias_initializer": {"config": {}, "class_name": "Zeros"}, "activation": "linear", "bias_constraint": null}, "name": "conv5_4", "class_name": "Conv2D"}, {"inbound_nodes": [[["conv5_4", 0, 0, {}]]], "config": {"moving_mean_initializer": {"config": {}, "class_name": "Zeros"}, "center": true, "gamma_regularizer": null, "gamma_initializer": {"config": {}, "class_name": "Ones"}, "beta_constraint": null, "name": "conv5_4_bn", "axis": -1, "epsilon": 1e-05, "beta_initializer": {"config": {}, "class_name": "Zeros"}, "trainable": true, "beta_regularizer": null, "scale": true, "gamma_constraint": null, "momentum": 0.95, "moving_variance_initializer": {"config": {}, "class_name": "Ones"}}, "name": "conv5_4_bn", "class_name": "BatchNormalization"}, {"inbound_nodes": [[["conv5_4_bn", 0, 0, {}]]], "config": {"trainable": true, "activation": "relu", "name": "activation_57"}, "name": "activation_57", "class_name": "Activation"}, {"inbound_nodes": [[["activation_57", 0, 0, {}]]], "config": {"trainable": true, "seed": null, "rate": 0.1, "name": "dropout_1", "noise_shape": null}, "name": "dropout_1", "class_name": "Dropout"}, {"inbound_nodes": [[["dropout_1", 0, 0, {}]]], "config": {"kernel_size": [1, 1], "use_bias": true, "kernel_regularizer": null, "activity_regularizer": null, "kernel_constraint": null, "padding": "valid", "bias_regularizer": null, "strides": [1, 1], "kernel_initializer": {"config": {"scale": 1.0, "seed": null, "mode": "fan_avg", "distribution": "uniform"}, "class_name": "VarianceScaling"}, "dilation_rate": [1, 1], "trainable": true, "name": "conv6", "filters": 150, "data_format": "channels_last", "bias_initializer": {"config": {}, "class_name": "Zeros"}, "activation": "linear", "bias_constraint": null}, "name": "conv6", "class_name": "Conv2D"}, {"inbound_nodes": [[["conv6", 0, 0, {}]]], "config": {"function_type": "lambda", "function": ["4wIAAAAAAAAABgAAAAUAAABDAAAAc0EAAABkAQBkAgBsAABtAQB9AgABfAEAXAIAfQMAfQQAfAIA\nagIAagMAfAAAfAMAfAQAZwIAZAMAZAQAgwIBfQUAfAUAUykFTukAAAAAKQHaAnRm2g1hbGlnbl9j\nb3JuZXJzVCkEWg1rZXJhcy5iYWNrZW5kcgIAAADaBWltYWdl2g1yZXNpemVfaW1hZ2VzKQbaAXja\nBXNoYXBlWgNrdGZaCm5ld19oZWlnaHRaCW5ld193aWR0aNoHcmVzaXplZKkAcgkAAAD6bi9tZWRp\nYS9kZWVwYW5rL0YwNTI2OTUxNTI2OTFFMUEvTWFjaGluZV9iYXNlZF91bmRlcnN0YW5kaW5nX2F1\nZGlvdmlzdWFsL3Zpc3VhbF9kYXRhX2FuYWx5c2lzL2xheWVyc19idWlsZGVyLnB52gZJbnRlcnAR\nAAAAcwoAAAAAARABDAEYAQkB\n", null, null], "trainable": true, "output_shape": null, "arguments": {"shape": [473, 473]}, "name": "lambda_5", "output_shape_type": "raw"}, "name": "lambda_5", "class_name": "Lambda"}, {"inbound_nodes": [[["lambda_5", 0, 0, {}]]], "config": {"trainable": true, "activation": "softmax", "name": "activation_58"}, "name": "activation_58", "class_name": "Activation"}], "output_layers": [["activation_58", 0, 0]], "input_layers": [["input_1", 0, 0]], "name": "model_1"}, "class_name": "Model"}